MARTS/AutogluonModels/ag-20240821_022530/models/DeepAR/W0/gluon_ts/prediction-net-state.pt (torch, 109152 bytes, 11 tensors)

model.param_proj.proj.0.weight f4 [1, 40]
00000000: 4fdc e43b 7f42 9cbd a16f 9cbe 386c 23be
00000010: 9533 073e 6e89 563e 3b86 733e eb6c 7f3e
00000020: 83a3 883e ff68 553e a67c aa3e 161f 95bd
00000030: c375 093f b8b6 36be 65ad 753d 4a3e 673d
00000040: 7dda b1bd 19db c2bd 44a2 793e 093d 943e
00000050: cea5 91be 1a6d b4be 2246 4a3e 4c88 803e
00000060: 291c b0bd 0f3c 953e 89d1 8c3d 989d 263e
00000070: d7cc 5dbd 44aa 8fbd 6090 893e 7056 8f3d
00000080: 6c4b 303e 26d2 a93e 45e5 c4bd 071c b23e
00000090: 8be9 18be d5cc ed3d 7e83 4a3d 4d4d 8cbe
0.0069842706 -0.076298706 -0.30553916 -0.15959251 0.1320327 0.20950863 0.23781674 0.24943893
0.2668725 0.20840834 0.33298224 -0.0728132 0.53695315 -0.17843139 0.059979815 0.056455888
-0.086842515 -0.09514446 0.24378306 0.28952816 -0.2844681 -0.35239488 0.19753316 0.25103986
-0.08599121 0.29147384 0.06875903 0.16271055 -0.05415043 -0.070148975 0.26867962 0.069989085
0.17216271 0.33168143 -0.09614042 0.34787008 -0.1493284 0.11611334 0.049441807 -0.27402726

model.param_proj.proj.1.weight f4 [1, 40]
00000000: d01a eabd d0a3 bdbd bb9c 2c39 5500 6cbd
00000010: 824c a8bd adab 063e 7dfa ef3d ac46 163e
00000020: 5f33 b0bb 4aad c23d 197d 313d 17a4 b43b
00000030: 1dc4 223c 4bde 9f3d 94c8 bc3d 71ec 7a3d
00000040: e316 b7bd 71b6 adbc 8c1f 023e 0fb8 973c
00000050: 6afc 90bd 0d78 aabd 3f65 c83c 71d3 1d3e
00000060: 1487 95bb fa77 ca3d 943d f0bc e77d 0abe
00000070: ceee cb3d 2de0 1c3e aaad ef3d 1a62 ff3d
00000080: b365 3bbd 869b 4e3d bc72 d83d a2fb 73bd
00000090: df5f 88bd 18b4 80bd d2fa 2d3d 0def 02bd
-0.11430895 -0.092597604 0.00016461585 -0.057617504 -0.08217718 0.13151427 0.11717699 0.14675397
-0.0053772177 0.095057085 0.043332193 0.005512725 0.009934452 0.07806071 0.09217945 0.061260644
-0.08939912 -0.021205159 0.12707347 0.018520383 -0.07079394 -0.08323679 0.02446234 0.1541269
-0.0045632217 0.09886165 -0.029326238 -0.1352459 0.09957658 0.15319891 0.11703046 0.12469883
-0.045751285 0.050441287 0.10568759 -0.059566148 -0.06658911 -0.0628435 0.04247553 -0.031966258

model.param_proj.proj.2.weight f4 [1, 40]
00000000: 4dd6 a7bd 311c 9f3d b263 0a3d bd5b 773e
00000010: 7011 61be 79e9 00bd 98d1 11be df63 93bd
00000020: bf58 26be 6f9d 76be 4c5e 4bbe dbf9 7b3e
00000030: 43d3 f6bd 324d 4f3e a678 163d eae7 34be
00000040: e497 823e b5a8 dd3d 56a1 68be c9ca 69be
00000050: a4cb 4a3e bfcb 393e c4b3 5cbd 8e83 68be
00000060: 21f3 503e 1a3e 80bd eff7 763c e128 e5bd
00000070: 6a8f 103e 0d61 ce3d 4e3e 61bd e1c3 533d
00000080: 5dbe 44be 365d fbbd d517 153d c70e e4bd
00000090: 00c3 bfbc 2855 81be 6f26 5ebe 4ad5 033e
-0.081951715 0.07769049 0.033786483 0.24156089 -0.21979308 -0.031472657 -0.1424011 -0.07196783
-0.16244791 -0.24083494 -0.1986019 0.24607031 -0.12052014 0.20244291 0.036736153 -0.17666593
0.25506508 0.10823194 -0.22717795 -0.22831263 0.19804245 0.18144129 -0.053882375 -0.22706434
0.20405246 -0.06261845 0.01507376 -0.11189438 0.14117208 0.10077105 -0.05499106 0.051700477
-0.19213243 -0.12273638 0.03639968 -0.11135631 -0.023408413 -0.25260282 -0.21694349 0.12874332

model.rnn.weight_ih_l0 f4 [160, 37]
00000000: dc4d 35bd 3af4 97bd e906 473e c29c d23d
00000010: dfb7 f4bc 75bd 3a3e 26b0 243d 3c97 903c
00000020: 74ea 3e3e 9bdd a83d 3aa2 c63d 8a8c 3c3e
00000030: 0550 d1bd 8c0d 383e 42b4 afbc 24f0 613c
00000040: 9bb3 92bd e818 eabc a232 cc3d e3e5 e2bd
00000050: d65d cd3d 12c8 813d 2621 2f3e 751a db3d
00000060: e214 f13d fcba 9cbd dd74 053e 47f3 a7bd
00000070: a5ad 993d 6c5d 05be 8eff a03d eaf7 18bd
00000080: 4564 3b3e d616 7d3d 0a2e 67be 6f21 25be
00000090: d5ca b63d 6249 013e 750b a73d e21f c5bd
000000a0: 4244 d1bd dfd4 fa3d 991f c4bd dfcd 2d3c
000000b0: 39e7 b4bc b780 e23b 4b70 3c3d 051c 81bd
000000c0: a774 08be 1409 033d 91e5 1a3d 150a 133e
000000d0: e797 e53c 9932 843b c1fa 053e d573 ac3d
000000e0: e078 123e 307f 573c 5e9a 4c3e a3ab 61bd
000000f0: d3c8 ae3d d253 86bd b695 843d b9c5 c43d
00000100: 4c66 423c ca23 a4bd ecf2 58bd f5a4 febd
00000110: 537c 1ebd 8e1b e13c a938 a03d 10b9 343e
00000120: e622 96be dc79 9f3d b8e3 743d 342e a03d
00000130: b002 1f3e fc2d 753b b3d4 19be 588e 11bc
00000140: 3a39 27bd 4168 f83d 842b c3bc f480 29be
00000150: af23 2bbe f116 db3d 7e99 1f3e c721 c73d
00000160: 2d6f c53d ce56 9e3d 1910 da3d 75f1 83bd
00000170: 0737 6cbd 7a79 5cbc e31e 54bd 0903 6bbd
00000180: 2021 8a3d b612 a1be ce6d 24be f044 8bbd
00000190: fffb 14bc fcd8 d0bd 9547 e8bc e1ad 7bbc
000001a0: bc54 b4bd d1b4 0cb9 b6c1 e43d 7d1a 433e
000001b0: fc82 79bd 43bb 8cbf 1af8 9b3d 5eb5 1c3b
000001c0: f892 1f3d 8fab bd3d 9900 a0bc 6b08 2b3e
000001d0: bf1f 193e d82f aa3d 08a7 653d a7c8 c33d
000001e0: 2cd4 2dbd ea3a 52bd 3b51 7e3d eae3 03be
000001f0: c2d5 6fbd 944f 9d3d d777 1d3e beac c23d
00000200: 70f8 e7bd 1162 8fbd af11 f9bd 5c93 0d3e
00000210: a74c 28be 11ff 02bd 9dd3 07be c54e 5ebd
00000220: ee21 83bd 8ffd b5bc 04bf cf3d 48f4 fcbd
00000230: fd41 91bd c257 eebc 1e2b 8fbb 2a4d 933d
00000240: fc63 293e d6c0 49bf 094a 20be 5683 033e
00000250: 9ce5 593d e80f 7d3d 3c1c f0bd e941 0fbe
00000260: 3dbd 03be f149 1bbe 009c eeba 692a ecbd
00000270: 5fff 00be 048a 0abe 2bcf c0bd eb16 d4bd
00000280: fad2 2b3d 99a7 b43c e4e7 113e 6044 103e
00000290: e873 8fbc ec9c c73d 464f 8d3d 3dcc dc3d
000002a0: c2ac 60bd 6ae9 563d 1761 413d 0080 76bd
000002b0: e4db c8bd 7a67 4fbe 3b94 7cbc 1ea7 d33d
000002c0: 8e8d 89bd 2913 363e cfd6 2fbd 9a3b 093d
000002d0: 31e6 eabd 6c79 10be a8b6 bf3e 8c2f 363d
000002e0: c2e6 043e 98e5 6b3d 9ae0 493e 5471 0c3e
000002f0: 2a7c c03d 5e65 5dbd eb3c 083e 444b d23d
00000300: b9b8 68bd 42e7 063e 04fd 363e 6817 77bc
00000310: 3970 433e 9f60 5abd d0d7 7fbd 1a79 d8bc
00000320: 9c93 273d 4e88 b9bd 333c 9ebd a897 5a3e
00000330: b06d 333e e7b0 0b3e 16e8 4f3e ccc9 d23c
00000340: dded 393e dbaf 173e 6964 8fbd b093 fd3d
00000350: 9608 043e 814a a9bd a837 833d 48eb aa3d
00000360: 576c 58bc a7cc 8c3d 0d63 e6bc 747b c3bc
00000370: 724b 16be b238 db3d 97fb bebd 607c 95bd
00000380: 3fd8 9fbc b065 d5bd 84d3 febb 47f8 fe3c
00000390: 9ac2 c6bd 0e0d 27bd dfbb 85bc 4900 35bc
000003a0: 57d0 12bd 9f9a 07bc caca 6abd b6b5 103e
000003b0: 09bf 2c3d 34c3 123e 155b a2bd 6fbf 2e3e
000003c0: 8823 183e 2c2d 59bd c063 c93d c47b 47bd
000003d0: ad75 00bd 3213 4f3d bfac 9dbd 9f1d cabd
000003e0: 6d76 fb3d b8c8 eb3d e8bf acbd f46d 43bd
000003f0: 3c28 3ebd d819 24bd 60cb ac3d 8191 b4bd
-0.044263706 -0.074196294 0.1943623 0.102838054 -0.029872833 0.18236335 0.04020705 0.01765024
0.18644124 0.08245393 0.09698911 0.18412986 -0.10220341 0.17973918 -0.021448258 0.013790164
-0.07163163 -0.02857633 0.09970595 -0.11079004 0.100276634 0.063369885 0.17102489 0.10698406
0.11771561 -0.07652852 0.13032861 -0.08200698 0.07503823 -0.13023919 0.07861243 -0.037345804
0.18299969 0.061789356 -0.22576156 -0.16126035 0.08925406 0.1262565 0.08156482 -0.09625222
-0.10218097 0.12247633 -0.09576339 0.0106081655 -0.022082912 0.0069123167 0.04600553 -0.063041724
-0.1332575 0.03199108 0.037816588 0.14359315 0.028026534 0.004034352 0.13083936 0.08420531
0.14303923 0.013152882 0.19980761 -0.055095326 0.08534398 -0.06558956 0.064738676 0.09608025
0.01186521 -0.08014639 -0.052966043 -0.12433807 -0.038692784 0.02747896 0.07823307 0.1764872
-0.293235 0.07786915 0.059787482 0.078213125 0.15528369 0.0037411442 -0.15022545 -0.008884035
-0.04082606 0.1212926 -0.02382446 -0.16553098 -0.16712831 0.10697735 0.15585896 0.097232394
0.09640346 0.077314004 0.10647602 -0.06442539 -0.057669666 -0.013456697 -0.05178727 -0.05737594
0.06744599 -0.31459588 -0.16057512 -0.06800258 -0.009093284 -0.101976365 -0.028354445 -0.01536128
-0.08805224 -0.000134188 0.1116976 0.19053073 -0.060915932 -1.0994648 0.07615681 0.0023911814
0.03895852 0.09261238 -0.019531535 0.1670243 0.14953516 0.08309907 0.056067497 0.09559756
-0.04243867 -0.051325716 0.062089186 -0.12879911 -0.058553465 0.07681194 0.15377747 0.09505604
-0.113266826 -0.070011266 -0.12161576 0.13825744 -0.1643549 -0.03198153 -0.13264318 -0.05427434
-0.06402956 -0.022215633 0.10143855 -0.123512805 -0.070926644 -0.02909458 -0.0043691536 0.07192452
0.16542047 -0.7880987 -0.15653242 0.1284307 0.05319749 0.061782748 -0.11724135 -0.13989986
-0.12865157 -0.15164925 -0.0018204451 -0.115315266 -0.12597416 -0.13529211 -0.09414514 -0.10355934
0.04194925 0.022052573 0.14248616 0.14088583 -0.017511323 0.09746727 0.06899886 0.10781143
-0.054852255 0.052468695 0.047211733 -0.060180664 -0.09807566 -0.20254317 -0.0154162 0.103346094
-0.067164525 0.17780747 -0.042929467 0.033504106 -0.11469687 -0.14108819 0.37444043 0.044478938
0.12978652 0.057592005 0.19714585 0.13715106 0.093986824 -0.05405175 0.13304488 0.10268262
-0.05681679 0.13174155 0.17869955 -0.015081264 0.19085778 -0.0533148 -0.062461674 -0.026424933
0.040912256 -0.09059201 -0.07726326 0.21346915 0.17522311 0.13641702 0.20303378 0.02573099
0.18157144 0.14813177 -0.070015736 0.12381685 0.128939 -0.082661636 0.064071 0.083456576
-0.013209424 0.06874972 -0.028123403 -0.023862578 -0.14677218 0.10704173 -0.09325331 -0.07299113
-0.019512294 -0.10419786 -0.0077766795 0.031124247 -0.09705086 -0.040783934 -0.016324935 -0.011047431
-0.03584322 -0.008276611 -0.0573223 0.14131817 0.042174373 0.14332277 -0.07927529 0.17065214
0.14857304 -0.053021595 0.09833479 -0.048702016 -0.031362224 0.050555415 -0.07698964 -0.09868931
0.12278447 0.115128934 -0.08435041 -0.04771228 -0.04642509 -0.04006371 0.08437228 -0.08816815

model.rnn.weight_hh_l0 f4 [160, 40]
00000000: b1fa b63d 29cd 48bd 3784 f1bd 0796 a53d
00000010: fb5b f7bd c782 a9bd e621 193e 7efc cb3c
00000020: f73b 933d d397 8dbc a2ed 0abd d43e f53d
00000030: 3440 01be 3be9 92bd 46ff bcbd 6aca 75bd
00000040: a944 c6bd 0f01 1ebc 0f0a cb3c 49b9 0fbd
00000050: f037 b53d 3c12 a23b 51c9 8ebd ac88 d4bd
00000060: d11d f83d a60a 3e3c f648 8abd d4f5 8dbd
00000070: 9396 253e 76ae e03c 3b71 4a3e a145 febd
00000080: 1a4c bcbd b0e2 21bd 1f29 323d 4501 e43d
00000090: d0f3 ccbd fb92 403e d16c d4bd 5258 afbd
000000a0: 0ed7 bb3d 2bb2 d7bd 91ea babe 1214 bc3d
000000b0: b944 813d eb18 963d 5326 c13c 8235 85bd
000000c0: 1eef c63d 5e96 2f3e 5196 0abe 3dcf cabd
000000d0: 5bf0 733d e96e a3bd 4859 92bc eeb8 03bd
000000e0: 67cd 0abe 4524 0abe ccf9 d93d eb68 a43c
000000f0: b72c 4b3e 33c6 b83d e500 2ebe ae41 f43c
00000100: 7308 073e dab6 8fbc d2df 003d a024 473d
00000110: f1ce 1e3e 3efa e83d 76d6 073d b368 84bd
00000120: df89 cf3d 0c98 0d3e f466 303c e221 09be
00000130: 0e43 1dbe 6108 9dbb 13bf fabd 3f29 86bd
00000140: 6758 10be af89 50be 8da6 7f3e 73e9 0b3e
00000150: acd6 253e a390 a0bd 12f2 08bd 5a6c 88bd
00000160: 288d a1bd 29df d9bd 5980 94bd db07 feba
00000170: b8dd 09bd 6f60 0d3e e11f 283d 5b3c 26bd
00000180: c185 c3bd 1b26 c7bd 299f 6fbd d166 d73d
00000190: b4b8 3d3e 09e6 9dbd 8910 09be ebda c03d
000001a0: 0887 1b3d 80d9 26be a069 d9bd 038d 173e
000001b0: 2ffa 26be 970b 01be 3dad 073d 3756 293e
000001c0: 9f75 afbd 29cc 0b3e 63be aa3d be17 ecbc
000001d0: 8cad 73bd 450b ecbd 062e 1abd d258 30bd
000001e0: 1036 f3bb 2985 063e 07d8 eabd 9e8b c9bc
000001f0: fa9a ad3d dd78 c83d b834 cf3d 0797 f2bd
00000200: 72ca e7bc ab10 1b3e 6dae e83b 3688 933c
00000210: 1156 eabd e42f d8bd e6c3 833c cd97 e5bd
00000220: 1bf7 cbbd 0934 3bbc 0f47 ddbd 7404 00be
00000230: 3daa 083e 972f e83d 5f69 dfbd 9a89 25be
00000240: 4884 ea3b 4e8f cfbd 0892 e73d 8167 7e3e
00000250: 6554 2f3c 73c3 c7bd a241 dbbd de87 e7bb
00000260: 861f ac3d 4308 c03d 2197 c1bd d649 08be
00000270: 65ae 52bc 35b8 353c 5501 a93d f0c5 aabd
00000280: 73d6 913d ba8c 173b dca9 11be 9361 a6bc
00000290: 3710 b2bb 9bbb 113d 2882 3ebe 21a5 ce3d
000002a0: 853f 9a3d f199 8bbd caa6 9a3c d11f e3bc
000002b0: 3b43 b0bd 0e05 da3d 5984 2d3d 6bac d9bd
000002c0: bcfe 203e dde9 e73c d1b9 e8bd 8e6d 92bd
000002d0: cf1b aa3d 70ef ef3d d74e c2bd 34c1 bfbd
000002e0: e5c2 103e 925d 16be 9588 e73b db30 bdbd
000002f0: 44f5 023e 78e8 19bd 6d3d 9d3d d574 dabd
00000300: 43eb e83d 200d d13d be6e d63b b4e1 053e
00000310: 606e c73d f9a7 b5bd 1238 a9bc a221 ab3d
00000320: c7a9 90bd 3d6b 383e 1ae5 5fbe f6c2 d1bd
00000330: 9996 bdbc 7793 06be 751c 613e 7971 403e
00000340: 8f53 54be ed5b cdbc d5e5 27be 37aa 0cbd
00000350: 14ee 39be 4447 373d d612 a93d c389 c9bc
00000360: a986 debd 1032 c8bd 5f84 2d3e d442 b33a
00000370: 688f 13be e376 e8bd 950d 2d3e 9f45 bfbd
00000380: db98 0abc 5599 313e 734f debd 6c9a f63d
00000390: f325 b6bc 3dc0 023e b7e9 cabb d87b 333d
000003a0: 7149 1b3c 0c47 823c 9929 54bd 7aca a63d
000003b0: 7bad c53d 12c2 89bd 50a3 b93d 260e 183e
000003c0: 4ef4 283e 80c8 353e 5214 0ebe 73b0 a0bc
000003d0: 2efc 833d e26e 06be 6a53 3a3e d353 1d3e
000003e0: 46e6 af3d 3d1b 0a3d 8baa 2abe 9352 0cbd
000003f0: a7b6 783d afdb 343e 794c 2c3d 48ff 41bd
0.08934534 -0.04902378 -0.11792796 0.08085256 -0.12078091 -0.08276897 0.14954337 0.024900671
0.07189172 -0.01728431 -0.03391803 0.11974874 -0.12622148 -0.071733914 -0.09228377 -0.06000749
-0.09681065 -0.009643807 0.02478507 -0.03508881 0.0884856 0.0049460214 -0.06971992 -0.103776306
0.12115062 0.0115992185 -0.067521974 -0.069316536 0.16170721 0.02742694 0.19769756 -0.124156244
-0.09194203 -0.039522827 0.043496247 0.11133055 -0.10007441 0.18806069 -0.103723176 -0.08561768
0.09171878 -0.1053203 -0.36507085 0.091835156 0.06311936 0.073289715 0.023577845 -0.065043464
0.09713577 0.17147204 -0.13533904 -0.09902809 0.059555393 -0.07980139 -0.017864838 -0.032158785
-0.13554917 -0.13490398 0.10643348 0.02006956 0.19841276 0.090221785 -0.16992529 0.029816475
0.13186817 -0.017543245 0.03146345 0.048618913 0.1550863 0.11375855 0.03316351 -0.06465282
0.10133719 0.13827533 0.010766733 -0.13391832 -0.1535761 -0.0047922586 -0.12243476 -0.06550836
-0.14096223 -0.20365022 0.24965878 0.13663273 0.16195172 -0.07840087 -0.03343398 -0.066612914
-0.078882515 -0.106382675 -0.07251043 -0.0019381003 -0.033658713 0.13806318 0.041046027 -0.040584903
-0.09546996 -0.09724065 -0.058501396 0.105176575 0.1852749 -0.07709891 -0.13385214 0.09416755
0.037970573 -0.16293907 -0.106158495 0.14799885 -0.16306375 -0.12602077 0.033124197 0.16536795
-0.08567356 0.136521 0.08337095 -0.028819915 -0.05949168 -0.11525587 -0.037641548 -0.043053456
-0.0074222162 0.13136734 -0.11466985 -0.024602707 0.08476825 0.09788678 0.10117477 -0.118452124
-0.028294776 0.15143077 0.0071008713 0.018009286 -0.11442197 -0.105560094 0.016084623 -0.11210594
-0.09959241 -0.01142598 -0.10804569 -0.12501699 0.13346191 0.11337202 -0.1090877 -0.16165772
0.0071568824 -0.10134755 0.1130715 0.24844171 0.010701274 -0.09754076 -0.10705878 -0.007065757
0.0840445 0.09376576 -0.09452654 -0.13309416 -0.012858962 0.011091282 0.08252207 -0.08338535
0.07120981 0.002312465 -0.14224952 -0.020310199 -0.005434062 0.035579305 -0.18604338 0.100900896
0.07531647 -0.06816471 0.01887836 -0.027725132 -0.08606573 0.10645495 0.042362545 -0.10628589
0.15722173 0.028309757 -0.11363567 -0.07149802 0.08306085 0.11715591 -0.09487694 -0.093630224
0.14136846 -0.14684132 0.0070658424 -0.09237834 0.12788874 -0.037575215 0.07677732 -0.10666815
0.113729976 0.102075815 0.006543963 0.1307438 0.09737849 -0.08869929 -0.02065662 0.08356024
-0.070636325 0.18009658 -0.21864739 -0.10242264 -0.0231431 -0.13142191 0.21983512 0.18793286
-0.20735 -0.025068248 -0.16396268 -0.034342017 -0.18157226 0.0447457 0.08255546 -0.024601823
-0.10865528 -0.09775174 0.16945027 0.0013676533 -0.14410174 -0.11350801 0.16899712 -0.09339451
-0.008459295 0.17343648 -0.108549975 0.120411724 -0.022234892 0.12768646 -0.0061924118 0.04381928
0.009477959 0.015903018 -0.051797483 0.08144088 0.096522294 -0.06726469 0.090643525 0.14849147
0.16499445 0.17752266 -0.13874939 -0.019615388 0.06444584 -0.13128236 0.18195882 0.15364008
0.08588843 0.033717383 -0.1666662 -0.034258436 0.060721066 0.17661928 0.042065118 -0.047362596

model.rnn.bias_ih_l0 f4 [160]
00000000: 446f b53c d25b be3d 2320 0dbe e906 e1bd
00000010: 0e8e 0c3e 987c 313c 9f35 28bd b571 1d3d
00000020: 15a2 11be b099 da3c b2d8 0d3e d2b2 e0bd
00000030: 5835 463d b5b2 f9bd e542 1d3e 7841 a93d
00000040: 3a78 e83d 4cda 36be 825b 37be de2d 5d3d
00000050: 3e4d adbd 142f a93d 2a0d 323e 0d60 9e3c
00000060: 7876 99bc dd48 493d 6e15 403d c9d3 a33d
00000070: f706 d43c 220c fabc e34c 393e ecd0 dc3d
00000080: a458 aa3d d9d4 a43d 69c0 53bd 4050 ebbd
00000090: 52e7 98bd 693f 17bd 9c87 f1bd 948b 333e
000000a0: c20f c8bc 7d9b b2bd 7bfe 9abc a670 563c
000000b0: 2d2d 1c3e e32a 363e 2494 313d 2a10 21bc
000000c0: cdb9 91bb b2f0 9fbd f487 0b3e a38d 083e
000000d0: 4dd7 c6bc 9301 1a3e 1cfb 3abc 3196 933d
000000e0: e7c4 363d d61b 8abd b10c 243c 8ea9 1a3e
000000f0: ae2e 4cbd 86ca 723e 2f8c 173e 1221 afbd
00000100: 111f bf3d 1363 033e 93d7 b93d 36ad b7bd
00000110: a579 053d ee3e d43d cef0 7dbb c797 043d
00000120: c0ff 9fbd 6c04 153d 0b42 ba3d 3988 c63d
00000130: e7dc 88bd 15a1 e83d 5838 0c3e d18d 03be
00000140: c493 3b3e 2933 903d 7dc5 10be 55fd 073d
00000150: 4a54 233e 5aae 06be 4544 0a3e 7267 ca3d
00000160: ae4f 483c 7650 aa3d 70a6 b1bd 2e72 e9bd
00000170: f955 08be 2fb2 5b3d d1ef f0bd 872e 9c3d
00000180: f32b 05be 3e60 bc3d 7782 74bd 6d20 48be
00000190: e01d 5a3d ee86 363c 2615 16bd ea84 153e
000001a0: e76b 3fbd e28a f13c 540a 1a3c 8148 01be
000001b0: c265 e03d 365c e0bd d97f d73c 0806 21be
000001c0: 4024 2ebd 7d92 d2bd e4e6 16be d5a7 cbbc
000001d0: b6de 573d 1326 99bd f8a1 8ebd 8f01 043b
000001e0: 6905 f8bd 6c4f aabd 8dd6 fa3d 7c8e 883d
000001f0: b1ba 913d e3ac 1a3e 934b 593d cf08 f53d
00000200: 231c 0c3e c0bd 86bd 7678 663b 4f52 4bbd
00000210: 44da 263e f1e7 de3d c733 113d 0e34 243e
00000220: 29c0 cfbd 000a 02be 0117 643b 34ee 473e
00000230: 8190 0e3d ef7e 263e aa64 0bbe 1aaf 10bd
00000240: 77a8 2c3e 3621 303d 035c e3bd d117 df3b
00000250: ca4c bd3d cde1 e33d 7b45 273e c2ae ea3d
00000260: 7ae9 523e 33f4 71bb 4d0b 603e 29da c2bd
00000270: 1a1f 3b3d f3db 95bc 43c6 80bd edce 3c3e
0.022147782 0.09294857 -0.1378179 -0.10987646 0.13726065 0.010832928 -0.041066762 0.038438518
-0.14221986 0.026684612 0.13852194 -0.10971607 0.048390716 -0.12192289 0.1535755 0.0826444
0.113510564 -0.17856711 -0.17906001 0.05399882 -0.084619984 0.082609326 0.17387834 0.01933291
-0.018733248 0.049141753 0.046895437 0.07999379 0.025882227 -0.030523364 0.18095736 0.10782036
0.08317688 0.0804841 -0.05169717 -0.11489916 -0.07465996 -0.036925707 -0.117934436 0.17533714
-0.024421576 -0.08721063 -0.018920174 0.013088381 0.15251608 0.17789797 0.04335417 -0.009830514
-0.004447198 -0.07809581 0.13626081 0.1333528 -0.024272585 0.15039663 -0.011412408 0.07206381
0.044621374 -0.067435905 0.0100127915 0.15103742 -0.049849205 0.23710069 0.1479957 -0.085512295
0.09332097 0.12830763 0.09074321 -0.08968584 0.032586712 0.103635654 -0.0038748267 0.03237131
-0.07812452 0.03638117 0.09094628 0.09693951 -0.06682759 0.11358849 0.13693368 -0.12847067
0.18318087 0.07041008 -0.14137836 0.03320058 0.15950122 -0.13152447 0.13502605 0.09883012
0.012226028 0.08316128 -0.086743236 -0.11398731 -0.13314046 0.053636726 -0.11764491 0.07626062
-0.13005047 0.09198044 -0.059694733 -0.1954362 0.053251147 0.011140568 -0.036641262 0.14601484
-0.046733763 0.02948517 0.0094018765 -0.12625314 0.10956909 -0.10955088 0.02630608 -0.15724957
-0.04251504 -0.10281847 -0.14736515 -0.024860302 0.052702628 -0.07477965 -0.06964487 0.002014253
-0.12110407 -0.0831593 0.122479536 0.06667802 0.07115687 0.15105014 0.05305059 0.11964571
0.13682608 -0.06579161 0.0035167015 -0.049639042 0.16294199 0.10884083 0.03544977 0.16035482
-0.101440735 -0.12699127 0.003480375 0.19524461 0.03480578 0.16259359 -0.13612619 -0.03532324
0.16861139 0.043000422 -0.11101534 0.006808259 0.09243162 0.111270525 0.16335098 0.11459114
0.20596877 -0.0036919236 0.21879311 -0.09514267 0.045683958 -0.018293357 -0.062878154 0.18438311

model.rnn.bias_hh_l0 f4 [160]
00000000: 81d5 9bbd 42be e23c 58af 09be d78b b9bd
00000010: dbc7 7bbd 8e3d 76bd c29f e7b8 cbfc 563d
00000020: 97d1 40be 0562 b73d cdc6 613d 1845 13bd
00000030: 6040 df3c 16aa 35bd d414 c2bd 9344 a2bd
00000040: 1676 01be bb8d a23d dec3 fc3d 0ede ad3d
00000050: e245 263e bc0e 35bb cce7 953d 80f7 05be
00000060: c0cc ca3d 4594 e5bd 25c1 d7bd f54c 9bbd
00000070: 4dde c43b c244 97bd 4ed4 333e f824 8cbc
00000080: 6e1b 483e 10d4 8d3d dc85 9a3c 4aa5 ddbd
00000090: 6376 443e 223e 0bbd d4bc abbd a5c2 acbd
000000a0: c284 01be c749 d03c 8a9a c4bd d0cf d73d
000000b0: ceb6 97bd 6587 2b3e d611 b4bd 7f33 e1bc
000000c0: dc3b b93c a50b 62bd b8bb 0b3c 50e6 543d
000000d0: 0873 cdbd e1d6 f93d be70 c33c 91df d43d
000000e0: 42af 03be 0d80 5a3d 3e52 923c eed9 093e
000000f0: b47a 1c3e 02dd a63d 45f5 a9bd 1201 993d
00000100: 2d48 54bd fe0d 9b3d b4bb 3a3e 59ae d7bd
00000110: a88c ae3d 180e a83a 7c88 f63c acf5 873d
00000120: 4cf2 e0bc 5358 013e 6ee8 0f3e 2882 f3bd
00000130: d8a5 4b3d fbd5 fe3d 3afd 473e 4a13 0b3d
00000140: ce9a 453d 5fa0 073e 020f d23d effd 06bd
00000150: bee4 c03b 14c1 45bd 9d48 453e 02c6 ec3c
00000160: d3c1 fbbc 6ab2 b1bd 8260 b1bc a340 01be
00000170: 796e 4abd d073 a0bd a936 d43d d774 053e
00000180: 5aa9 c4bd 60ca eebd a465 bcbd 3c59 923c
00000190: 3e54 11be c317 783d 7f31 68bd 728e 31bd
000001a0: f47a e53c f327 f53d d219 b83d 7ebc f33d
000001b0: 63ea 7dbd a56c 0b3e 4172 8e3d 4180 49bd
000001c0: 6a93 c1bd 3c22 c8bd 0d32 48be 056c 88bc
000001d0: aecb d23c 0f24 073d 3fc1 35be 4e8a bc3d
000001e0: ac89 443c 104e afbd 2646 123e f461 b4bd
000001f0: 326d b83c ffaf 1f3e 3511 223e c58b 0c3e
00000200: ce35 563e d592 463e 1f14 02be 18a5 17bc
00000210: 1189 1e3c 1812 6f3c 7a22 91bd 440b 58bd
00000220: 5f28 a93d 9395 08be ed3e 153d 43cf 02bd
00000230: 9504 30bd c2d8 bbbd 1fb3 12bd 5a41 3cbd
00000240: df96 2d3d 6874 3bbd 19e7 5ebc 825a 193e
00000250: 6be8 573d 5d27 983d 624e c0bd 5b4f f43d
00000260: aac9 063e 86a5 e03d 0e6c be3d 8902 3c3e
00000270: c027 9abd 957f 443e e8ef 273e e44c 0b3d
-0.07609082 0.027678613 -0.13445795 -0.090598755 -0.061469894 -0.060117297 -0.000110446956 0.052487176
-0.18829952 0.089542426 0.05512123 -0.035954565 0.027252376 -0.04435166 -0.09476629 -0.07923236
-0.12642702 0.07937189 0.12342046 0.08489619 0.16237596 -0.002762719 0.07319602 -0.13082695
0.09902334 -0.11209921 -0.10534886 -0.07583038 0.0060079456 -0.073861614 0.17561457 -0.017107472
0.19541714 0.06925213 0.018862657 -0.10822542 0.19185786 -0.0339948 -0.083856255 -0.08435563
-0.126483 0.025425805 -0.095997885 0.10537684 -0.07407914 0.16750868 -0.087924644 -0.027490376
0.022611551 -0.055186886 0.008528642 0.051977456 -0.10031706 0.12199188 0.02385747 0.103942044
-0.12859824 0.053344775 0.017861482 0.1346204 0.15281183 0.08147623 -0.082987346 0.07470907
-0.051826645 0.07571028 0.18235666 -0.10531301 0.08522922 0.0012821583 0.030094378 0.06638655
-0.027459286 0.1263135 0.14053509 -0.1189006 0.049718708 0.12443157 0.19530192 0.033953942
0.048243336 0.1324477 0.10256769 -0.032957014 0.005886643 -0.048279837 0.19265981 0.028903011
-0.030732071 -0.08676608 -0.021652464 -0.12622313 -0.04942176 -0.078345895 0.10361988 0.13032852
-0.09602614 -0.11659694 -0.09199074 0.017864816 -0.14192292 0.060569536 -0.05668783 -0.043348737
0.02801273 0.1197051 0.089893 0.119011864 -0.061991107 0.13615663 0.06955386 -0.049194578
-0.09451945 -0.09772155 -0.19550343 -0.01665307 0.025731888 0.032993373 -0.17749499 0.09206067
0.011995714 -0.08559811 0.14284572 -0.088077456 0.022513006 0.15594481 0.15826876 0.13725193
0.20918962 0.1939195 -0.12702988 -0.00925567 0.009676234 0.014591716 -0.07086654 -0.05274512
0.08259653 -0.13338308 0.036436964 -0.03193594 -0.04297312 -0.09172203 -0.035815354 -0.04596076
0.04238021 -0.04576531 -0.013604903 0.14975932 0.052711885 0.07429383 -0.0938995 0.11929198
0.13162866 0.10969071 0.092979535 0.18360342 -0.07527113 0.19189294 0.1640011 0.034008875

model.rnn.weight_ih_l1 f4 [160, 40]
00000000: 4435 acbd 724f 16be 936b 183d efa9 f93c
00000010: 5925 27be de6f efbd d6c9 2a3d 285e 763d
00000020: c6b0 153e 038a 45bd 8bfa 34bc c8e5 013e
00000030: f848 0ebe 9c65 36bd eb66 e9bd e574 fabc
00000040: de82 75bd bf3b f63b e27a ed3b ea91 85bc
00000050: f90f 6a3d 3d00 a33d 9839 833d 5e0f c1bd
00000060: 2fcc d93d ee8b 383d e6e6 a3bd c562 cc3c
00000070: bc0b 22be b342 17be f51a 1dbc cb19 99bd
00000080: a00b 10be 0d8b 62bc f8d0 c4bd ac20 da3c
00000090: 9147 1dbe a809 a73a 5f6f 803d b82d 1fbe
000000a0: ccd7 223d fed9 163d 6530 c23d 254c 703d
000000b0: 921f f5bd 1e45 493b 7b48 b93c 2f16 07be
000000c0: c9ac 10bc 0dc5 4cbd 3196 ca3d cb50 b5bc
000000d0: ace9 adbd 8a07 b9bb 7d90 97bd 7075 adbd
000000e0: 90c3 043b 0c3b c03c ec1d fdbc 5430 a7bc
000000f0: c13c 313d f87e ecbd de49 51bb 4c14 febc
00000100: 671e 17bd c19e 293e d820 04be 4778 3b3e
00000110: 920c 19bd 3175 243e 3fcb 09be b02d 043e
00000120: fa1e 12bb e8fa b3bc bd43 37bc e036 aa3d
00000130: f363 253e 2105 a33d 598a e6bd 2f09 a83d
00000140: 29e1 d73d 2b89 bcbd cc79 74be 4642 15be
00000150: ca1f 2cbd 5da7 303d cee6 14bd eddc 4a3d
00000160: aed8 8cbe 7e06 6b3e c29e 5e3a 4449 c6bd
00000170: 14e8 e13d a052 1c3e 28d5 d0bd 9926 53bc
00000180: 0046 c53d fdfe 9f3c d11b 7bbd 6e3d afbd
00000190: 46e6 913d 91fb 08be e8bf 9abd 5baa 853d
000001a0: 3dc1 18bd 3d5a b6bd 1acb 743d 85b0 293e
000001b0: 34a9 0e3e 455a 1cbd 028a aebd 3f38 603d
000001c0: c9a0 843b 6926 2fbc 7c18 2e3c 81ef b13d
000001d0: a811 413d d03e 0d3e 957b 843d 9a61 97bd
000001e0: a556 7dbd 6ca6 58bc 0d41 673d 9d3c 4ebd
000001f0: 594b b0bd 0c3f 5b3d 72ef b03d 5b50 a9bc
00000200: 8260 6ebd 9070 c2bc b16e 043e b5b6 e03d
00000210: 9beb 1e3d 8df2 bf3d 6365 0cbe 8c5d dfbd
00000220: f18d 393e 8e21 0d3c f81b fd3b 73e0 f73c
00000230: 5237 ddbd 5e4c d03d 81f0 c73d 2930 1b3e
00000240: 2297 1f3e acf3 1b3e a9f1 b63d 12f9 e63d
00000250: 6fd5 02be d27e 5fbd 3533 3cbe d546 75bd
00000260: 2d05 0f3e ab66 c0bc 083c 0abe d76e cfbd
00000270: 0c10 d13d e952 c73d d8dc ccbd d520 3ebc
00000280: 1d9a 75ba 33e6 b23c fe3e 973d 9e21 e03d
00000290: 79aa e9bc 46c3 d6bd 7678 72bd f2f6 993c
000002a0: ff59 953e 9923 04be 4961 393d 62b8 c73c
000002b0: 9356 41bd f917 86bd 1965 33bd 8894 d43d
000002c0: 5787 113e 1783 b3bd 5c94 4e3d 24a3 33bd
000002d0: 45a3 903c 6d9f bd3d c902 e2bd 08f8 9d3d
000002e0: 03ef ad3d 572f 05be 36d0 c63c 7879 b1be
000002f0: 4e18 e13d bfe8 1abe 5c08 653c 41f1 043d
00000300: a8ff 873d 7c5f f93d 2656 b23c ac29 d13d
00000310: bbbf 013e 7d41 d93d 245a 223d 0939 edbd
00000320: 3282 c2bd 4c4b df3d f70b 003e 44a4 33be
00000330: 7396 8a3d 6bbd 2cbd e1e3 14be 5252 ec3d
00000340: 6422 b9bd 5222 163e 7c5e e7bc 35f8 b53d
00000350: 31e0 82bd fd81 3a3d 2b54 163e 677c 3d3b
00000360: 3933 623d bfd6 07be ae3b d0bd ca11 233e
00000370: 38e1 5d3d ac4a 15bd d0ed e0bd ff0b 3a3d
00000380: 8680 7b3d d790 a4bd 3751 ecbd e561 123e
00000390: 45bf 4e3d 3101 043e 484a 013e 3d63 863d
000003a0: 6e60 833d 41ea a7bc 3028 753d 5110 ac3d
000003b0: ab03 c0bd f58f 06be a81a e43d f5b5 d63d
000003c0: 7900 113e fe34 cc3d b3db c73d 3d49 04be
000003d0: 7a33 323d 3553 a0bd d060 f8bd 8ba6 123e
000003e0: e4c0 b2bc 4e69 923d fb5f 013d 797f 4a3d
000003f0: 556d d63d 4706 61bd 9e17 053e ed22 5b3d
-0.08408597 -0.14678743 0.037211966 0.030476538 -0.16322841 -0.11691259 0.041696392 0.06014839
0.14618215 -0.04822732 -0.011046062 0.12685311 -0.13895023 -0.044530496 -0.11396583 -0.030573318
-0.059939258 0.0075144465 0.007247315 -0.016304929 0.05714414 0.0795903 0.064074695 -0.09426759
0.10634648 0.045055322 -0.08003025 0.02494944 -0.15824789 -0.14771537 -0.009588947 -0.07475623
-0.14066935 -0.013827098 -0.0961017 0.026626907 -0.15359332 0.0012743967 0.06271242 -0.15544784
0.03975658 0.036828987 0.09481887 0.058666367 -0.11968912 0.0030711363 0.02261757 -0.13192056
-0.008830258 -0.04999261 0.09891928 -0.022133252 -0.08491835 -0.0056466507 -0.07400606 -0.08469665
0.0020258166 0.023465656 -0.030898057 -0.020408787 0.04327083 -0.11547655 -0.0031934897 -0.031015538
-0.03689423 0.16564466 -0.12903154 0.18307601 -0.037365504 0.1606033 -0.13456438 0.12908053
-0.0022296296 -0.021970227 -0.011185584 0.08311248 0.16151409 0.07959963 -0.112568565 0.08204877
0.10540993 -0.0920585 -0.23874587 -0.14576063 -0.042022504 0.04312836 -0.036352925 0.049527097
-0.27509063 0.22951695 0.00084922847 -0.09681943 0.110305935 0.15265894 -0.10196906 -0.01288762
0.09632492 0.019530768 -0.061305825 -0.08556639 0.07123999 -0.13377215 -0.075561345 0.06526633
-0.03729366 -0.0890393 0.059764005 0.16571243 0.13931733 -0.038172025 -0.08522417 0.05474114
0.0040474874 -0.01069031 0.010625955 0.0868826 0.04713598 0.13793492 0.06468884 -0.07391663
-0.06185021 -0.013223272 0.05645852 -0.050350774 -0.086081214 0.053526923 0.086394206 -0.0206682
-0.058197506 -0.023735315 0.1293285 0.109723486 0.03879891 0.09372435 -0.13710551 -0.109065145
0.18120553 0.008613957 0.0077242814 0.030258393 -0.10801567 0.10170816 0.09762669 0.1515509
0.15584996 0.15229672 0.08932812 0.11277975 -0.12776731 -0.054564305 -0.18378909 -0.059882004
0.13966818 -0.023486456 -0.13499463 -0.10128563 0.10208139 0.09732611 -0.1000306 -0.011604507
-0.0009368973 0.021838283 0.07385062 0.10943912 -0.02852367 -0.10486464 -0.05919691 0.01879451
0.29170224 -0.12904204 0.045258794 0.024379913 -0.047201704 -0.06547541 -0.043797586 0.103798926
0.14211784 -0.08765238 0.050434455 -0.043856755 0.017655978 0.09258924 -0.110356875 0.07713324
0.084928535 -0.1300634 0.024269205 -0.34662986 0.10990964 -0.15127848 0.013979044 0.03245664
0.066405594 0.12176415 0.021769594 0.102130264 0.12670796 0.10608194 0.039636746 -0.11583144
-0.09497489 0.109030336 0.12504564 -0.17543131 0.06766977 -0.04217283 -0.14540054 0.11539139
-0.090397626 0.1466153 -0.028243296 0.08885232 -0.06390417 0.045534123 0.14680545 0.002891326
0.05522463 -0.13265513 -0.10167633 0.15924755 0.054169863 -0.036448166 -0.10982859 0.045421597
0.061401866 -0.080354385 -0.11538928 0.14295156 0.050475378 0.1289108 0.12625992 0.06561897
0.06414877 -0.020497443 0.05985278 0.084015496 -0.093756996 -0.13140853 0.11137897 0.10483924
0.14160337 0.09971045 0.09758701 -0.12918563 0.043506123 -0.078283705 -0.121278405 0.14321344
-0.021820493 0.071489915 0.031585675 0.049437974 0.10470072 -0.054937627 0.1299729 0.053500105

model.rnn.weight_hh_l1 f4 [160, 40]
00000000: 0d8c 71bc 5ffa 00be 608b d33d b742 813d
00000010: a8dc f0bc 9c52 1ebe 19f5 b83c 4a38 993d
00000020: 905a b03d 621f 643d 3d48 8d3c aee5 a33d
00000030: 0aa9 bfbb 1943 f83b 3283 17be 6bad bcbd
00000040: 5e26 ee3d afe8 86bd 3ff4 ecbd a3b1 9d3c
00000050: e43f a73d 5d89 4f3d 8801 8c3d 0a61 013e
00000060: e774 1d3e db8a 4a3d 6eff dcba a373 25be
00000070: 4665 f8bd 868a 0bbd 74d2 083e edf8 93bd
00000080: db3e c0bd 7ab5 d9bc 1677 0e3e 005a aabb
00000090: 76f5 8cbb 035a a23d 99b7 10be a9ce 983d
000000a0: c713 14be 8c09 593d bdf2 77bd f97f 13be
000000b0: 43d3 a7bd 6d0d e73d 8eae 9cbc a5e9 b3bd
000000c0: dcd8 fd3d e986 2a3e 744c 863c fd37 0b3d
000000d0: 8e7b 3b3d ff63 6bbd efe9 d5bd c3de 3cbd
000000e0: ef68 7cbd 7970 6c3c c1fc f3bc 61cf da3d
000000f0: 94bf 5b3d b823 95bd 2656 7f3c b752 133e
00000100: ed2b 153d 53c3 a6bd cc95 c33d 39c5 a0bd
00000110: 4d44 91bd 86cb 17bd 3fd0 71bd 2dca 0dbe
00000120: c9bf 203e ef8d 37bd 810b 25bd 2fa9 cc3d
00000130: 6719 e43b 13db 7abd 55f0 34bd 1490 da3d
00000140: cae9 e6bd ab7a 8a3d 2fa5 a73c 9525 0d3e
00000150: 0435 eabd b3c0 583d fe15 f1bd ad56 12bd
00000160: 9282 85bc e285 afbc 9bde 75bd c282 63bd
00000170: c946 863d c713 e5bc 0475 80bd 2a37 023e
00000180: e68b 19be 3510 cb3d 2597 11be 1297 223a
00000190: b168 a33b dfa4 c1bc e9cb ec3c 0eb8 4e3c
000001a0: 976c f53d b474 a43d 275c 0d3e 122c b53d
000001b0: c995 d9bd 2c95 00be e17b 5bbd b2af 61bd
000001c0: 482e 143d d158 be3d 1cc4 18be 69f7 bdbd
000001d0: 902a 15be 80ef 833c de15 b63d 5c33 383d
000001e0: c9de dfbc ab0e 0fbe a253 08bc 5e28 773d
000001f0: 0269 e4bd 3017 c83d 6d31 333d 0742 fdbc
00000200: b0b6 35bd 0bde 973d 53c9 853d fc3e 523d
00000210: 9d29 a4bd 947b d5bd fb0a cfbd 651c 333c
00000220: 04c4 02be 6764 313b f3e8 763d 4ca7 89bc
00000230: 15d9 ad3c aeff 9abd 1ab9 a93c 75c2 99bc
00000240: 6038 0d3d 8257 9fbd a6d5 093e 6ebb 50ba
00000250: 4eb8 c23d 174c 13be 353a ed3d 8b8e 963d
00000260: 0c10 d2bc 1686 963d 6887 4abd c90c 68bd
00000270: a1d5 56bd ca8c 3b3d 7ef5 86bd 2c80 0a3d
00000280: 12eb df3d 0a2c 753d a117 1c3e 5f19 21be
00000290: a885 7b3d 6d66 b6bb d5c6 44bd d972 363d
000002a0: 148a 0e3e fc7f cf3c 0e9b 193e 57b5 c5bd
000002b0: d5bc 9fbd d955 9c3d 0a1b 973d 4f3d 6f3d
000002c0: 3ec4 03be 0dcd 6f3d 768a 8dbb 53f0 b1bc
000002d0: d7dc a63d 292b e3bd ae21 2abe aaae 15be
000002e0: 9621 01be 9d54 b13b 9702 543c 0630 f83d
000002f0: 859c 53bd cdf7 47bd 15c4 d83d 3d9e 24be
00000300: 16b9 0abe 7fea 043e acdb d9bb 875d bf3d
00000310: 8efd 063e 413d bcbc 5adb 163d 6158 be3d
00000320: aef7 cd3d 21d0 a43d 1588 2dbc bd60 293d
00000330: 3465 fcbd e578 183e 0dff 823d b604 9dbd
00000340: 5b19 a03c 42d2 123e 268b 9fbd 4c4b 9b3d
00000350: 9f01 03be 1e86 ee3d 6969 8c3c c69a 05be
00000360: 9d6f dd3d 9f3c 1abb eb35 a7bc f937 8fbc
00000370: 7c89 8a3c dbaf 9f3d 9dae fdbd bedd 933d
00000380: b09d e33c 2ffd 2dbd a3c9 e93d 67af 47bc
00000390: bc6d d8bd 6b81 ca3d f584 93bd 35bf 003e
000003a0: 1c0b dd3c 13ad 843d ad01 2bbe 208b 16be
000003b0: 3d2a fdbc b47b 06be f70a b03d 7388 d13d
000003c0: 5c8b 043b 76d4 0c3e 77e6 0ebe 7ccf ecbd
000003d0: 9803 223e 9439 eb3d 96dc 5f3b 3700 193e
000003e0: f522 af3d 4e06 ef3b 1968 73bd c8ce 963d
000003f0: f32b 0a3d 4c1c b63d 3112 b83d e4db f5bb
-0.014742863 -0.12595509 0.10329318 0.06311553 -0.029402092 -0.154612 0.02257781 0.074814394
0.086110234 0.05569399 0.01724636 0.08002792 -0.0058490084 0.007576358 -0.14796141 -0.09212764
0.11628412 -0.065873496 -0.11570024 0.019249743 0.08166483 0.05066811 0.068362296 0.12634674
0.15376626 0.04944883 -0.0016860792 -0.16157393 -0.121286914 -0.034067653 0.13361531 -0.07225213
-0.09386989 -0.026575793 0.13912615 -0.005198717 -0.004301722 0.079273246 -0.14132537 0.07461292
-0.1446067 0.05298762 -0.060534228 -0.14404286 -0.08194592 0.11281858 -0.019126203 -0.087847985
0.12394878 0.16653027 0.016393878 0.03398894 0.045772128 -0.05746841 -0.1044501 -0.04611088
-0.06162351 0.014431112 -0.029783608 0.10684086 0.0536495 -0.072822034 0.015584504 0.14387022
0.036418844 -0.08142724 0.09550056 -0.07850117 -0.070931055 -0.03705933 -0.05903649 -0.13846655
0.1569816 -0.044813093 -0.040294174 0.09993207 0.006961036 -0.06124408 -0.04417451 0.10672012
-0.112750605 0.06761678 0.020464508 0.13783868 -0.11435893 0.052918147 -0.11771773 -0.03572719
-0.016297612 -0.021426145 -0.060026746 -0.055544622 0.0655647 -0.027963532 -0.06272319 0.12716356
-0.14994773 0.099152006 -0.14217813 0.0006202321 0.0049868454 -0.023638187 0.028905826 0.012617124
0.119836025 0.08030072 0.13804685 0.08846296 -0.106242724 -0.12556905 -0.053584937 -0.055099197
0.03617695 0.09294284 -0.1491856 -0.09275705 -0.14567018 0.016105413 0.088908896 0.044970855
-0.027327912 -0.13970439 -0.008320721 0.06034123 -0.11152841 0.09770048 0.043748308 -0.030915273
-0.044363678 0.07415398 0.0653254 0.051329598 -0.080157496 -0.10423961 -0.10109516 0.010932063
-0.12770087 0.00270679 0.06028075 -0.016803406 0.021221677 -0.07568298 0.020718146 -0.018769482
0.03447759 -0.07780363 0.13460407 -0.00079624995 0.095078096 -0.14384495 0.11583368 0.07351407
-0.025642417 0.073497936 -0.04944554 -0.056652818 -0.052449826 0.045788564 -0.06589793 0.03381364
0.10933508 0.059856452 0.15243389 -0.15732335 0.06140676 -0.0055664093 -0.048041184 0.04454312
0.1391986 0.025329582 0.15000555 -0.096537285 -0.07799689 0.07633562 0.07378204 0.058408078
-0.12867829 0.05854516 -0.0043194843 -0.02172104 0.081475906 -0.110922165 -0.1661441 -0.1461741
-0.12610468 0.005411698 0.012940071 0.12118535 -0.05166294 -0.048820306 0.10584275 -0.16075988
-0.13547167 0.12980078 -0.0066485014 0.09344011 0.13182661 -0.022978427 0.036830284 0.09294201
0.10057007 0.0804751 -0.0105915265 0.041352022 -0.123239905 0.14889868 0.06396303 -0.07666914
0.01954334 0.1433802 -0.07790212 0.07582721 -0.12793587 0.116466746 0.017140107 -0.13047323
0.10812304 -0.0023534668 -0.020411452 -0.017482745 0.01691126 0.07797214 -0.123868205 0.07220028
0.027785152 -0.042477783 0.11415412 -0.012187815 -0.10567805 0.09887966 -0.07203094 0.1257294
0.026982836 0.06478324 -0.16699858 -0.1470151 -0.03090393 -0.13133126 0.085958414 0.10231104
0.0020224666 0.13752922 -0.13955103 -0.11563012 0.15821683 0.114855915 0.003415858 0.14941488
0.085515894 0.0072944527 -0.059425447 0.07363659 0.03373332 0.08892116 0.08987845 -0.0075030196

model.rnn.bias_ih_l1 f4 [160]
00000000: 8cb0 263c 4900 363e 2682 e8bc 6889 a1bc
00000010: a804 853d 383d a9bd c05d dd3d 1598 f3bd
00000020: fbe3 2dbe 7a77 ea3d 2672 4e3e 6c89 babc
00000030: b3e1 dfbd 3243 03bd 0e99 80bd 5e8a f03d
00000040: fd00 a5bd 9b12 e9bd 9084 de3d fdf3 963c
00000050: 0678 9c3c 6762 1e3e 75cb adbd bffe df3d
00000060: 185d e93d 6551 b33d ed08 35be 1ecb 4bba
00000070: a5c7 713d 3646 2fbd c747 73bc 3909 4c3d
00000080: 6fd0 a4bb b703 1b3e 1df2 adbd d8ea 393d
00000090: 5e63 1b3e f1aa 163e 114c 063b ea4a b7bd
000000a0: a84c 973d 8487 013d ae1d e3bd 2e0f d9bb
000000b0: d1c8 1dbe 63db 9fbd 9cc6 5e3c 1cf1 033d
000000c0: 1fe1 183e 9828 13bd 1e93 253e 422b 653c
000000d0: cbec 1c3c 818b 573a 0239 f1bc 60ab 40bd
000000e0: c5fd 70bc 65ab 273e a389 03be 9f0e 3a3d
000000f0: 91c4 cabd 067a 883c 6709 153d 449c 733d
00000100: ed9b 82bd 7f8d 213e 4b0e 21be 82ee 933d
00000110: 21a3 9bbd 1223 1c3e a42f 063e 556a bfbb
00000120: 1d05 d7bd 6de3 fa3d c6e0 10bd a31e 18bc
00000130: a1cc fdbd ba5d d9bd 6f63 5b3d 4595 0a3e
00000140: 568b 853d 79fe 04be 89dd a6bd 0c02 133d
00000150: ea17 003e 937a bdbd c589 99bd 9864 353e
00000160: a25d 173e f2c8 03bc 54f9 a43d 3c09 37bd
00000170: 60c1 af3d b8c4 b03b f996 04be 9c98 1fbd
00000180: 7340 3dbe a26d fdbd 9bbe aebd 9fcb afbd
00000190: 0377 a53c 7bd2 4dbd a519 b8bd eab6 843d
000001a0: 6f19 d1bd 940a 113d 0f7c 30be 34e7 ae3b
000001b0: 7015 b83d b519 a73d a288 1d3e e325 173e
000001c0: 72e3 203e 5294 c43d 700a 9e3d 6170 d3bc
000001d0: 03a3 debd 85d2 483d 35e0 e1bd d439 eabc
000001e0: 5838 8e3d 33ad fd3d a7aa b43d cab9 9a3c
000001f0: c82f ed3d febb 2fbe 3c2e 213c fde8 a73d
00000200: 9aef 2e3d 82d7 7d3d a058 df3d f3b8 5ebd
00000210: b974 e93d 2097 aebd de2b 833c 2fae f13d
00000220: 82d4 ff3d 00e1 c13d 19cd 64bb 6f8c 7a3d
00000230: 007d fa3d e7f1 213c d13a 2bbd e20f 3ebb
00000240: 117e 673c 2a45 f13d 2bf3 34be 5f01 d23d
00000250: e5a2 40bd 0cf2 273e 558a b23d f6ea abbc
00000260: 74e0 373d 6faf 433e 074e d23d a58f cf3d
00000270: a731 c53d 40d9 163e b4fa bc3d f004 bb3d
0.010173928 0.17773546 -0.028382372 -0.01971884 0.06495029 -0.0826363 0.10808897 -0.11894242
-0.16981499 0.114485696 0.20160732 -0.022770606 -0.109317206 -0.032046504 -0.06279193 0.117451414
-0.08056829 -0.11380502 0.10865128 0.01842689 0.0191002 0.15467225 -0.08486072 0.10937261
0.11394709 0.08755759 -0.17679186 -0.0007774102 0.059028286 -0.042791568 -0.014848656 0.049813483
-0.00502973 0.15138136 -0.08493445 0.04538998 0.15174624 0.14713646 0.0020492116 -0.089498356
0.07387668 0.03162338 -0.11089645 -0.006624124 -0.15408637 -0.078055166 0.013597157 0.03221236
0.14929627 -0.035927385 0.16169402 0.013987364 0.00957794 0.0008222387 -0.029446129 -0.047038436
-0.014708941 0.16373976 -0.12845473 0.0454241 -0.09900773 0.016659748 0.03638592 0.0594752
-0.06377397 0.15776633 -0.15728109 0.07223226 -0.07599474 0.15247753 0.13104111 -0.005841533
-0.10499022 0.12250409 -0.03537061 -0.009284648 -0.123925455 -0.1061358 0.053561624 0.13533504
0.06520717 -0.12987699 -0.08147723 0.035890624 0.12509122 -0.09251895 -0.074969806 0.17714155
0.14781812 -0.008043515 0.08055368 -0.04468654 0.08581805 0.0053945445 -0.12948216 -0.0389639
-0.18481617 -0.123744264 -0.08532449 -0.085837595 0.02019835 -0.050249558 -0.08989266 0.064802006
-0.10209929 0.03541048 -0.17234825 0.00533762 0.08988464 0.081592 0.15384153 0.14760546
0.15711764 0.09598602 0.077168345 -0.025810422 -0.10870936 0.049028892 -0.11029092 -0.028592028
0.069443405 0.12386551 0.08821612 0.01888742 0.11581379 -0.17161557 0.009837683 0.08198736
0.04270897 0.061973102 0.10905576 -0.0543756 0.11399216 -0.085249186 0.016012128 0.11800801
0.124917045 0.094667435 -0.0034912287 0.061169084 0.12230873 0.009884334 -0.04180414 -0.0029001166
0.014129178 0.1178077 -0.17670886 0.10254168 -0.04703035 0.16400927 0.08717791 -0.020986062
0.04489179 0.19109891 0.10268789 0.1013482 0.09628611 0.14731312 0.09227505 0.09131801

model.rnn.bias_hh_l1 f4 [160]
00000000: 3b7d 89bc 373d 713c bd50 7c3d 57ee 85bd
00000010: e4bf 0a3e 92a4 0e3e c2bc c43d 8a7c dcbd
00000020: 273e 9d3d caca 17be ab24 4d3e f71a 723d
00000030: 8541 453e c6b9 063e d7fd 26bd 3a4a 203e
00000040: e744 2d3e e314 143d cb56 7c3c b606 b53a
00000050: 0c42 0a3d da4b afbd c498 fbbd b9d0 9f3d
00000060: c91f d23d 9e5e e93c 716f b2bd b206 15bb
00000070: fb18 a03c 30a6 1f3e d8e0 593d 2120 183e
00000080: ebf9 f23d fa1a 2f3e b75c 013e 5c07 193d
00000090: 3821 dcbd 3bfe dabd 8315 283e 2630 7a3d
000000a0: 88f3 42bd a1da 01bd 74b1 bfbc 48df 9bbd
000000b0: b202 75bc 3347 033e 4194 f7bc 3aef 273e
000000c0: a977 943d 743e 183e 3092 c0bd 31fb 7b3d
000000d0: 6fb4 a2bd 015e 49bd d763 e53d 011c ecbd
000000e0: 6e51 b0bd 51d4 c33d a6c2 9b3d aa23 223d
000000f0: 1349 7f3d 8f44 3a3e 554d 3c3e 96af 253e
00000100: 6577 8b3c 93ab 4c3d f486 c8bd bdfd 05be
00000110: 23a1 083e eead 293e 020f 763d e476 1dbe
00000120: 95ba 883d d823 463e f3e3 dd3d 9664 b7bd
00000130: 6783 583d 5cc7 df3d 3962 9d3d 91a2 41bd
00000140: 2672 2dbe ca9e 09bc 93e4 f93d 7e2f 6fbd
00000150: d95e 8c3d 19c6 89bd 4ccc 163e eafb 693c
00000160: 28db 2cbd 9862 313d c9b0 793d 821e a8bd
00000170: ed80 cb3d d738 2dbd db23 40bd 00ec c6bd
00000180: c454 35bd 017e f2bd 374c de3d e9fd 0fbd
00000190: 2203 dfbd 93d8 b53d bfbd d33d b587 223e
000001a0: d61d 08be 9303 abbd 9502 973d b870 a53d
000001b0: bb15 f03d e1a6 e93d a79b 063e 6cc3 6b3c
000001c0: 58ba f73d e20c 643d 2e40 ce3d dc80 f43d
000001d0: 5483 9cbd dfa5 f83d f43f ccbc b498 f4bc
000001e0: 6309 a7bd 595a 063e 3677 93bd 3f1d 6c3d
000001f0: 63a4 073d 801b 42bc 5463 0a3e 6e44 e0bd
00000200: 752d 343b 9ff5 91bd 8e0c 923d 294c 543e
00000210: 8d5a e73d 9aef eebd 44c4 86bd d290 72bc
00000220: ad10 d73d 0918 4f3e d94b 243e fd34 1dbc
00000230: 5c19 103d 1ad0 963d 2829 d33d 2889 3e3e
00000240: 40f2 a93d 2e8b e93c 6065 2dbe a6ad 1cbe
00000250: c849 57bd 378e 13be f7db 843d d05b 15be
00000260: 8b25 033e 0e51 49bd 20b6 12be b0f0 133e
00000270: 4268 d43d 05a8 853c 942a 333d 79f3 623e
-0.016783347 0.014724067 0.061600436 -0.065396 0.13549763 0.13929966 0.09606315 -0.107659414
0.0767787 -0.14823452 0.20033519 0.059107747 0.19263275 0.13156804 -0.040769424 0.15653315
0.16920815 0.03615273 0.015401552 0.0013811204 0.033754393 -0.085593894 -0.12284997 0.078034826
0.10259969 0.0284875 -0.08712662 -0.0022739586 0.019543162 0.15590739 0.053192943 0.14856006
0.11864074 0.17100134 0.12633024 0.037360534 -0.107485235 -0.10693022 0.16414456 0.061081074
-0.04759553 -0.03170264 -0.023400046 -0.07610947 -0.014954256 0.12820129 -0.03022206 0.16399851
0.07249386 0.14867574 -0.09402883 0.06151885 -0.07944571 -0.049161915 0.112006836 -0.11528779
-0.086092815 0.095619805 0.076054856 0.039584793 0.06232555 0.18190216 0.18388875 0.16180262
0.017024705 0.049968313 -0.09791365 -0.13085075 0.13342719 0.16570255 0.060072906 -0.15377384
0.06676213 0.19349611 0.108344935 -0.08954732 0.05285969 0.10926697 0.0768475 -0.047274176
-0.16938075 -0.008399675 0.122018 -0.0583949 0.06854028 -0.06727237 0.1472637 0.014281252
-0.04220119 0.043306917 0.06095961 -0.08208944 0.099367 -0.042290535 -0.046909194 -0.09712982
-0.044270292 -0.118404396 0.108543806 -0.035154257 -0.108892694 0.08879199 0.103389256 0.1587208
-0.13292632 -0.08350291 0.07373539 0.0807814 0.11722895 0.11408783 0.13145314 0.014389854
0.12096089 0.05567635 0.10070835 0.119386405 -0.07642236 0.121410124 -0.024932839 -0.02985797
-0.08156087 0.13120402 -0.07200472 0.05764508 0.033115756 -0.011847377 0.13514453 -0.10950552
0.0027492915 -0.07126927 0.07131301 0.20732178 0.11296568 -0.11666794 -0.065804034 -0.014805036
0.105012275 0.20224012 0.16044559 -0.009595153 0.035180435 0.07363911 0.10310584 0.18607008
0.08298159 0.028508749 -0.16933203 -0.15300617 -0.052560598 -0.1440972 0.064872675 -0.14585805
0.1280729 -0.049149565 -0.14327288 0.14447284 0.10371448 0.01631547 0.043741778 0.2216319
