MARTS/AutogluonModels/ag-20240821_115337/models/DeepAR/W0/gluon_ts/prediction-net-state.pt (torch, 109152 bytes, 11 tensors)

model.param_proj.proj.0.weight f4 [1, 40]
-0.15916279 -0.023914438 -0.25044364 -0.09156388 0.0030820083 0.19326325 0.13869838 0.21307115
0.16362081 0.1444979 0.27548915 -0.009311048 0.32026353 -0.04210095 0.048323195 -0.006155046
-0.029592566 -0.042908143 0.094172135 0.23627728 -0.23179343 -0.2956782 0.14934933 0.20088604
-0.03049749 0.23413832 0.11101669 0.015540459 -0.018365458 0.006015906 0.22818841 0.066106126
0.09727431 0.2777311 -0.02143686 0.22965935 -0.13461813 0.04289443 -0.038459457 -0.22323284
00000000: 92fb 22be 36e8 c3bc 263a 80be d885 bbbd
00000010: 85fb 493b cde6 453e f306 0e3e 532f 5a3e
00000020: 378c 273e 42f7 133e ea0c 8d3e 5e8d 18bc
00000030: 95f9 a33e 0c72 2cbd 8bee 453d 45b0 c9bb
00000040: 1c6c f2bc 73c0 2fbd 52dd c03d acf2 713e
00000050: 425b 6dbe 2263 97be 08ef 183e 12b5 4d3e
00000060: dfd5 f9bc f5c1 6f3e b85c e33d 699d 7e3c
00000070: 2873 96bc 1421 c53b 39aa 693e a662 873d
00000080: c137 c73d c532 8e3e 5b9c afbc d22b 6b3e
00000090: 56d9 09be 12b2 2f3d aa87 1dbd 2697 64be

model.param_proj.proj.1.weight f4 [1, 40]
-0.1330031 -0.089527726 -0.0035545032 -0.056591008 -0.08850314 0.13535425 0.119247705 0.14411023
-0.0070152823 0.092826724 0.044279125 0.006561716 0.007262917 0.081202134 0.09375096 0.05888862
-0.08700079 -0.017949233 0.12829308 0.015586628 -0.0685851 -0.08022449 0.020401651 0.15184791
-0.0022501233 0.104937196 -0.049212914 -0.13155377 0.101554126 0.15439484 0.11461344 0.13099355
-0.049414452 0.04795967 0.1084441 -0.06237951 -0.06511345 -0.06533099 0.040784456 -0.029377075
00000000: f731 08be 505a b7bd abf2 68bb f9cb 67bd
00000010: 2241 b5bd 4e9a 0a3e 2438 f43d a291 133e
00000020: 74e0 e5bb f01b be3d 075e 353d aa03 d73b
00000030: c3fd ed3b 4e4d a63d 8100 c03d 3235 713d
00000040: 782d b2bd 450a 93bc 435f 033e 0e5f 7f3c
00000050: 5876 8cbd bd4c a4bd 5d21 a73c 057e 1b3e
00000060: ce76 13bb 50e9 d63d 7b93 49bd 08b6 06be
00000070: 9cfb cf3d ae19 1e3e 74ba ea3d 2c23 063e
00000080: cf66 4abd 5c71 443d f117 de3d a881 7fbd
00000090: 335a 85bd 41cc 85bd 9a0d 273d 31a8 f0bc

model.param_proj.proj.2.weight f4 [1, 40]
0.03295584 0.07735501 0.055268664 0.22090963 -0.15696526 -0.034101933 -0.12736425 -0.07552252
-0.14011517 -0.22811317 -0.19240598 0.2333312 -0.108588815 0.16465938 0.04242728 -0.16070032
0.24901818 0.103367575 -0.1974633 -0.21996106 0.19313945 0.17583224 -0.057679474 -0.22284746
0.19865502 -0.06340122 -0.012489207 -0.06788489 0.12929963 0.07206669 -0.05921415 0.0452018
-0.17957897 -0.11836086 -0.0037717042 -0.11193498 -0.022732608 -0.24219093 -0.18915306 0.12466204
00000000: b4fc 063d 4e6c 9e3d 6561 623d 2236 623e
00000010: 80bb 20be 78ae 0bbd c66b 02be 8dab 9abd
00000020: 5a7a 0fbe 8096 69be 1306 45be 60ee 6e3e
00000030: d063 debd 789c 283e 3ac8 2d3d a08e 24be
00000040: 9ffe 7e3e 61b2 d33d d233 4abe 793d 61be
00000050: 59c6 453e 5e0d 343e 5041 6cbd 2032 64be
00000060: 396c 4b3e 80d8 81bd 889f 4cbc 3c07 8bbd
00000070: 1f67 043e b397 933d 898a 72bd 8625 393d
00000080: 8de3 37be 2e67 f2bd b22e 77bb 2b3e e5bd
00000090: bc39 babc e600 78be 57b1 41be d04e ff3d

model.rnn.weight_ih_l0 f4 [160, 37]
-0.043587092 -0.071413286 0.19736844 0.10497386 -0.028398847 0.18445446 0.042748105 0.02021662
0.1883173 0.084056675 0.0983255 0.18387702 -0.103596665 0.17759769 -0.025301889 0.009230781
-0.076012686 -0.03325784 0.0952139 -0.10770506 0.0986979 0.062312502 0.16994879 0.105818674
0.11774102 -0.077391066 0.13018972 -0.080265924 0.07723791 -0.12903716 0.09339076 -0.09005092
0.17742635 0.09118418 -0.042684447 -0.23128548 0.08787566 0.16651593 0.123921625 -0.06411843
-0.06500299 0.15892622 -0.056713685 0.045941055 0.0069092107 0.037171695 0.07014914 -0.040425576
-0.1092766 0.049701396 0.052938797 0.16781785 0.043248013 0.019281128 0.14789851 0.09538215
0.13141882 -0.037179332 0.15775806 -0.0898492 0.044943977 -0.026167255 0.11259711 0.1379693
0.07207466 -0.030888801 0.0128130745 -0.16293037 -0.09307426 0.14713213 0.095214345 -0.09748559
-0.29401302 0.08778664 0.13917567 0.13294739 0.1600946 0.01675815 -0.102439135 0.012947932
0.006954232 0.16496725 0.008912625 -0.13772064 -0.13108857 0.16192721 0.16542092 0.12182026
0.12795873 0.09190854 0.14033043 -0.036061827 -0.08470393 0.041553196 0.022165652 0.113003545
0.16038954 -0.1473125 -0.05863971 0.006516811 -0.019501941 -0.17483194 -0.11720226 -0.020652326
-0.13110021 -0.0003500598 0.014837433 -0.0060099014 0.1334771 -0.14480992 0.079370975 0.017052256
0.05950347 0.09129333 -0.017662432 0.1763839 0.16060755 0.10177221 0.07392553 0.110767394
-0.021522637 -0.034549803 0.08004177 -0.106567085 -0.038281236 0.10310844 0.17491598 0.1115888
-0.09180049 -0.06185418 -0.096196555 0.16703866 -0.10635729 0.019738887 -0.074469045 0.039818592
0.019174404 0.050838437 0.14364734 -0.091719516 -0.047248144 -0.079025626 -0.01127972 0.18456897
0.09136629 -0.0036674617 -0.30783528 0.17812239 0.08155473 0.093913384 -0.08594173 -0.09418032
-0.085131206 -0.10260495 0.046950947 -0.07058599 -0.076745056 -0.09331898 -0.05449165 -0.059765734
0.07873652 0.062728524 0.18313882 0.17505255 0.020141894 0.13044234 0.09784572 0.13913965
-0.023514522 0.17902039 0.15587959 0.071847685 0.028256433 -0.11331537 0.120428905 0.08780201
-0.111797854 0.1534861 -0.087617956 0.08135554 0.081924856 -0.108891405 -0.1831185 -0.041710258
0.18465668 0.028781775 0.16776991 0.108766206 0.06486267 -0.083507866 0.10508891 0.07385095
-0.08582962 0.10265238 0.1485665 -0.04549859 0.1598288 -0.08540269 -0.09502485 -0.05937888
0.0068669957 -0.12509175 -0.11280114 0.17844029 0.14161517 0.104423486 0.17748207 -1.3687146e-05
0.15490654 0.14566942 -0.07125975 0.12248043 0.12002791 -0.092537515 0.056087613 0.11601222
-0.033415444 0.039801404 -0.034972318 -0.040365316 -0.26500338 0.07345983 -0.08121412 -0.06156276
-0.010187796 -0.09344987 0.003164362 0.042355176 -0.08660995 -0.031657107 -0.006859353 -0.0022932717
-0.0288287 -0.0018825666 -0.05172457 0.14510663 0.045009222 0.14505716 -0.0794059 0.16926438
0.14473735 -0.03854243 0.110247046 -0.057345506 -0.040348634 0.040687945 -0.050619535 -0.07273666
0.14950468 0.15161344 -0.046566494 -0.011435929 -0.04267351 -0.0961383 0.08565305 -0.142828
00000000: 6188 32bd 2141 92bd f41a 4a3e 89fc d63d
00000010: b3a4 e8bc a1e1 3c3e a318 2f3d 539d a53c
00000020: 40d6 403e e825 ac3d e15e c93d 424a 3c3e
00000030: 7d2a d4bd 2bdc 353e e845 cfbc b43c 173c
00000040: 8aac 9bbd 5f39 08bd 81ff c23d 7894 dcbd
00000050: 2022 ca3d 653b 7f3d 0e07 2e3e 76b7 d83d
00000060: 3422 f13d 357f 9ebd 7450 053e 7662 a4bd
00000070: e92e 9e3d 5122 04be a843 bf3d 9e6c b8bd
00000080: 41af 353e c5be ba3d e3d5 2ebd 1ad6 6cbe
00000090: 27f8 b33d 2783 2a3e 9fca fd3d 8650 83bd
000000a0: 4a20 85bd 8ebd 223e 9c4c 68bd b02c 3c3d
000000b0: a966 e23b 5941 183d 5aaa 8f3d 4a95 25bd
000000c0: 69cc dfbd b193 4b3d 5ad6 583d 71d8 2b3e
000000d0: d424 313d 75f3 9d3c b572 173e b757 c33d
000000e0: a892 063e 5b49 18bd 548b 213e db02 b8bd
000000f0: 2d17 383d b65c d6bc 5099 e63d d347 0d3e
00000100: e19b 933d 830a fdbc eeed 513c 38d7 26be
00000110: b89d bebd cea9 163e bdff c23d 86a6 c7bd
00000120: e088 96be 7bc9 b33d 1184 0e3e 5c23 083e
00000130: d7ef 233e 6348 893c 9ccb d1bd 9023 543c
00000140: 54e0 e33b 2ded 283e 4206 123c a406 0dbe
00000150: 153c 06be 3fd0 253e 1a64 293e e77c f93d
00000160: 9d07 033e 8b3a bc3d c8b2 0f3e 91b5 13bd
00000170: 4179 adbd af33 2a3d be94 b53c 676e e73d
00000180: 283d 243e 17d9 16be 3130 70bd f98a d53b
00000190: 89c2 9fbc 2507 33be bd07 f0bd 112f a9bc
000001a0: 223f 06be 3b88 b7b9 b418 733c b5ee c4bb
000001b0: 39ae 083e 0d49 14be 408d a23d 2cb1 8b3c
000001c0: e9b9 733d fff7 ba3d ceb0 90bc fb9d 343e
000001d0: 4e76 243e f36d d03d 4566 973d 04da e23d
000001e0: 3e50 b0bc 1884 0dbd f1ec a33d d83f dabd
000001f0: c9cc 1cbd 852a d33d 2d1d 333e ab88 e43d
00000200: e501 bcbd cf5a 7dbd b302 c5bd 2f0c 2b3e
00000210: dad1 d9bd 72b3 a13c 3a83 98bd d218 233d
00000220: a413 9d3c f73b 503d 4a18 133e 71d7 bbbd
00000230: 4587 41bd 30d8 a1bd 93ce 38bc a6ff 3c3e
00000240: 401e bb3d cc59 70bb 969c 9dbe b765 363e
00000250: 2b06 a73d a955 c03d 3802 b0bd 9de1 c0bd
00000260: 4559 aebd 8b22 d2bd a34f 403d 638f 90bd
00000270: 832c 9dbd 051e bfbd a332 5fbd eacc 74bd
00000280: 9d40 a13d d077 803d be88 3b3e fa40 333e
00000290: 9d00 a53c ad92 053e 5663 c83d a07a 0e3e
000002a0: 87a1 c0bc 1f51 373e e69e 1f3e e124 933d
000002b0: 097a e73c e411 e8bd 6ea3 f63d 8ad1 b33d
000002c0: 46f6 e4bd 762b 1d3e 0b71 b3bd bc9d a63d
000002d0: 38c8 a73d 7502 dfbd 6b83 3bbe 60d8 2abd
000002e0: a416 3d3e c2c7 eb3c e0cb 2b3e d1c0 de3d
000002f0: b8d6 843d 2c06 abbd db38 d73d 2b3f 973d
00000300: 71c7 afbd 693b d23d d121 183e bb5c 3abd
00000310: 29aa 233e 9be7 aebd 639c c2bd 4537 73bd
00000320: 8904 e13b 0d18 00be 4904 e7bd 0db9 363e
00000330: 9103 113e fbdb d53d dcbd 353e d8a1 65b7
00000340: d29f 1e3e 5d2a 153e a2f0 91bd 05d7 fa3d
00000350: 31d1 f53d 4f84 bdbd 20bc 653d d197 ed3d
00000360: a2de 08bd cc06 233d 223f 0fbd 1a56 25bd
00000370: 86ae 87be 1b72 963d 9753 a6bd 3c29 7cbd
00000380: b7ea 26bc a562 bfbd 2f61 4f3b 9f7c 2d3d
00000390: 8f60 b1bd e2aa 01bd 6cc4 e0bb b74a 16bb
000003a0: 2a2a ecbc 74c0 f6ba 25dd 53bd d596 143e
000003b0: 975b 383d dd89 143e 8f9f a2bd a453 2d3e
000003c0: 0736 143e abde 1dbd 34c9 e13d 1fe3 6abd
000003d0: 9c44 25bd 67a8 263d 6e56 4fbd f5f6 94bd
000003e0: c117 193e 8e40 1b3e 82bc 3ebd c35d 3bbc
000003f0: 6bca 2ebd 28e4 c4bd de6a af3d 8141 12be

model.rnn.weight_hh_l0 f4 [160, 40]
0.093052305 -0.06123132 -0.112191744 0.083990075 -0.1240756 -0.048997108 0.14226769 0.024051497
0.079374485 -0.016949702 -0.032809656 0.13032061 -0.11273049 -0.079049505 -0.095948465 -0.06435038
-0.06464515 -0.010727889 0.02063003 -0.023636209 0.059292138 -0.09561654 -0.047944874 -0.1099019
0.10547089 0.036760513 -0.06336866 -0.06304037 0.15958294 0.03014749 0.18724023 -0.11395806
-0.106919244 -0.03967576 0.051568184 0.10775992 -0.11394363 0.13169868 -0.11096469 -0.094554946
0.12948301 -0.095532 -0.14771819 0.073246546 0.10255258 -0.00103511 0.057741094 -0.025144927
0.032632228 0.20037737 -0.1765198 -0.19393745 0.012517817 -0.038609367 -0.032663263 -0.0017606771
-0.16223778 -0.08866137 0.1515802 -0.031974137 0.26154652 0.009543796 -0.13636214 0.06634897
0.09241026 0.03062432 -0.0263459 0.056033295 0.19398393 0.15732542 0.06961193 -0.12612179
0.05962502 0.1777174 -0.039421674 -0.14995508 -0.111959636 0.06584612 -0.17171016 -0.020973135
-0.12675592 -0.07819318 0.10242621 0.052055646 0.15101887 -0.09027122 -0.019838069 -0.08836023
-0.047575235 -0.10551991 -0.05047662 0.01317307 -0.048759807 -0.01113075 0.0031205907 -0.00593302
-0.13291986 -0.070690244 -0.08012537 0.08748479 0.3052676 -0.072630875 -0.16849142 0.08756511
0.03560798 -0.1474422 -0.07694073 0.27379876 -0.13885395 -0.12538141 0.1245812 0.16233832
-0.09452573 0.15574719 0.07022813 -0.077681616 -0.02971849 -0.11232365 -0.03139076 -0.04332822
0.04983187 0.17793855 -0.07778182 -0.059120957 0.13276379 0.04831455 0.16829036 -0.06894
0.09183777 0.1304528 -0.04129483 -0.025626602 -0.19427267 -0.043763746 -0.024748884 -0.07784787
-0.1428472 0.05772299 -0.04133328 -0.19289227 0.09797708 -0.0009122448 -0.06463079 -0.10836352
-0.048993032 -0.02749153 0.030187473 0.1538609 0.059200227 -0.038268767 -0.064532846 -0.11940783
0.021670332 0.14158088 -0.17409945 -0.14790562 0.03844591 0.08653077 0.010607641 -0.022965275
0.14063266 -0.009546324 -0.07104366 -0.020456601 0.030638143 -0.021464096 -0.10513601 0.16425923
0.062118668 -0.079104766 -0.029331865 -0.05721921 -0.17377305 0.18998794 0.011230158 -0.06785739
0.07952382 0.14143956 -0.041220166 -0.13524929 0.03950411 -0.04344756 0.049277518 -0.046853613
0.04213898 -0.01979134 -0.0873787 -0.05203566 0.18013951 0.023514275 0.12226845 -0.22562395
0.020979565 0.15000212 -0.08068384 0.10121647 0.15453134 -0.06008695 -0.109162755 0.145618
-0.08273023 0.17700838 -0.16202901 -0.09847381 -0.0282711 -0.12552854 0.21865265 0.1792355
-0.17937376 -0.0381009 -0.15851699 -0.0216294 -0.16681588 0.042905964 0.11267729 -0.040244725
-0.10934983 -0.10620007 0.15745072 0.01792974 -0.105365805 -0.10713431 0.17145471 -0.11582647
-0.0024566238 0.1658674 -0.09517223 0.12878278 -0.037939668 0.12226967 -0.0022819424 0.048793454
0.019835297 -0.00035040884 -0.039396513 0.077975094 0.07946428 -0.075088136 0.10325957 0.1403335
0.16683911 0.17485805 -0.10723925 -0.014005086 0.0675761 -0.14407015 0.19254145 0.15470879
0.079785384 0.055105492 -0.17160398 -0.042684287 0.06050124 0.18101269 0.057615288 -0.050545614
00000000: 3592 be3d b1cd 7abd c9c4 e5bd fd02 ac3d
00000010: 591b febd 31b1 48bd 9fae 113e a507 c53c
00000020: 178f a23d 1ada 8abc 6b63 06bd c472 053e
00000030: 3edf e6bd b5e4 a1bd a180 c4bd 22ca 83bd
00000040: ad64 84bd 07c4 2fbc 4f00 a93c b9a0 c1bc
00000050: 50dc 723d 9bd2 c3bd d861 44bd 3f14 e1bd
00000060: 1f01 d83d 3192 163d 6ec7 81bd 4f1b 81bd
00000070: b669 233e def7 f63c e7bb 3f3e d862 e9bd
00000080: 7af8 dabd 0d83 22bd 2939 533d 3cb1 dc3d
00000090: 475b e9bd 05dc 063e 7541 e3bd 06a6 c1bd
000000a0: 3297 043e 48a6 c3bd 7043 17be 4902 963d
000000b0: 1607 d23d 87ac 87ba ed81 6c3d bcfc cdbc
000000c0: 5fa9 053d ba2f 4d3e 9bc1 34be 8a97 46be
000000d0: 8817 4d3c db24 1ebd eac9 05bd 85c6 e6ba
000000e0: a921 26be 1894 b5bd d737 1b3e 50f7 02bd
000000f0: 6de9 853e 955d 1c3c 84a2 0bbe f8e1 873d
00000100: 9741 bd3d dbdf fa3c 5bd3 d7bc 2b83 653d
00000110: b9a3 463e ea19 213e b390 8e3d 1226 01be
00000120: 5d39 743d 8dfb 353e 9f78 21bd d38d 19be
00000130: 184b e5bd 55da 863d cad4 2fbe dacf abbc
00000140: 4ecc 01be bf23 a0bd d5c4 d13d 4d38 553d
00000150: b1a4 1a3e 1ee0 b8bd 7283 a2bc 35f6 b4bd
00000160: 40de 42bd d31a d8bd 93c0 4ebd dcd3 573c
00000170: 5db8 47bd c05d 36bc d382 4c3b c769 c2bb
00000180: 251c 08be 0cc6 90bd c518 a4bd 3a2b b33d
00000190: 094c 9c3e 7fbf 94bd 0489 2cbe 5655 b33d
000001a0: acd9 113d 17fb 16be 1a93 9dbd 5a2f 8c3e
000001b0: bb2f 0ebe fc63 00be 6e24 ff3d 043c 263e
000001c0: b596 c1bd 317c 1f3e c4d3 8f3d 8a17 9fbd
000001d0: 3174 f3bc f109 e6bd 9993 00bd ee78 31bd
000001e0: 811c 4c3d 8635 363e 134c 9fbd d128 72bd
000001f0: 3bf3 073e 7ae5 453d 4f54 2c3e 6a30 8dbd
00000200: 7115 bc3d 6b95 053e c524 29bd e1ee d1bc
00000210: 6aef 46be 9d41 33bd 2cbe cabc b46e 9fbd
00000220: 8946 12be f16e 6c3d 164d 29bd 8d85 45be
00000230: 35a8 c83d b623 6fba 265d 84bd b1ed ddbd
00000240: ebac 48bd eb35 e1bc b84b f73c b68d 1d3e
00000250: f07b 723d b6bf 1cbd cc29 84bd 188c f4bd
00000260: fb85 b13c 94fa 103e 2047 32be 9274 17be
00000270: 7579 1d3d 0b37 b13d accb 2d3c ac21 bcbc
00000280: 0202 103e 2f68 1cbc 577f 91bd 9a94 a7bc
00000290: d8fc fa3c 79d5 afbc 8c51 d7bd 9233 283e
000002a0: 2570 7e3d ae01 a2bd 6149 f0bc b15e 6abd
000002b0: 90f1 31be 338c 423e b2fe 373c d1f8 8abd
000002c0: 62dd a23d 88d5 103e 7ad6 28bd ca7e 0abe
000002d0: 10cf 213d 12f6 31bd 39d7 493d 93e9 3fbd
000002e0: ec99 2c3d 7321 a2bc 9bf3 b2bd 5823 55bd
000002f0: 7e76 383e 02a1 c03c e267 fa3d f709 67be
00000300: 56dd ab3c 289a 193e 923d a5bd 954a cf3d
00000310: 773d 1e3e bc1d 76bd b990 dfbd e31c 153e
00000320: 786e a9bd af41 353e efea 25be a3ac c9bd
00000330: cb98 e7bc 8e8a 00be 7be6 5f3e 8389 373e
00000340: c1ad 37be b00f 1cbd 4752 22be 2430 b1bc
00000350: c8d1 2abe 2abe 2f3d 5ac3 e63d a7d7 24bd
00000360: cef2 dfbd 6c7f d9bd c33a 213e 64e1 923c
00000370: 07ca d7bd 3c69 dbbd d391 2f3e 6e36 edbd
00000380: 4fff 20bb 25d9 293e a8e9 c2bd a2df 033e
00000390: a066 1bbd 8568 fa3d a48c 15bb a5db 473d
000003a0: a27d a23c 14b7 b7b9 3d5e 21bd 68b1 9f3d
000003b0: 2bbe a23d cfc7 99bd c179 d33d 96b3 0f3e
000003c0: dfd7 2a3e fd0d 333e 40a0 dbbd 9775 65bc
000003d0: 5765 8a3d 2087 13be 9629 453e fb6b 1e3e
000003e0: 8566 a33d 4cb6 613d f4b8 2fbe b8d5 2ebd
000003f0: 26d0 773d 645b 393e 02fe 6b3d eb08 4fbd

model.rnn.bias_ih_l0 f4 [160]
0.007260932 0.13151662 -0.09469502 -0.060068294 0.18191227 -0.02188731 -0.044807743 0.051521108
-0.061394267 0.06933385 0.15343952 -0.099546045 0.024205355 -0.11649546 0.14650303 0.051194437
0.123391494 -0.15820526 -0.12469025 0.020211302 -0.069844946 0.016898664 0.14242318 0.03161745
-0.036793012 0.053957444 0.034397896 0.06140678 0.017351335 -0.03528621 0.1963057 0.11366766
0.05529174 0.041010603 -0.0760312 -0.04894159 -0.0945818 -0.08576361 -0.08295933 0.18969874
-0.023312937 -0.072995044 -0.041018248 0.03161128 0.18760438 0.16881624 0.052720536 -0.012041206
-0.0015887546 -0.08847475 0.121916436 0.1514437 -0.036201775 0.13147457 -0.012812925 0.06152801
0.04847142 -0.06657453 -0.013568714 0.13689955 -0.055819474 0.17219314 0.13443646 -0.06771895
0.10049082 0.13028283 0.08791099 -0.06508276 0.04071856 0.14177912 0.0015415276 0.042872243
-0.09583026 0.030340582 0.0793371 0.114822686 -0.066208646 0.06222967 0.13802223 -0.11164713
0.17098215 0.060092203 -0.17018749 -0.019357597 0.17190512 -0.110349834 0.113621034 0.11508557
0.004006448 0.08931888 -0.12653184 -0.07458978 -0.12425794 0.081814915 -0.10930175 0.05414607
-0.11407698 0.11667014 -0.031179996 -0.18524064 0.062029205 0.023756731 -0.049951147 0.12098261
-0.020265346 0.04976856 0.036763676 -0.11495703 0.071655646 -0.08678338 0.034918666 -0.16522165
-0.017595163 -0.12834507 -0.1259152 -0.05297098 0.0381682 -0.08221751 -0.08154093 0.0144630745
-0.112543836 -0.057596665 0.07650854 0.054543577 0.11454392 0.15391284 0.0526216 0.12723938
0.10759168 -0.11229393 0.008636361 -0.03726945 0.13788839 0.12763679 0.030382259 0.17646775
-0.09633453 -0.108201616 0.0014807007 0.17681557 0.07794207 0.16408212 -0.13711384 -0.02996457
0.16592272 0.03466919 -0.09084541 0.004773211 0.088056564 0.11883684 0.1819492 0.11162971
0.19085565 -0.018643279 0.19785684 -0.10926514 0.039438695 -0.042702768 -0.08649148 0.18214366
00000000: 1ded ed3b 4bac 063e 76ef c1bd 2c0a 76bd
00000010: 3647 3a3e 044d b3bc 5388 37bd cc07 533d
00000020: 8e78 7bbd e8fe 8d3d 401f 1d3e ccde cbbd
00000030: 4f4a c63c 2c95 eebd e404 163e 42b1 513d
00000040: aeb4 fc3d 8f00 22be 9a5d ffbd 2c92 a53c
00000050: de0a 8fbd 116f 8a3c 62d7 113e 4d81 013d
00000060: 45b4 16bd 7b02 5d3d cfe4 0c3d ad85 7b3d
00000070: 6324 8e3c 4688 10bd 5d04 493e 97ca e83d
00000080: 9779 623d bcfa 273d 3fb6 9bbd fa76 48bd
00000090: 1ab4 c1bd d5a4 afbd 95e6 a9bd 6340 423e
000000a0: c6fa bebc 6d7e 95bd c002 28bd d47a 013d
000000b0: 5d1b 403e 2ade 2c3e 7df1 573d 7a48 45bc
000000c0: c23d d0ba 4032 b5bd 53af f93d 0f14 1b3e
000000d0: 5048 14bd 45a1 063e 4ded 51bc cb04 7c3d
000000e0: f889 463d 3a58 88bd 504f 5ebc 652f 0c3e
000000f0: f6a2 64bd 6653 303e b6a9 093e 3cb0 8abd
00000100: 22ce cd3d dd68 053e ad0a b43d 1c4a 85bd
00000110: 81c8 263d 8c2e 113e 150d ca3a ce9a 2f3d
00000120: a842 c4bd d08c f83c 7d7b a23d 2828 eb3d
00000130: 6698 87bd 8ae4 7e3d b355 0d3e 40a7 e4bd
00000140: f215 2f3e 3e23 763d a145 2ebe d393 9ebc
00000150: e507 303e 18ff e1bd 25b2 e83d fcb1 eb3d
00000160: 8648 833b d1ec b63d 9091 01be 87c2 98bd
00000170: f27a febd 948e a73d 99d9 dfbd 45c8 5d3d
00000180: 31a1 e9bd c1f0 ee3d 316d ffbc b9af 3dbe
00000190: 5612 7e3d 7a9d c23c 9399 4cbd bbc5 f73d
000001a0: 8303 a6bc 1eda 4b3d 8295 163d 976e ebbd
000001b0: 32c0 923d 7cbb b1bd e006 0f3d dd2f 29be
000001c0: bb23 90bc e46c 03be eaef 00be 19f8 58bd
000001d0: 4256 1c3d a761 a8bd eefe a6bd 88f6 6c3c
000001e0: 627d e6bd 7bea 6bbd 82b0 9c3d 1669 5f3d
000001f0: 0196 ea3d 549b 1d3e bf89 573d 0a4b 023e
00000200: 0759 dc3d 5cfa e5bd 867f 0d3c daa7 18bd
00000210: 9d32 0d3e 38b3 023e 37e4 f83c f6b3 343e
00000220: 0a4b c5bd cf98 ddbd 1214 c23a 240f 353e
00000230: 18a0 9f3d 2505 283e 9267 0cbe 4278 f5bc
00000240: a5e7 293e 4801 0e3d 290d babd 9968 9c3b
00000250: 0057 b43d bb60 f33d e450 3a3e 1e9e e43d
00000260: aa6f 433e cab9 98bc fc9a 4a3e 67c6 dfbd
00000270: 788a 213d 19e9 2ebd 7222 b1bd de83 3a3e

model.rnn.bias_hh_l0 f4 [160]
-0.09098173 0.06624798 -0.09133497 -0.040790696 -0.016824985 -0.092839606 -0.0038512577 0.06556972
-0.10747427 0.13219227 0.070037946 -0.025784623 0.0030665922 -0.03892416 -0.10184056 -0.1106866
-0.11654616 0.09973618 0.17779711 0.051110614 0.17715044 -0.06847777 0.041732606 -0.11854247
0.080965385 -0.107283235 -0.11785195 -0.094419345 -0.0025230686 -0.07862409 0.19096299 -0.011262286
0.1675343 0.029777402 -0.0054700975 -0.04226784 0.17194544 -0.08283253 -0.048880354 -0.06999416
-0.12537755 0.039640922 -0.11809669 0.12389935 -0.038995687 0.15842685 -0.07855796 -0.02970118
0.025469955 -0.06556577 -0.0058161803 0.07006887 -0.11224798 0.10307016 0.022456996 0.09340675
-0.124748245 0.05420693 -0.0057199025 0.12048181 0.14684145 0.016561598 -0.09656182 0.092503294
-0.044657357 0.07768578 0.17952701 -0.08070994 0.09336109 0.03942612 0.035510525 0.07688754
-0.04516401 0.12027719 0.12892708 -0.10101723 0.050338313 0.07307301 0.19639121 0.05077764
0.036043372 0.12212992 0.07375869 -0.085514925 0.018288823 -0.027104743 0.17125581 0.045158423
-0.03895156 -0.08060844 -0.06144075 -0.086825706 -0.04053811 -0.050167695 0.11197079 0.108215146
-0.08005263 -0.09190825 -0.06347615 0.028082194 -0.13314556 0.07318652 -0.069998056 -0.06838442
0.05448205 0.13998875 0.11725699 0.13030796 -0.0999075 0.15892385 0.078166544 -0.05716599
-0.06959983 -0.1232481 -0.17405383 -0.044763763 0.0111970445 0.02555565 -0.18939225 0.10450979
0.020556217 -0.06003551 0.09687537 -0.1002123 0.06589964 0.15880752 0.15784013 0.14484578
0.17995672 0.14741862 -0.12191006 0.0031138295 -0.0153775355 0.033387586 -0.07593428 -0.036631998
0.08770301 -0.114593476 0.034437962 -0.050365783 0.00016332153 -0.09023337 -0.03680278 -0.04060209
0.039691336 -0.054096606 0.0065660523 0.14772621 0.048336722 0.08186029 -0.075301155 0.11633048
0.11651507 0.09473957 0.072043076 0.16948245 -0.08151669 0.16748482 0.14038798 0.031768937
00000000: a154 babd 05ad 873d d40d bbbd 2514 27bd
00000010: 8dd4 89bc b122 bebd 6265 7cbb 6b49 863d
00000020: 781b dcbd 695d 073e 0e70 8f3d 463a d3bc
00000030: e1f8 483b f16e 1fbd c991 d0bd a8af e2bd
00000040: c1af eebd 7b42 cc3d 7210 363e 5d59 513d
00000050: ed66 353e 133e 8cbd cfef 2a3d 65c6 f2bd
00000060: 2ed1 a53d 50b7 dbbd 5d5c f1bd ee5e c1bd
00000070: 115a 25bb ab05 a1bd cd8b 433e 7485 38bc
00000080: 1d8e 2b3e bdef f33c 813e b3bb 0b21 2dbd
00000090: 7712 303e 1aa4 a9bd c436 48bd 1959 8fbd
000000a0: f962 00be 855e 223d addc f1bd f1be fd3d
000000b0: f1b9 1fbd a63a 223e ffe2 a0bd e44f f3bc
000000c0: 5ea6 d03c 5947 86bd a895 bebb 4580 8f3d
000000d0: 45e2 e5bd 7316 d33d bcf7 b73c 0a4c bf3d
000000e0: 027c ffbd 1608 5e3d 056e bbbb 2bbf f63d
000000f0: 9b5d 163e 30ac 873c 34c2 c5bd 5e72 bd3d
00000100: a2ea 36bd b919 9f3d eed5 373e 414b a5bd
00000110: 1934 bf3d 497d 213d 7c73 113d 3777 9d3d
00000120: e6fd 38bd e353 f63d 7605 043e 1fe2 cebd
00000130: 8c2f 4e3d 4da7 953d c71a 493e 37fc 4f3d
00000140: 37a2 133d 401f fa3d cc0e 973d 7322 afbd
00000150: 71d2 953c c40a debc af5d 2f3e 0af8 383d
00000160: ac8b 1fbd 0a16 a5bd 4ca9 7bbd add1 b1bd
00000170: 4a0b 26bd a47c 4dbd f150 e53d e79f dd3d
00000180: a2f2 a3bd 643a bcbd c9ff 81bd a10c e63c
00000190: 4f57 08be d0e2 953d 245b 8fbd 210d 8cbd
000001a0: 9228 5f3d 3659 0f3e 6f24 f03d 736f 053e
000001b0: 4e9c ccbd efbc 223e c815 a03d e326 6abd
000001c0: 5b8a 8ebd 8069 fcbd 2b3b 32be 355a 37bd
000001d0: cf73 373c 155a d13c 0bf0 41be 3b09 d63d
000001e0: 8365 a83c cce7 75bd 9866 c63d 1b3c cdbd
000001f0: 64f6 863d 709e 223e d8a0 213e 7452 143e
00000200: 9346 383e e8f4 163e fbab f9bd 6411 4c3b
00000210: 0ff2 7bbc 6cc1 083d 6f83 9bbd 6f0b 16bd
00000220: a39d b33d fcaf eabd d20e 0d3d 5a4c 4ebd
00000230: 4a41 2b39 46cc b8bd 83be 16bd 614e 26bd
00000240: 6293 223d 6794 5dbd 0a28 d73b 8a45 173e
00000250: bafc 453d 5ea6 a73d 7e37 9abd ad3e ee3d
00000260: 749f ee3d d206 c23d 528b 933d cf8c 2d3e
00000270: 39f2 a6bd 2481 2b3e dec1 0f3e 2520 023d

model.rnn.weight_ih_l1 f4 [160, 40]
-0.047662362 -0.07832319 0.057150587 0.085370205 -0.13517599 -0.10691857 0.071388386 0.06877248
0.11550242 -0.052694578 -0.023485465 0.09410754 -0.15545681 -0.055200424 -0.1338594 -0.051939156
-0.084596016 0.041410096 0.029767461 -0.05050401 0.10398476 0.087845415 0.08803869 -0.06665941
0.099832356 0.065216176 -0.10398405 0.012764002 -0.13408019 -0.14615454 -0.061673336 -0.07972598
-0.12758544 0.0060621733 -0.14274415 0.06912818 -0.13770866 0.022129765 0.06893832 -0.14406516
0.042826187 0.028167766 0.1257767 0.07913643 -0.116390705 0.007190641 0.02139368 -0.13000503
-0.0035453157 -0.07263227 0.10004643 -0.02529747 -0.083218664 -0.010338596 -0.07432037 -0.080754325
-0.014356373 0.019070415 -0.035257246 -0.025134757 0.07864049 -0.11632437 -0.013254049 -0.026305318
-0.039292414 0.16497403 -0.12621015 0.19118537 -0.03798737 0.15906546 -0.13414729 0.12647727
-0.010281637 -0.018671041 -0.015650224 0.10570344 0.15722822 0.081236355 -0.12029297 0.084227465
0.11484376 -0.10853119 -0.045515545 -0.09180053 -0.032940477 0.04042971 -0.030878685 0.057650965
-0.24661241 0.14053708 -0.0062674633 -0.10578906 0.10859773 0.1571455 -0.08501968 -0.0014972738
0.06813088 0.021887468 -0.062395293 -0.09538312 0.2044351 -0.1468569 -0.08167684 0.07096666
-0.04733126 -0.0839452 0.05666967 0.15387623 0.1409675 -0.034687325 -0.07905298 0.040538616
-0.011139569 0.001169971 0.00012041898 0.15226616 0.038608845 0.15051977 0.045404915 -0.06592765
-0.049284678 0.005200673 0.028856281 -0.05666775 -0.07831943 -0.01454136 0.116592556 -0.0122328205
-0.057776447 -0.016789893 0.118764065 0.090636075 0.025371978 0.09797071 -0.165834 -0.09836371
-0.03810253 0.010355314 0.017571725 0.015835745 -0.14241675 0.047146123 0.12226557 0.16246489
0.12555812 0.16439867 0.076682605 0.12423098 -0.115616694 -0.045930993 -0.12704553 -0.08438127
0.12525722 -0.00929649 -0.15754063 -0.108403735 0.12483798 0.12624785 -0.11754288 -0.0020220012
0.00018175397 0.04062433 -0.0977455 0.05982764 -0.029005483 -0.107168145 -0.056300584 0.020367147
0.19235814 0.012925388 0.0385784 0.041017726 -0.05143807 -0.063186474 -0.048213337 0.09683374
0.14598097 -0.08479685 0.061382744 -0.047472347 -0.03887204 0.096812226 -0.11334244 0.0825434
0.085712776 -0.13500728 0.015770568 -0.23037158 0.113055885 -0.14923677 0.0172199 0.02338582
0.060989354 0.12307756 0.01966805 0.03417333 0.13152488 0.103735626 0.039045796 -0.11424172
-0.09294839 0.10915462 0.18336152 -0.13051921 0.07283444 -0.03686036 -0.14426659 0.11567174
-0.04613682 0.08189983 -0.024901658 0.077095434 -0.064845555 0.04293996 0.15903805 0.00826459
0.040075306 -0.1373414 -0.10707971 0.15346174 0.13831939 -0.037678175 -0.11221724 0.04748572
0.05788345 -0.08034808 -0.108010545 0.12274249 0.051686954 0.12857966 0.12106069 0.061681114
0.06006245 -0.019224657 0.052450113 0.13651736 -0.0963067 -0.12860687 0.104312755 0.10789302
0.14604966 0.1056475 0.16428012 -0.10733863 0.051022306 -0.07021695 -0.12235506 0.1448936
-0.015456423 0.058546204 0.033323843 0.040881705 0.10148919 -0.056063008 0.15099691 0.060544334
00000000: 9c39 43bd e967 a0bd bc16 6a3d 93d6 ae3d
00000010: 936b 0abe 20f8 dabd 1334 923d 96d8 8c3d
00000020: 888c ec3d 45d6 57bd 9764 c0bc 74bb c03d
00000030: 1230 1fbe d719 62bd 7012 09be 27be 54bd
00000040: ad40 adbd a29d 293d e4da f33c 4bdd 4ebd
00000050: f6f5 d43d 4ce8 b33d a14d b43d bb84 88bd
00000060: e874 cc3d 0f90 853d 97f5 d4bd 1b20 513c
00000070: 514c 09be 89a9 15be 2e9d 7cbd 6047 a3bd
00000080: c2a5 02be 32a5 c63b 862b 12be 1393 8d3d
00000090: 8003 0dbe 7b49 b53c 892f 8d3d d185 13be
000000a0: 836a 2f3d 16c0 e63c 9bcb 003e 4812 a23d
000000b0: 405e eebd 789f eb3b cc41 af3c 0a20 05be
000000c0: 8758 68bb 3ac0 94bd 25e5 cc3d a43c cfbc
000000d0: 8c6e aabd 3763 29bc 4735 98bd 8662 a5bd
000000e0: fe36 6bbc 8f39 9c3c e769 10bd 68e7 cdbc
000000f0: 440e a13d 793b eebd 8327 59bc 407e d7bc
00000100: 15f1 20bd f4ee 283e 3c3d 01be 19c6 433e
00000110: a598 1bbd 0ee2 223e e85d 09be 4283 013e
00000120: 5074 28bc 03f4 98bc e634 80bc 0c7b d83d
00000130: 6f00 213e 3f5f a63d 295c f6bd 737f ac3d
00000140: 3533 eb3d 9a45 debd 826e 3abd eb01 bcbd
00000150: 98ec 06bd a099 253d 4cf5 fcbc 6b23 6c3d
00000160: f787 7cbe f4e8 0f3e 4b5f cdbb efa7 d8bd
00000170: 7d68 de3d c0ea 203e cc1e aebd 2c40 c4ba
00000180: 3488 8b3d 594d b33c 3592 7fbd 3a58 c3bd
00000190: 6f57 513e a861 16be 3046 a7bd f856 913d
000001a0: 6cde 41bd 76eb abbd 751e 683d bb91 1d3e
000001b0: c959 103e 4c14 0ebd 87e6 a1bd d20b 263d
000001c0: bd82 36bc b659 993a 7389 fc38 a9eb 1b3e
000001d0: 4f24 1e3d db21 1a3e 81fa 393d 1305 87bd
000001e0: bbde 49bd 686a aa3b 0264 ec3c 711c 68bd
000001f0: f065 a0bd e23e 6ebc 14c8 ee3d 2b6c 48bc
00000200: ffa6 6cbd f58a 89bc 933a f33d 689f b93d
00000210: e5d8 cf3c dea4 c83d 63d0 29be ea72 c9bd
00000220: 6611 1cbd 56a9 293c 94f2 8f3c f7b9 813c
00000230: b2d5 11be 4b1c 413d 5f66 fa3d 325d 263e
00000240: 4f92 003e 2058 283e c50b 9d3d d06c fe3d
00000250: 72c8 ecbd 2322 3cbd 3918 02be 16d0 acbd
00000260: 6e43 003e 4e50 18bc 5552 21be c702 debd
00000270: 0eab ff3d 1e47 013e 52ba f0bd 8d83 04bb
00000280: 3695 3e39 b365 263d cb2e c8bd d40d 753d
00000290: e89c edbc f97a dbbd 719b 66bd 01d9 a63c
000002a0: 88f9 443e 02c5 533c 6204 1e3d 3402 283d
000002b0: bab0 52bd e967 81bd 597b 45bd c550 c63d
000002c0: 097c 153e f9a9 adbd 796c 7b3d 5d72 42bd
000002d0: 4a38 1fbd 7d45 c63d 1520 e8bd 840c a93d
000002e0: 2e8a af3d 593f 0abe 4731 813c 87e6 6bbe
000002f0: d889 e73d 86d1 18be bf10 8d3c 9f93 bf3c
00000300: f9cf 793d 1610 fc3d e41e a13c 55f9 0b3d
00000310: 75ae 063e 5873 d43d 7cee 1f3d 90f7 e9bd
00000320: ba5b bebd 758c df3d 1fc3 3b3e d4a6 05be
00000330: 392a 953d e4fa 16bd 9fba 13be 4ee5 ec3d
00000340: f6f9 3cbd 19bb a73d 90fe cbbc 36e4 9d3d
00000350: bfcd 84bd d0e1 2f3d dfda 223e 3468 073c
00000360: 0126 243d 39a3 0cbe 9b4c dbbd 1325 1d3e
00000370: 99a3 0d3e 6e54 1abd 27d2 e5bd 6380 423d
00000380: 3217 6d3d 898d a4bd a234 ddbd 6a60 fb3d
00000390: b3b5 533d 63aa 033e abee f73d 56a5 7c3d
000003a0: 0b04 763d 077d 9dbc eed5 563d 35cb 0b3e
000003b0: 723c c5bd 85b1 03be eda1 d53d 04f7 dc3d
000003c0: 0b8e 153e b75d d83d 0c39 283e 5bd4 dbbd
000003d0: c4fc 503d e7cd 8fbd 4a95 fabd fd5e 143e
000003e0: f03c 7dbc 25ce 6f3d 957e 083d 9373 273d
000003f0: 90d9 cf3d 53a2 65bd ef9e 1a3e 56fd 773d

model.rnn.weight_hh_l1 f4 [160, 40]
0.03214098 -0.14670482 0.081613615 0.048679173 -0.0011011967 -0.14736073 0.03892017 0.09634232
0.105448425 0.0718061 0.04228447 0.06142345 0.023010792 0.00880371 -0.16321443 -0.07072995
0.092890956 -0.086299576 -0.10090239 0.04459615 0.057688434 0.029819846 0.08520719 0.15263303
0.12940535 0.075471975 0.0048214747 -0.134824 -0.14325844 -0.06271563 0.15179642 -0.09100367
-0.077547 -0.0015577332 0.12339637 0.027155194 -0.024931483 0.08957644 -0.12815171 0.04934808
-0.17672385 0.056689367 -0.06376856 -0.14337626 -0.088051446 0.11531187 -0.016631406 -0.090620756
0.12384627 0.16442446 0.017971091 0.033281434 0.040842827 -0.054703195 -0.09841042 -0.046869464
-0.060682766 0.017612366 -0.029451651 0.1056698 0.054866426 -0.07037984 0.011131777 0.14306016
0.0371779 -0.07676097 0.08768385 -0.079122216 -0.06841494 -0.0330227 -0.06401359 -0.13424394
0.15469037 -0.045940373 -0.034634203 0.08985871 0.0062353862 -0.06238408 -0.045124084 0.10766376
-0.14106758 0.06750485 0.009132673 0.12542854 -0.110740885 0.065326504 -0.10522393 -0.03351135
-0.0087305205 -0.015848458 -0.052174754 -0.06532377 0.066152394 -0.029032966 -0.03910233 0.13649705
-0.15582852 0.096534684 -0.12273274 0.0055331215 5.604459e-05 -0.027736375 0.031175105 0.01646273
0.11492664 0.093452565 0.11973643 0.08873096 -0.10730179 -0.13133678 -0.055650875 -0.028512157
0.04137124 0.097240835 -0.14366215 -0.09620091 -0.15182504 0.02203625 0.10122421 0.041152146
-0.080405995 -0.15503722 -0.030424036 0.039250564 -0.05994079 0.10488858 0.10151623 -0.020230783
0.0010003905 0.079313494 0.07614664 0.02767214 -0.017733933 -0.17116769 -0.10267146 0.031247444
-0.14191754 -0.0032199973 0.16628206 -0.0034539597 0.01127806 -0.08798749 0.031198885 -0.0070450697
0.021850241 -0.06317401 0.14230205 0.018728672 0.0859965 -0.14908402 0.12669544 0.06627154
0.007378084 0.0866185 -0.038034815 0.017587984 -0.055832688 0.09213833 0.024047256 0.02163015
0.03205392 0.048559595 0.14762284 -0.16022822 0.05050757 -0.008642461 -0.048438694 0.054863576
0.1421209 0.029914575 0.15221573 -0.09770659 -0.070142634 0.077758424 0.07370436 0.06331141
-0.13496909 0.050885424 -0.012738618 -0.014992243 0.07445605 -0.11775162 -0.15539816 -0.14108686
-0.13287501 0.0045446465 0.026119418 0.09858867 -0.034653105 -0.025460716 0.12086816 -0.15353492
-0.13325106 0.13643609 -0.009268527 0.09251184 0.12355645 -0.02166813 0.034452494 0.08627283
0.10731383 0.08424127 -0.017824532 0.038787596 -0.12015828 0.15484428 0.06861512 -0.079205535
0.022325862 0.14193119 -0.075843155 0.071200535 -0.1309652 0.11783122 0.03246377 -0.12895149
0.10776343 -0.0010460196 -0.010224676 -0.017328488 0.01672234 0.07882697 -0.12647362 0.07276918
0.02745026 -0.034708563 0.09414917 -0.003300015 -0.111103594 0.08812986 -0.078104526 0.14043525
0.026206812 0.06502839 -0.1605189 -0.15073366 -0.031956196 -0.13127275 0.090011746 0.10214402
-0.019277154 0.1414627 -0.15133132 -0.11495275 0.15779087 0.12657529 0.007476515 0.14690006
0.08653945 0.004636095 -0.058254454 0.07235294 0.029733108 0.091983125 0.12226342 -0.008699304
00000000: 43a6 033d ca39 16be 0a25 a73d d063 473d
00000010: 0856 90ba bbe5 16be c26a 1f3d 1f4f c53d
00000020: 58f5 d73d 140f 933d 7b32 2d3d 2897 7b3d
00000030: 2181 bc3c 703d 103c af21 27be ddda 90bd
00000040: 9d3d be3d d5bd b0bd eaa5 cebd 74aa 363d
00000050: b54a 6c3d c048 f43c 1b81 ae3d d54b 1c3e
00000060: d682 043e 0d91 9a3d 76fd 9d3b 4d0f 0abe
00000070: 57b2 12be 0d71 80bd 8570 1b3e 2260 babd
00000080: f6d0 9ebd da2c ccba 3cb7 fc3d 9274 de3c
00000090: 1c3d ccbc da73 b73d 343a 03be 3621 4a3d
000000a0: 19f7 34be 1c33 683d 1799 82bd 3ad1 12be
000000b0: 5154 b4bd a128 ec3d 963e 88bc 6097 b9bd
000000c0: 1da3 fd3d e35e 283e 1c38 933c 1d52 083d
000000d0: cf4a 273d 7510 60bd 678b c9bd 32fa 3fbd
000000e0: 7e8e 78bd cf47 903c 9744 f1bc 6869 d83d
000000f0: 9ebb 603d 4e23 90bd 0f62 363c 5d7e 123e
00000100: db47 183d db34 9dbd 9793 b33d d40a a2bd
00000110: 221d 8cbd d042 07bd 8f19 83bd 3e77 09be
00000120: 2767 1e3e f92b 3cbd 98dc 0dbd d807 b83d
00000130: 3652 cc3b 7386 7fbd 08d4 38bd d17e dc3d
00000140: 0574 10be fc3f 8a3d 35a1 153c 5770 003e
00000150: 1ecc e2bd e7c9 853d a57f d7bd 3343 09bd
00000160: 750a 0fbc a0d4 81bc 32b5 55bd 78c8 85bd
00000170: e87a 873d 8bd6 edbc c429 20bd e2c5 0b3e
00000180: 8391 1fbe fab3 c53d 4e5b fbbd 304f b53b
00000190: 6c11 6b38 6537 e3bc ef62 ff3c d9dc 863c
000001a0: a95e eb3d 0f64 bf3d 6038 f53d 94b8 b53d
000001b0: 0ac1 dbbd 267d 06be 2cf2 63bd 5492 e9bc
000001c0: e474 293d 3426 c73d 2c1c 13be fc04 c5bd
000001d0: 0678 1bbe 5e85 b43c a34e cf3d 278f 283d
000001e0: e6ab a4bd 14c2 1ebe d43b f9bc 33c5 203d
000001f0: 7984 75bd d3cf d63d bee7 cf3d 07bb a5bc
00000200: 891f 833a 1d6f a23d c5f2 9b3d afb0 e23c
00000210: c146 91bc 9546 2fbe 6a45 d2bd a4fa ff3c
00000220: d552 11be 9706 53bb d845 2a3e d45b 62bb
00000230: 9dc7 383c c932 b4bd ce94 ff3c 54da e6bb
00000240: 47ff b23c 6061 81bd a1b7 113e df6c 993c
00000250: ef1e b03d 7ba9 18be 73bc 013e 60b9 873d
00000260: dbc3 f13b 0a65 b13d 65ca 1bbd ad14 903c
00000270: d1b0 64bd 05b3 bc3d c0fe c43c b631 b13c
00000280: f94a 033d 6de6 463d 712a 173e de12 24be
00000290: 07e1 4e3d 1c99 0dbc a767 46bd a1b8 603d
000002a0: 2488 113e 690f f53c 71de 1b3e 651a c8bd
000002b0: f1a6 8fbd cf3f 9f3d 50f2 963d 6aa9 813d
000002c0: 5635 0abe 3c6d 503d a3b5 50bc 06a2 75bc
000002d0: 6a7c 983d c327 f1bd b220 1fbe 1379 10be
000002e0: 6310 08be 42eb 943b 64f8 d53c dbe8 c93d
000002f0: 6af0 0dbd fe92 d0bc ba89 f73d 4238 1dbe
00000300: f772 08be e7b5 0b3e 05db 17bc d976 bd3d
00000310: 2a0b fd3d 5d81 b1bc 0f1e 0d3d cfaf b03d
00000320: 5ac7 db3d b086 ac3d c104 92bc bedf 1e3d
00000330: 8b15 f6bd 808f 1e3e 1686 8c3d 8336 a2bd
00000340: bae4 b63c 6956 113e a853 9bbd 96d1 913d
00000350: be1b 06be 7f51 f13d bbf8 043d dc0b 04be
00000360: 13b3 dc3d 981a 89ba 6685 27bc 79f4 8dbc
00000370: 4afd 883c 0970 a13d 4d82 01be 0208 953d
00000380: 5edf e03c 912a 0ebd 48d1 c03d 1145 58bb
00000390: 488a e3bd 6e7d b43d 44f5 9fbd 42ce 0f3e
000003a0: abaf d63c 9b2d 853d 115f 24be ed59 1abe
000003b0: 80e4 02bd 5d6c 06be 1458 b83d e230 d13d
000003c0: 1feb 9dbc 99db 103e 99f6 1abe 596c ebbd
000003d0: ee93 213e f49c 013e 8efd f43b f86c 163e
000003e0: 983b b13d 62ea 973b 399c 6ebd c72d 943d
000003f0: d992 f33c a661 bc3d 3e65 fa3d 8787 0ebc

model.rnn.bias_ih_l1 f4 [160]
0.039976425 0.17841819 -0.025414519 -0.0098291105 0.06495741 -0.08170405 0.10854208 -0.10863858
-0.12765694 0.15026382 0.20577273 -0.022609903 -0.11012923 -0.02554829 -0.062451534 0.11262412
-0.07799969 -0.09536107 0.09553098 0.019812392 0.036321413 0.16239384 -0.076282755 0.10972149
0.12791102 0.08358818 -0.16593197 -0.0046739876 0.06063869 -0.03981862 -0.011118143 0.053440806
0.00021897671 0.14817366 -0.08558775 0.045848865 0.14985725 0.14724803 -0.002139552 -0.09284585
0.04878607 0.029718347 -0.10333048 -0.005356811 -0.15475044 -0.07677229 0.019525051 0.034894302
0.14447318 -0.049470194 0.16433688 0.013825112 0.00032649713 0.011182252 -0.016837616 -0.051718
-0.015259514 0.15248331 -0.1396446 0.045587163 -0.10284471 0.012296888 0.028667439 0.057356626
-0.06219604 0.15992682 -0.14456308 0.061714 -0.07593367 0.14659865 0.12858841 0.007707468
-0.10414404 0.12220793 -0.024553437 -0.0023791771 -0.12531726 -0.1052345 0.053400457 0.13168019
0.06089538 -0.13004312 -0.06515769 0.0378913 0.12833214 -0.08850845 -0.079729125 0.17223985
0.15221754 0.0131731 0.0811645 -0.05037295 0.08277173 0.0011822873 -0.13709283 -0.042668562
-0.18488838 -0.15781969 -0.09249735 -0.08569622 0.015524402 -0.047997657 -0.07597537 0.061178938
-0.10691606 0.02870962 -0.16909085 0.001060483 0.08715605 0.07729781 0.15157548 0.14653365
0.16174392 0.09453683 0.07804517 -0.017183546 -0.10671128 0.05248009 -0.11792303 -0.024633126
0.07403413 0.12461725 0.09742344 0.011228776 0.12860027 -0.16755992 0.011602569 0.08400931
0.03805443 0.055390067 0.10586693 -0.057463646 0.11555899 -0.076849855 0.017841524 0.111445844
0.11813213 0.090958655 -0.011773259 0.05703743 0.116762064 0.0046482617 -0.03814535 -0.009905971
0.00853553 0.1180145 -0.15741508 0.09226861 -0.044532258 0.165415 0.08926542 -0.0094949985
0.04499791 0.18246582 0.10271063 0.10746949 0.09799506 0.14778525 0.097294435 0.07623332
00000000: 52be 233d 42b3 363e 1c32 d0bc 470a 21bc
00000010: 6408 853d 7454 a7bd 4f4b de3d e77d debd
00000020: 80b8 02be c2de 193e 16b6 523e 6738 b9bc
00000030: 6f8b e1bd a64a d1bc 2ecd 7fbd 7aa7 e63d
00000040: 4dbe 9fbd aa4c c3bd bfa5 c33d 994d a23c
00000050: c3c5 143d 924a 263e 223a 9cbd a9b5 e03d
00000060: 1bfb 023e 4830 ab3d 12ea 29be 4028 99bb
00000070: 4660 783d d918 23bd df28 36bc bfe4 5a3d
00000080: 1d9d 6539 d6ba 173e a148 afbd 05cc 3b3d
00000090: 2e74 193e 30c8 163e ba37 0cbb f725 bebd
000000a0: e7d3 473d e473 f33c ee9e d3bd 3088 afbb
000000b0: e676 1ebe ca3a 9dbd 00f3 9f3c 54ed 0e3d
000000c0: c7f0 133e 42a1 4abd ed47 283e b982 623c
000000d0: b42d ab39 c435 373c 0aef 89bc 41d6 53bd
000000e0: 0a03 7abc 9624 1c3e fefe 0ebe 9bb9 3a3d
000000f0: 3fa0 d2bd e378 493c fad7 ea3c c8ee 6a3d
00000100: 46c1 7ebd dbc3 233e 5808 14be d2c7 7c3d
00000110: 1d83 9bbd f51d 163e aeac 033e ed8e fc3b
00000120: 7849 d5bd 2748 fa3d 4a24 c9bc f8eb 1bbb
00000130: 2b53 00be 2f85 d7bd 70ba 5a3d 2cd7 063e
00000140: 6f6d 793d 062a 05be 6571 85bd e833 1b3d
00000150: 8069 033e eb43 b5bd 0649 a3bd a55f 303e
00000160: eade 1b3e fcd3 573c 9339 a63d de53 4ebd
00000170: 3a84 a93d fbf6 9a3a 1062 0cbe 3bc5 2ebd
00000180: 6153 3dbe 7c9b 21be 406f bdbd 8081 afbd
00000190: 105a 7e3c 3199 44bd fa98 9bbd c496 7a3d
000001a0: cff6 dabd 7030 eb3c 2726 2dbe e8ff 8a3a
000001b0: df7e b23d 504e 9e3d 9a36 1b3e eb0c 163e
000001c0: 33a0 253e 879c c13d 25d6 9f3d 82c4 8cbc
000001d0: 728b dabd 5df5 563d a181 f1bd 69cb c9bc
000001e0: 359f 973d 5437 ff3d f185 c73d e6f8 373c
000001f0: caaf 033e d494 2bbe b418 3e3c 130d ac3d
00000200: f6de 1b3d b2e0 623d c3d0 d83d 005f 6bbd
00000210: 31aa ec3d 7563 9dbd 6328 923c b83d e43d
00000220: 42ef f13d 8848 ba3d a1e4 40bc 15a0 693d
00000230: f320 ef3d 7250 983b 4c3e 1cbd a74c 22bc
00000240: 9cd8 0b3c 96b1 f13d 6b31 21be 53f7 bc3d
00000250: 7567 36bd 8d62 293e cad0 b63d e990 1bbc
00000260: ba4f 383d 52d8 3a3e f359 d23d f718 dc3d
00000270: a2b1 c83d 0455 173e 4e42 c73d 3720 9c3d

model.rnn.bias_hh_l1 f4 [160]
0.013018979 0.015406168 0.064568594 -0.055506732 0.13550486 0.1402324 0.09651627 -0.09735555
0.11896055 -0.11245808 0.20450059 0.059269395 0.19182353 0.13806613 -0.04042876 0.15170677
0.17177828 0.054598913 0.002281234 0.0027664234 0.050975703 -0.077873304 -0.11427204 0.07838337
0.11656361 0.024518134 -0.076262616 -0.006170539 0.02115332 0.15888034 0.056923583 0.15218739
0.12389087 0.16779408 0.12567659 0.037819397 -0.10937462 -0.1068204 0.15995805 0.05773845
-0.07268654 -0.033607677 -0.015833812 -0.074842654 -0.015617927 0.12948452 -0.024294231 0.16668066
0.06766665 0.13513404 -0.09138809 0.06135703 -0.088697605 -0.038801976 0.12461961 -0.119968094
-0.086643495 0.084362574 0.06486509 0.03974781 0.058489807 0.17754006 0.1761707 0.15968451
0.018603625 0.052128427 -0.08519189 -0.14136913 0.13348824 0.15982367 0.057620548 -0.14022541
0.067610346 0.19320056 0.11916219 -0.08264214 0.051468268 0.110169396 0.07668641 -0.05093244
-0.17369248 -0.0085652 0.13833767 -0.056394648 0.07178114 -0.063261874 0.14250448 0.009379108
-0.037804145 0.06452374 0.06157046 -0.08777601 0.09632075 -0.046502903 -0.054519616 -0.100834824
-0.044342384 -0.15247975 0.101371124 -0.035012703 -0.11356681 0.0910442 0.11730704 0.15509757
-0.13774303 -0.090203784 0.076993644 0.07650417 0.11450035 0.10979363 0.12918714 0.013318056
0.12558736 0.05422674 0.10158526 0.12801336 -0.07442418 0.12486168 -0.03256438 -0.025899088
-0.07697074 0.13195597 -0.06279784 0.04998657 0.045901917 -0.0077914717 0.13690923 -0.10748354
-0.0019055193 -0.077852786 0.06812394 0.20423453 0.11453249 -0.10826851 -0.06397544 -0.021367887
0.09822726 0.19853254 0.15216352 -0.013727154 0.029633408 0.06840329 0.10676474 0.1790645
0.07738843 0.028715584 -0.15003787 -0.16327943 -0.050062563 -0.14269151 0.0669602 -0.13436729
0.12817937 -0.057783827 -0.14325021 0.15059407 0.105423495 0.016787369 0.048760723 0.20654802
00000000: 8e4d 553c 276a 7c3c 8a3c 843d 075b 63bd
00000010: c9c1 0a3e 1599 0f3e 52aa c53d 5962 c7bd
00000020: 97a1 f33d 6c50 e6bd 9a68 513e 77c4 723d
00000030: 636d 443e 3561 0d3e a198 25bd 0559 1b3e
00000040: a5e6 2f3e 1ca3 5f3d c180 153b e24c 353b
00000050: e6cb 503d 0a7c 9fbd 7607 eabd 7687 a03d
00000060: e7b8 ee3d 41da c83c 932f 9cbd 3c32 cabb
00000070: ba49 ad3c 87b1 223e b428 693d 03d7 1b3e
00000080: 7fba fd3d 36d2 2b3e 5db1 003e 83e8 1a3d
00000090: cdff dfbd a7c4 dabd 0bcc 233e 277f 6c3d
000000a0: aedc 94bd 34a8 09bd e9b5 81bc 1b47 99bd
000000b0: 55e2 7fbc 9797 043e b204 c7bc 56ae 2a3e
000000c0: d094 8a3d 9460 0a3e ae29 bbbd 8251 7b3d
000000d0: 17a7 b5bd d2ee 1ebd 9138 ff3d d5b1 f5bd
000000e0: 2572 b1bd 49c6 ac3d fdd7 843d 9ace 223d
000000f0: 0293 6f3d 10cd 353e 1866 343e 5684 233e
00000100: a166 983c 9e84 553d 1679 aebd 12c3 10be
00000110: 24b1 083e d1a8 233e 8603 6c3d 4097 0fbe
00000120: 4b77 8a3d 5ed6 453e 4e0b f43d 4840 a9bd
00000130: 64d0 523d 7ea0 e13d c40d 9d3d 899e 50bd
00000140: 71dc 31be 0d55 0cbc 64a8 0d3e 13fe 66bd
00000150: fe01 933d 718f 81bd b2ec 113e d5aa 193c
00000160: 85d8 1abd 0625 843d 4f31 7c3d e9c3 b3bd
00000170: d043 c53d d479 3ebd f64f 5fbd 7d82 cebd
00000180: 5ca0 35bd a723 1cbe aa9b cf3d 7b69 0fbd
00000190: b795 e8bd 6275 ba3d ac3e f03d e6d1 1e3e
000001a0: 820c 0dbe c3bc b8bd d8ae 9d3d 38ae 9c3d
000001b0: 297f ea3d 7cdb e03d a249 043e fa33 5a3c
000001c0: f999 003e dc1c 5e3d ef0b d03d ef15 033e
000001d0: b46b 98bd 7bb7 ff3d 3a62 05bd 532a d4bc
000001e0: d6a2 9dbd 771f 073e 279c 80bd b8be 4c3d
000001f0: a603 3c3d 9a4f ffbb ef31 0c3e 5520 dcbd
00000200: 9ec2 f9ba 4871 9fbd 9084 8b3d db22 513e
00000210: 0390 ea3d e1bb ddbd 8e05 83bd b50b afbc
00000220: 602b c93d 1d4c 4b3e c1d0 1b3e dbe7 60bc
00000230: c3c1 f23c 0617 8c3d 79a7 da3d af5c 373e
00000240: d37d 9e3d f23c eb3c 87a3 19be b932 27be
00000250: 670e 4dbd b91d 12be 6e22 893d 9497 09be
00000260: 7441 033e bcae 6cbd 2fb0 12be 5535 1a3e
00000270: 46e8 d73d aa85 893c 53b9 473d 5381 533e
