MARTS/AutogluonModels/ag-20240821_053306/models/DeepAR/W0/gluon_ts/prediction-net-state.pt (torch, 109152 bytes, 11 tensors)

model.param_proj.proj.0.weight f4 [1, 40]
0	0xbd9c624f	-0.076359384
1	0xbcb3065c	-0.021853618
2	0xbe5cb52e	-0.2155349
3	0xbdbe30a4	-0.09286621
4	0xbbf62caf	-0.007512651
5	0x3e305e4b	0.1722347
6	0x3e087a99	0.13328017
7	0x3e5395dd	0.20662637
8	0x3e2bb755	0.16769154
9	0x3e144f6e	0.14483425
10	0x3e8cffbb	0.27538857
11	0xbbf232d9	-0.0073913154
12	0x3e9cb04b	0.3060325
13	0xbd3ba279	-0.045809243
14	0x3d9648a7	0.07338076
15	0xbbbbe5eb	-0.0057341955
16	0xbcef3240	-0.029198766
17	0xbd2ca777	-0.042151894
18	0x3db3292c	0.08748087
19	0x3e714d87	0.2356473
20	0xbe6cddd5	-0.23131497
21	0xbe972b5f	-0.29525277
22	0x3e0da994	0.1383422
23	0x3e4d5f56	0.20055899
24	0xbcf7ea88	-0.0302632
25	0x3e61a0b2	0.22033957
26	0x3d713ab0	0.05889386
27	0x3cc60133	0.024170494
28	0xbcd00e00	-0.0253973
29	0x3c0af1ed	0.008480531
30	0x3e609910	0.21933389
31	0x3d979ea1	0.07403303
32	0x3dcc063a	0.09962125
33	0x3e8dad10	0.276711
34	0xbcc37e16	-0.023863833
35	0x3e51ece6	0.20500526
36	0xbe086ce7	-0.13322793
37	0x3d35c783	0.044379722
38	0xbd166183	-0.03671409
39	0xbe63ce19	-0.22246589

model.param_proj.proj.1.weight f4 [1, 40]
0	0xbe09fc40	-0.13475132
1	0xbdbf8465	-0.09351424
2	0xb9515b93	-0.00019965907
3	0xbd6d8a39	-0.057993148
4	0xbdab2684	-0.08356956
5	0x3e062425	0.13099726
6	0x3df09221	0.11746622
7	0x3e17445d	0.14772172
8	0xbbbf852d	-0.005844733
9	0x3dc2b1ed	0.09506593
10	0x3d366384	0.0445285
11	0x3b8b046e	0.0042424714
12	0x3c0676a9	0.008207002
13	0x3da593b7	0.08084815
14	0x3dc7b7aa	0.09751828
15	0x3d7d203b	0.061798315
16	0xbdb80781	-0.08985806
17	0xbcad242c	-0.021135412
18	0x3e01a34e	0.12659952
19	0x3c97255f	0.018450437
20	0xbd913c25	-0.0709155
21	0xbdaa5986	-0.083178565
22	0x3cc4f81a	0.024044085
23	0x3e1e33c8	0.1544944
24	0xbb99091e	-0.0046702763
25	0x3dcc0d15	0.09963433
26	0xbd166301	-0.03671551
27	0xbe08660e	-0.13320181
28	0x3dc979ab	0.098376594
29	0x3e1f14dc	0.15535301
30	0x3df149b1	0.11781634
31	0x3e020237	0.12696157
32	0xbd3eb11f	-0.046555635
33	0x3d4e7648	0.05040577
34	0x3ddf4c72	0.10903253
35	0xbd79015e	-0.06079232
36	0xbd8976cc	-0.06712112
37	0xbd80595d	-0.06267045
38	0x3d2b9256	0.041887604
39	0xbd030023	-0.031982552

model.param_proj.proj.2.weight f4 [1, 40]
0	0xbcdd5177	-0.027016385
1	0x3d9e23ae	0.07721649
2	0x3cfe922a	0.031075556
3	0x3e6ed980	0.23325157
4	0xbe1efddf	-0.15526532
5	0xbce3098e	-0.027714517
6	0xbe00d5ab	-0.12581508
7	0xbd948f10	-0.072538495
8	0xbe160596	-0.14650568
9	0xbe6f8592	-0.23390797
10	0xbe47cc60	-0.19511557
11	0x3e7486fe	0.2387962
12	0xbdb85292	-0.09000124
13	0x3e2d8aba	0.16947451
14	0x3cf74855	0.030185858
15	0xbe2d8680	-0.16945839
16	0x3e815508	0.25260186
17	0x3dd5abb7	0.10433143
18	0xbe41fcde	-0.18944117
19	0xbe6580de	-0.2241244
20	0x3e478d27	0.19487439
21	0x3e357640	0.1772089
22	0xbd49a5f3	-0.049230527
23	0xbe656111	-0.22400309
24	0x3e4d1a60	0.20029593
25	0xbd684ffc	-0.056716904
26	0x3c904523	0.017611092
27	0xbd9b5774	-0.0758504
28	0x3e11d0e0	0.14239836
29	0x3db10afd	0.08644674
30	0xbd5d9720	-0.054099202
31	0x3d59e3e4	0.05319585
32	0xbe3cb730	-0.18429255
33	0xbdf4aa2d	-0.11946521
34	0x3b01818a	0.001976105
35	0xbdca4112	-0.098756924
36	0xbccbb986	-0.024868738
37	0xbe79f6a2	-0.24410489
38	0xbe4d9246	-0.2007533
39	0x3e012c1f	0.12614487

model.rnn.weight_ih_l0 f4 [160, 37]
0	0xbd32f9e1	-0.043695334
1	0xbd92b396	-0.071631595
2	0x3e4a2d44	0.1974383
3	0x3dd737dc	0.10508701
4	0xbcea9774	-0.028636672
5	0x3e3c62e2	0.18397096
6	0x3d2d143c	0.042255625
7	0x3ca081ae	0.019593086
8	0x3e3fc543	0.18727593
9	0x3daa9c47	0.08330589
10	0x3dc803ea	0.097663715
11	0x3e3b7691	0.18306948
12	0xbdd53dd5	-0.10412184
13	0x3e35537e	0.17707631
14	0xbcd6b0e3	-0.026207393
15	0x3c0c12c1	0.008549393
16	0xbd9d112b	-0.0766929
17	0xbd0c33ca	-0.034229077
18	0x3dc0a825	0.09407071
19	0xbddf7bbd	-0.10912273
20	0x3dc68452	0.09693207
21	0x3d73a82b	0.05948655
22	0x3e2b1359	0.167066
23	0x3dd3dd8c	0.10344991
24	0x3df7f309	0.12106902
25	0xbd9362be	-0.07196568
26	0x3e08dea2	0.13366178
27	0xbd98aec7	-0.07455211
28	0x3da98fd9	0.0827939
29	0xbdfc1f29	-0.12310631
30	0x3daec375	0.08533374
31	0xbdc0fc5e	-0.09423135
32	0x3e39be59	0.18139018
33	0x3d9cbf99	0.07653732
34	0xbda22322	-0.07916857
35	0xbdc324a4	-0.09528473
36	0x3db43325	0.087988175
37	0x3d9c6be4	0.07637766
38	0x3cdc6186	0.026901972
39	0xbe1a450a	-0.15065399
40	0xbe1c7747	-0.15279876
41	0x3d8d8b66	0.06911354
42	0xbe1a66ca	-0.15078273
43	0xbd27c84a	-0.040962495
44	0xbd97bf6d	-0.074095584
45	0xbd555fd0	-0.052093327
46	0xbc433b6c	-0.011916023
47	0xbdf6cef6	-0.120511934
48	0xbe4925e1	-0.19643356
49	0xbce88b82	-0.028386835
50	0xbcbb8409	-0.022890108
51	0x3da090a8	0.07840091
52	0xbd0fac06	-0.035076164
53	0xbd753b8b	-0.059871238
54	0x3d755354	0.05989392
55	0x3c8477a4	0.01617033
56	0x3d8637ff	0.06553649
57	0xbda7e7af	-0.08198487
58	0x3e0fedec	0.14055604
59	0xbde3af68	-0.111174405
60	0x3ced03f4	0.028932549
61	0x3ca9622e	0.020676699
62	0x3e153da2	0.14574292
63	0x3e35b718	0.17745626
64	0x3e55324b	0.20819966
65	0x3dd40dcf	0.10354196
66	0x3e0b375c	0.13595337
67	0xbde4b033	-0.1116642
68	0xbdc76f66	-0.097380444
69	0x3e0ae089	0.13562216
70	0x3db82a4c	0.089924425
71	0xbe37a86b	-0.1793534
72	0xbdcd2466	-0.10016708
73	0x3d71347e	0.05888795
74	0x3df7583d	0.12077377
75	0x3dfa03df	0.122077696
76	0x3e286fc2	0.16448882
77	0x3cb6cfde	0.022315916
78	0xbdc9d60a	-0.09855278
79	0x3c77dae4	0.015127871
80	0x3c273ee5	0.010207866
81	0x3e2f53ac	0.17121762
82	0x3cceaa2f	0.025227634
83	0xbe030d26	-0.12797984
84	0xbdef40a0	-0.11682248
85	0x3e3c407e	0.18383977
86	0x3e3ad6c7	0.18245994
87	0x3e0f8144	0.14014155
88	0x3e134c15	0.14384492
89	0x3ddb10ec	0.10696587
90	0x3e1b9a89	0.15195669
91	0xbcdb1304	-0.026742466
92	0xbd6318d8	-0.055443615
93	0x3d64c7be	0.05585455
94	0x3c92a2e5	0.01789994
95	0x3e00519a	0.12531129
96	0x3e28def5	0.16491301
97	0xbe0770f6	-0.13226685
98	0xbda9666e	-0.0827149
99	0xbce63c30	-0.028104872
100	0xbd1f4423	-0.03888334
101	0xbdb951e1	-0.0904882
102	0xbd04331b	-0.0322753
103	0x3d6626e5	0.056189436
104	0xbe076c93	-0.13225012
105	0xb9c107f6	-0.0003681776
106	0x3b6c3d0b	0.0036047127
107	0x3db4621d	0.08807776
108	0x3c2462b0	0.010033295
109	0xbd1d926f	-0.038469728
110	0x3db66e5f	0.0890777
111	0xbc5ff2ac	-0.013668697
112	0x3d1e6704	0.038672462
113	0x3db628c5	0.08894495
114	0xbcce9cfc	-0.02522134
115	0x3e226005	0.15856941
116	0x3df53012	0.11972059
117	0x3d8deac2	0.06929542
118	0x3d1b3e06	0.037900947
119	0x3d887451	0.066628106
120	0xbd683b18	-0.05669698
121	0xbd9298df	-0.07158064
122	0x3d1e48c1	0.038643602
123	0xbe0ead82	-0.13933375
124	0xbd971934	-0.07377854
125	0x3d7493b8	0.059711188
126	0x3e0fc327	0.14039288
127	0x3d97b115	0.074068226
128	0xbdf220e2	-0.11822678
129	0xbd8da225	-0.06915692
130	0xbe02b4d3	-0.12764291
131	0x3e12edf2	0.14348581
132	0xbe3a66b1	-0.18203236
133	0xbd403d70	-0.04693359
134	0xbe1318ff	-0.14365004
135	0x3c72e3b7	0.014824799
136	0xbb45248d	-0.00300816
137	0x3cb2a6af	0.021807997
138	0x3ddadd3c	0.10686728
139	0xbe05e2ab	-0.13074748
140	0xbdc30fef	-0.095245235
141	0xbd152d8d	-0.036420394
142	0xbc423ca0	-0.011855274
143	0x3dd9fc2e	0.106438026
144	0x3ea775e9	0.32707146
145	0xbd84cab8	-0.06483978
146	0xbeb096fe	-0.34490198
147	0x3e082690	0.1329596
148	0x3dad7dbe	0.08471249
149	0x3dc5c31f	0.09656357
150	0xbdaaa3ae	-0.08332001
151	0xbdbad367	-0.09122353
152	0xbda907a6	-0.08253412
153	0xbdcd14c5	-0.10013727
154	0x3d4932ba	0.049120642
155	0xbd8b3a52	-0.06798233
156	0xbd99230c	-0.07477388
157	0xbdbb8043	-0.09155323
158	0xbd56dc67	-0.052456286
159	0xbd6d6e49	-0.057966504
160	0x3da4c79d	0.08045886
161	0x3d84b2c2	0.06479408
162	0x3e3d98aa	0.18515268
163	0x3e3531c1	0.17694761
164	0x3cb7f7ff	0.022457121
165	0x3e07c223	0.13257651
166	0x3dcccd78	0.100001276
167	0x3e0f2d9f	0.13982247
168	0xbcc9637a	-0.024583567
169	0x3e2d8446	0.1694499
170	0x3e172512	0.14760235
171	0x3d79d367	0.060992625
172	0x3c8d9759	0.017284082
173	0xbdfbe757	-0.12299984
174	0x3ddc188d	0.1074687
175	0x3db7707c	0.089570016
176	0xbde1c123	-0.11023166
177	0x3e1ed250	0.15509915
178	0xbdbdc70c	-0.09266481
179	0x3dae6d68	0.08516961
180	0x3db5a36e	0.08869062
181	0xbdd842f1	-0.10559643
182	0xbe190a3c	-0.1494531
183	0x3d962105	0.07330517
184	0x3e3d5848	0.18490708
185	0x3d157e67	0.0364975
186	0x3e329b62	0.17442086
187	0x3decd40e	0.11563884
188	0x3d948103	0.072511695
189	0xbd9b0b50	-0.07570517
190	0x3de61c21	0.11235834
191	0x3da55e58	0.08074635
192	0xbd9e6f8c	-0.0773612
193	0x3de13c79	0.10997862
194	0x3e1f5664	0.15560299
195	0xbd16ce3a	-0.036817767
196	0x3e2c2b80	0.16813469
197	0xbd9e8c44	-0.07741597
198	0xbdae7c2d	-0.085197784
199	0xbd4ddb3a	-0.0502579
200	0x3c7f9a06	0.015600687
201	0xbdeab0d7	-0.11459511
202	0xbdd42447	-0.10358482
203	0x3e4052c2	0.1878157
204	0x3e17b5d1	0.14815451
205	0x3ddf934a	0.10916765
206	0x3e3d081e	0.18460128
207	0x3bc56d9a	0.0060250284
208	0x3e2777fd	0.16354366
209	0x3e00aa08	0.12564862
210	0xbdc2fa10	-0.09520352
211	0x3dd35940	0.103197575
212	0x3daf75d2	0.08567394
213	0xbe071886	-0.13192949
214	0x3cd4d163	0.02597875
215	0x3de2e43c	0.110786885
216	0xbd0fa948	-0.03507355
217	0x3d3f796f	0.046746667
218	0xbd0d694c	-0.034524247
219	0xbcd141e5	-0.025544116
220	0xbdbe26a2	-0.092847124
221	0x3da63f00	0.08117485
222	0xbda2d08a	-0.07949932
223	0xbd73e2be	-0.05954241
224	0xbc035ada	-0.008017266
225	0xbdbb4bb5	-0.09145299
226	0x3bacba86	0.0052712588
227	0x3d35b4a5	0.04436173
228	0xbdad110b	-0.08450516
229	0xbcf519fc	-0.029919617
230	0xbba50963	-0.0050365194
231	0xb9b7e891	-0.00035077755
232	0xbce0343e	-0.027368661
233	0x36ccf330	6.1079845e-06
234	0xbd4b4bbe	-0.04963278
235	0x3e163f4d	0.14672585
236	0x3d40eaef	0.04709905
237	0x3e16e03d	0.14733978
238	0xbd9ee4c1	-0.07758475
239	0x3e2fae9d	0.17156453
240	0x3e16b92f	0.1471908
241	0xbd1b0872	-0.03784985
242	0x3ddfcb61	0.10927463
243	0xbd813890	-0.063096166
244	0xbd3ab279	-0.04558036
245	0x3d0fbc32	0.035091586
246	0xbd4b8e7a	-0.049696423
247	0xbd931f24	-0.07183674
248	0x3e19cfcc	0.15020674
249	0x3e2ba115	0.16760667
250	0xbcf80d24	-0.030279703
251	0x3ba03034	0.0048885588
252	0xbd332b9a	-0.043742754
253	0xbdcdf836	-0.10057108
254	0x3db6d3ae	0.089270934
255	0xbdefa4b5	-0.11701337

model.rnn.weight_hh_l0 f4 [160, 40]
0	0x3dc9eae6	0.098592564
1	0xbd507475	-0.050892312
2	0xbde682b5	-0.11255399
3	0x3da9bef7	0.08288377
4	0xbdee05de	-0.11622213
5	0xbdd53678	-0.1041078
6	0x3e1e2874	0.15445119
7	0x3cee8f25	0.029120991
8	0x3db000a1	0.0859387
9	0xbcb604c0	-0.022219062
10	0xbd201b82	-0.039088733
11	0x3df77dbe	0.1208453
12	0xbe0c403e	-0.13696381
13	0xbd9022f7	-0.07037919
14	0xbddcc784	-0.10780242
15	0xbd772a5b	-0.060343128
16	0x3d26ac27	0.04069152
17	0xba2a5250	-0.0006497251
18	0x3cf3cd50	0.029760987
19	0xbd1ed47b	-0.038776856
20	0x3c90fc92	0.01769856
21	0xbe3ca27d	-0.1842136
22	0xbdb49ec0	-0.08819342
23	0xbdd7a06e	-0.105286464
24	0x3dce8a30	0.10084951
25	0x3d28f132	0.041245647
26	0xbdacf613	-0.084453724
27	0xbd80aa87	-0.062825255
28	0x3e29b2f5	0.16572173
29	0x3d1714c3	0.036885034
30	0x3e546c66	0.20744476
31	0xbe12ad32	-0.14323881
32	0xbde812f0	-0.11331737
33	0xbd06c585	-0.032903213
34	0x3d0ef892	0.034905024
35	0x3de75b37	0.11296695
36	0xbdc9b830	-0.09849584
37	0x3e350900	0.17679214
38	0xbe008803	-0.12551884
39	0xbdb26586	-0.0871077
40	0x3d92bc4e	0.071648225
41	0xbe051f46	-0.13000211
42	0xbe2b48d9	-0.16727008
43	0x3e107879	0.14108457
44	0x3d44bf9b	0.04803429
45	0x3daba4c0	0.08381033
46	0x3b72690e	0.0036988887
47	0xbda74d48	-0.08169037
48	0x3da41443	0.08011677
49	0x3dcc3744	0.099714786
50	0xbdf31bc2	-0.11870529
51	0xbda683ca	-0.081306055
52	0x3d895544	0.06705716
53	0xbdc2f617	-0.09519594
54	0xbc35b46b	-0.011090378
55	0xbd65d9d1	-0.05611593
56	0xbe899914	-0.26874602
57	0xbe0d9269	-0.13825382
58	0x3dbd68bf	0.09248494
59	0x3ce3d83e	0.027813073
60	0x3e391ef2	0.18078211
61	0x3db200fe	0.086915955
62	0xbe549024	-0.2075811
63	0x3d04fc27	0.032467034
64	0x3e1524fc	0.1456489
65	0xbd0aec43	-0.033916723
66	0x3d16e9b3	0.036843967
67	0xbd8f7ae9	-0.07005865
68	0x3e0b1257	0.13581215
69	0x3dca9cce	0.09893189
70	0x3c61eb67	0.013789034
71	0xbd7cd595	-0.061727125
72	0x3de880d0	0.11352694
73	0x3dfaeaf5	0.12251846
74	0x3c9f75e2	0.01946539
75	0xbdf0045b	-0.11719581
76	0xbe2a53d1	-0.16633536
77	0xbc2a1ac8	-0.010382362
78	0xbde14cde	-0.110009894
79	0xbda24299	-0.07922859
80	0xbdf1b240	-0.118015766
81	0xbdc552e7	-0.09634953
82	0x3dd94681	0.10609151
83	0x3d5caeb7	0.05387756
84	0x3e1fa9d6	0.15592131
85	0xbdc69df0	-0.09698093
86	0xbc7cc7d7	-0.015428505
87	0xbdaabca2	-0.0833676
88	0xbdc12a0d	-0.09431849
89	0xbddf6b3c	-0.10909125
90	0xbd5c71d5	-0.053819496
91	0x3ce87d2b	0.028379997
92	0xbd602cd2	-0.054730244
93	0xbbe6badf	-0.0070413197
94	0xbc8a9899	-0.016918467
95	0x3b1339f3	0.002246496
96	0xbe40ca00	-0.18827057
97	0xbd85af65	-0.065275945
98	0xbd9a89cf	-0.07545816
99	0x3da82656	0.08210437
100	0x3e3ad621	0.18245746
101	0xbda5f631	-0.08103598
102	0xbe1dfcf7	-0.1542853
103	0x3ddbac0e	0.10726176
104	0x3cac9827	0.021068646
105	0xbe0e6570	-0.13905883
106	0xbdadde6f	-0.084896915
107	0x3e323143	0.17401604
108	0xbe08b522	-0.13350347
109	0xbdf59be7	-0.11992627
110	0x3e033955	0.12814839
111	0x3e1d6427	0.15370236
112	0xbdd5f5fc	-0.104473084
113	0x3e2546a8	0.16140234
114	0x3d7f9560	0.062398314
115	0xbdae832d	-0.085211135
116	0xbcc2a066	-0.023758125
117	0xbdd7ae3a	-0.10531278
118	0xbd188f40	-0.03724599
119	0xbd1616c1	-0.036642794
120	0xbbb6926c	-0.005571654
121	0x3e05ec45	0.13078411
122	0xbe08d597	-0.13362728
123	0xbccf983f	-0.025341151
124	0x3db469d6	0.08809249
125	0x3dcc927b	0.099888764
126	0x3dd380f2	0.10327329
127	0xbde6e4d3	-0.112741135
128	0x3d011cbd	0.031521548
129	0x3dd6d9d3	0.104907654
130	0x3b202ae0	0.0024439618
131	0x3c869256	0.0164272
132	0xbdfccda6	-0.12343912
133	0xbdc8895b	-0.097918235
134	0x3c996899	0.018726634
135	0xbde11275	-0.109898485
136	0xbe405984	-0.18784148
137	0x3c0260e6	0.007957673
138	0xbdcba70b	-0.0994397
139	0xbe07e6f3	-0.13271694
140	0x3e05df35	0.13073428
141	0x3dd2d940	0.102953434
142	0xbde4fcf8	-0.111810625
143	0xbe1ff124	-0.15619332
144	0x3bfaa01a	0.00764848
145	0xbdbc8cc6	-0.09206538
146	0x3dd311c9	0.103061266
147	0x3e71cd3b	0.23613445
148	0x3c6ecf81	0.01457584
149	0xbdb317f5	-0.08744804
150	0xbdefccd1	-0.117089875
151	0xbc9728b2	-0.018452022
152	0x3da0558c	0.07828817
153	0x3dcc069f	0.099622004
154	0xbdce6d51	-0.10079444
155	0xbdf1fe32	-0.11816062
156	0xbc0e9587	-0.008702642
157	0x3c942ec8	0.018088713
158	0x3d9e21ca	0.077212885
159	0xbd902ab6	-0.070393965
160	0x3e09aac7	0.13444053
161	0xbb89014e	-0.0041810637
162	0xbd9aa16b	-0.07550319
163	0xbcb3b628	-0.021937445
164	0x3d0375d6	0.0320948
165	0xbc5c6fff	-0.013454436
166	0xbddc6868	-0.107621014
167	0x3e28e71c	0.16494411
168	0x3d7bb47d	0.061451424
169	0xbda2152f	-0.07914197
170	0xbcead4d7	-0.028665943
171	0xbd69ba1c	-0.057062253
172	0xbe367c8a	-0.17820945
173	0x3e428dbe	0.18999383
174	0x3c110562	0.008851381
175	0xbd8b0780	-0.0678854
176	0x3daba815	0.083816685
177	0x3e110c73	0.14164905
178	0xbd2edc08	-0.042690307
179	0xbe0ac5e3	-0.1355205
180	0x3d1523a1	0.03641093
181	0xbceb10d9	-0.028694557
182	0x3d6bd9a5	0.05758061
183	0xbd352cbe	-0.044232123
184	0x3d5f2018	0.054473966
185	0xbc85c337	-0.016328437
186	0xbdaf61e8	-0.08563596
187	0xbd883684	-0.06651023
188	0x3e37fc30	0.17967296
189	0x3cb789b4	0.02240453
190	0x3df880fc	0.12133977
191	0xbe6ab83f	-0.22921847
192	0x3d2114a2	0.039326318
193	0x3e1931b9	0.14960374
194	0xbda39d23	-0.07988956
195	0x3de13e8d	0.10998259
196	0x3e1e6ad2	0.15470436
197	0xbd70bf80	-0.05877638
198	0xbdd99d15	-0.10625664
199	0x3e1771f2	0.1478956
200	0xbd9b9208	-0.075962126
201	0x3e334b14	0.17509109
202	0xbe3e05dc	-0.18556923
203	0xbdcc60d0	-0.09979403
204	0xbcb80127	-0.022461487
205	0xbdfa749f	-0.12229275
206	0x3e66fa4b	0.22556417
207	0x3e3d4c4b	0.18486135
208	0xbe47fe9d	-0.19530721
209	0xbcffa697	-0.031207366
210	0xbe2674a3	-0.16255431
211	0xbcb67d96	-0.02227668
212	0xbe2f0b69	-0.17094196
213	0x3d4226e5	0.047400374
214	0x3dd09532	0.10184707
215	0xbd15f8db	-0.03661428
216	0xbd921467	-0.07132798
217	0xbdcd9101	-0.10037423
218	0x3e27e271	0.16394974
219	0x3c5cf336	0.01348572
220	0xbe00c82d	-0.12576361
221	0xbde697c9	-0.112594195
222	0x3e3786d2	0.17922524
223	0xbde46051	-0.111511834
224	0xbca5d28e	-0.020242002
225	0x3e362398	0.17787015
226	0xbdd23ce0	-0.10265517
227	0x3ded338b	0.11582097
228	0xbd023c20	-0.03179562
229	0x3e001f8f	0.12512039
230	0x3b01a3c5	0.0019781452
231	0x3d3a3da1	0.04546893
232	0x3c7ae67a	0.015313739
233	0x3b7cdb4c	0.003858286
234	0xbd39b175	-0.04533525
235	0x3db2ba4d	0.0872694
236	0x3dad7cd0	0.08471072
237	0xbd91f140	-0.07126093
238	0x3dc4f04d	0.09616146
239	0x3e128fdd	0.14312692
240	0x3e28bbd6	0.16477904
241	0x3e326133	0.17419891
242	0xbde9a81e	-0.11409019
243	0xbc21c6f4	-0.009874094
244	0x3d8a933c	0.06766364
245	0xbe14a566	-0.1451622
246	0x3e4342fb	0.1906852
247	0x3e1d4c0e	0.15361044
248	0x3da3f81a	0.08006306
249	0x3d5c6a99	0.053812597
250	0xbe2e3534	-0.17012483
251	0xbd19c630	-0.037542522
252	0x3d70063b	0.05859969
253	0x3e383c5f	0.1799178
254	0x3d67ea26	0.056619786
255	0xbd51d98b	-0.051232856

model.rnn.bias_ih_l0 f4 [160]
0	0x3c7b8f98	0.01535406
1	0x3da44fcf	0.08023035
2	0xbdbf7b9f	-0.09349751
3	0xbdd218fa	-0.1025867
4	0x3e3f791f	0.18698548
5	0xbc883bea	-0.016630132
6	0xbd32db9a	-0.04366646
7	0x3d3f0aaf	0.046641048
8	0xbd8aae04	-0.06771472
9	0x3d7386c0	0.05945468
10	0x3e0938d2	0.13400581
11	0xbdec4a77	-0.115376405
12	0x3d2b08a1	0.041756276
13	0xbdf4079c	-0.11915514
14	0x3e170c64	0.1475082
15	0x3d73116d	0.05934279
16	0x3de2834e	0.11060201
17	0xbe2cf529	-0.16890396
18	0xbdeb627e	-0.11493395
19	0x3d1ea7d4	0.038734272
20	0xbdb2ddde	-0.08733724
21	0x3cd0d9e8	0.02549453
22	0x3e20cf0e	0.15703985
23	0x3ca9d083	0.020729309
24	0xbd241f60	-0.040068984
25	0x3d467a58	0.04845652
26	0x3d211517	0.039326753
27	0x3d7aa1c6	0.061189435
28	0x3ce4f9e5	0.02795119
29	0xbd88c8d9	-0.06678934
30	0x3e57a284	0.21058089
31	0x3dd8407f	0.10559177
32	0x3d578f6a	0.052627005
33	0x3d846bc4	0.06465867
34	0xbd9bad98	-0.0760147
35	0xbdb16b9e	-0.086631045
36	0xbdbc32c1	-0.09189368
37	0xbd8625bb	-0.06550165
38	0xbd960a31	-0.073261626
39	0x3e2ef500	0.17085648
40	0xbc909cf7	-0.017652972
41	0xbdca141e	-0.09867118
42	0xbcf898d5	-0.030346313
43	0x3c045ab7	0.008078269
44	0x3e3e4a1a	0.18582955
45	0x3e2a5ca0	0.16636896
46	0x3d5132e3	0.05107392
47	0xbc2db669	-0.010602572
48	0x3bf70c0d	0.0075392784
49	0xbdc568f0	-0.09639156
50	0x3dfa719a	0.12228699
51	0x3e0822e2	0.13294557
52	0xbccce550	-0.025011688
53	0x3dfca488	0.12336069
54	0xbc9a14dd	-0.018808777
55	0x3d86ecc6	0.0658813
56	0x3d60f2bf	0.054919
57	0xbd88ea45	-0.06685308
58	0xbc17f087	-0.009273655
59	0x3e0e37f8	0.13888538
60	0xbd5e3eb5	-0.05425902
61	0x3e3426be	0.17592904
62	0x3e114c09	0.14189161
63	0xbda0e369	-0.07855875
64	0x3dd027d9	0.1016385
65	0x3df7f956	0.12108104
66	0x3db6a703	0.08918574
67	0xbd630f8f	-0.05543476
68	0x3d2ed3c7	0.042682435
69	0x3e0f4401	0.13990785
70	0x3bef8eef	0.00731074
71	0x3d2bd59c	0.04195176
72	0xbdbfbc7b	-0.09362122
73	0x3d23e583	0.0400138
74	0x3da27408	0.079322875
75	0x3dadd1d0	0.08487284
76	0xbd83878f	-0.0642234
77	0x3dab287b	0.083573304
78	0x3e1845f0	0.14870429
79	0xbe02f9e3	-0.12790637
80	0x3e344983	0.17606167
81	0x3db3a249	0.08771188
82	0xbe167642	-0.1469355
83	0x3b920494	0.004456112
84	0x3e30481d	0.17215009
85	0xbdec249a	-0.11530419
86	0x3dec78d1	0.115464814
87	0x3de7c699	0.11317176
88	0x3c22af9e	0.009929566
89	0x3db64c20	0.089012384
90	0xbdd57a32	-0.104236975
91	0xbde7835f	-0.11304354
92	0xbe075812	-0.1321719
93	0x3d90cfe8	0.07070905
94	0xbe24d88f	-0.16098236
95	0x3d802ee5	0.062589444
96	0xbda242c8	-0.07922894
97	0x3df301bc	0.11865565
98	0xbce6b61b	-0.028163007
99	0xbe454f3a	-0.19268504
100	0x3d2b0fdc	0.04176317
101	0xbc47bb54	-0.012190659
102	0xbd85b150	-0.0652796
103	0x3de10f3d	0.109892346
104	0xbd063e45	-0.03277423
105	0x3d34ef0d	0.04417329
106	0x3ccc5cf2	0.024946664
107	0xbdf75cfc	-0.12078282
108	0x3dcd5531	0.100260146
109	0xbdc3ace7	-0.09554463
110	0x3d2629ee	0.04056733
111	0xbe2537c1	-0.1613455
112	0xbd2d5895	-0.042320807
113	0xbde291f5	-0.11062995
114	0xbe0a7d57	-0.13524376
115	0xbd044b8c	-0.03229861
116	0x3d22dab4	0.039759353
117	0xbd8ff181	-0.07028485
118	0xbdb1ed7e	-0.08687876
119	0x3b5964ad	0.003317158
120	0xbddda2c1	-0.108220585
121	0xbd80d8dd	-0.062913634
122	0x3d9a6653	0.07539048
123	0x3d81d538	0.063394964
124	0x3df65525	0.12027959
125	0x3e241568	0.16023791
126	0x3d66fa91	0.056391302
127	0x3e016bb2	0.12638739
128	0x3dcd56b4	0.10026303
129	0xbde727c9	-0.11286885
130	0x3bc26966	0.0059329746
131	0xbd44ad56	-0.04801687
132	0x3e2dffd0	0.16992116
133	0x3dd195d6	0.10233657
134	0x3d167bc4	0.036739126
135	0x3e348812	0.17630032
136	0xbdaf304e	-0.08554135
137	0xbddb581e	-0.107101664
138	0x3b998683	0.0046852245
139	0x3e498ba6	0.19682178
140	0x3d01fe1e	0.031736486
141	0x3e2972b8	0.16547668
142	0xbe028a6f	-0.1274812
143	0xbd05e6a9	-0.032690678
144	0x3e2994c3	0.16560654
145	0x3d1da792	0.038489886
146	0xbd7e3e62	-0.06207121
147	0xbc4d86b3	-0.012544322
148	0x3db98ba4	0.090598375
149	0x3debb717	0.11509531
150	0x3e3def55	0.18548329
151	0x3def0c14	0.116722256
152	0x3e494498	0.19655073
153	0x3ac9f00f	0.0015406626
154	0x3e5381d1	0.2065499
155	0xbddfc3e6	-0.109260365
156	0x3d52377b	0.05132244
157	0xbc98ebef	-0.01866719
158	0xbd70a644	-0.058752313
159	0x3e3a7682	0.1820927

model.rnn.bias_hh_l0 f4 [160]
0	0xbda9c18b	-0.082888685
1	0x3c751cd2	0.014960485
2	0xbdb899fc	-0.09013745
3	0xbdaa9de6	-0.08330898
4	0xbc408cce	-0.01175232
5	0xbdb35e7d	-0.087582566
6	0xbb31991e	-0.0027099322
7	0x3d7895cd	0.060689736
8	0xbde90d2e	-0.11379467
9	0x3dfa7f60	0.12231326
10	0x3d4f4690	0.050604403
11	0xbd2a7472	-0.041614957
12	0x3ca8e60c	0.020617507
13	0xbd2a53a0	-0.041583657
14	0xbdce8317	-0.10083597
15	0xbdd1ff98	-0.10253829
16	0xbe0470ad	-0.12933607
17	0x3db65880	0.08903599
18	0x3e400e0e	0.18755361
19	0x3d8e9c11	0.06963361
20	0x3e237d91	0.15965869
21	0xbd754713	-0.059882235
22	0x3d66ce0f	0.056348857
23	0xbe04897b	-0.1294307
24	0x3d9f1bb1	0.077689536
25	0xbde6fb91	-0.11278451
26	0xbde74445	-0.11292318
27	0xbdc1d111	-0.094637044
28	0x3c0454a4	0.0080768205
29	0xbde18a6c	-0.1101273
30	0x3e5229f1	0.20523812
31	0xbc9e6b73	-0.019338345
32	0x3e28d39a	0.1648697
33	0x3d5ad4a9	0.053425465
34	0xbbb2b4a5	-0.0054536634
35	0xbda3c0a6	-0.07995729
36	0x3e32d34a	0.17463413
37	0xbd8024fa	-0.06257053
38	0xbd207de5	-0.039182562
39	0xbdb5f05b	-0.08883735
40	0xbdf52e8d	-0.119717695
41	0x3c64cf0e	0.013965381
42	0xbddc0185	-0.10742477
43	0x3dcd8d2a	0.100366905
44	0xbd26ff77	-0.040770974
45	0x3e1fb91b	0.15597956
46	0xbda44271	-0.08020485
47	0xbce786d2	-0.02826253
48	0x3d0db6a4	0.034598008
49	0xbd967e0a	-0.07348259
50	0xbbb2706d	-0.005445531
51	0x3d533b9f	0.05157053
52	0xbdcef780	-0.10105801
53	0x3dc2784e	0.094956025
54	0x3c86d9bf	0.016461251
55	0x3dc8366c	0.09776005
56	0xbdf247c2	-0.11830093
57	0x3d5ce37d	0.053927887
58	0xbabac1e5	-0.0014248459
59	0x3dfad03b	0.12246748
60	0x3e17f6b4	0.14840204
61	0x3ca646c7	0.020297421
62	0xbdb67e89	-0.089108534
63	0x3da73f28	0.08166343
64	0xbd323753	-0.043509793
65	0x3d8c4135	0.06848375
66	0x3e39241d	0.18080182
67	0xbd9188f3	-0.07106199
68	0x3dc339c0	0.09532499
69	0x3d19d307	0.037554767
70	0x3d2914f5	0.04127975
71	0x3d9b94ae	0.07596718
72	0xbd2ff18c	-0.042954966
73	0x3e0511cb	0.12995069
74	0x3e0401b6	0.12891278
75	0xbe061c72	-0.13096789
76	0x3d565163	0.05232371
77	0x3dc15d86	0.09441666
78	0x3e540b0d	0.2070734
79	0x3d0d63a7	0.034518864
80	0x3d287058	0.041122764
81	0x3e195807	0.14974986
82	0x3dc6ad77	0.097010545
83	0xbd7cbaad	-0.061701465
84	0x3c97d42c	0.018533789
85	0xbd035057	-0.03205904
86	0x3e31410d	0.17309971
87	0x3d312141	0.043244604
88	0xbd0748e2	-0.03302849
89	0xbda5b6c0	-0.080914974
90	0xbd20576c	-0.039145872
91	0xbe004941	-0.12527944
92	0xbd4675a6	-0.048452042
93	0xbd7afa34	-0.06127377
94	0x3d76f352	0.060290642
95	0x3deeea9c	0.11665842
96	0xbd392869	-0.045204554
97	0xbdb828e5	-0.08992175
98	0xbd77a40c	-0.06045918
99	0x3ca91152	0.020638142
100	0xbe1d17ec	-0.15341157
101	0x3d188823	0.037239205
102	0xbdaebfb1	-0.08532656
103	0xbda2c498	-0.079476535
104	0x3d2bec07	0.04197314
105	0x3e099e71	0.13439347
106	0x3dd7f0e8	0.10543996
107	0x3dfef084	0.124482185
108	0xbd920748	-0.07130295
109	0x3e19c44f	0.15016292
110	0x3daba72f	0.08381497
111	0xbd5a4690	-0.05328995
112	0xbdc12dae	-0.09432541
113	0xbdd821ae	-0.10553299
114	0xbe3bc89e	-0.18338248
115	0xbcc55b49	-0.02409138
116	0x3c518594	0.012788195
117	0x3d198d84	0.037488475
118	0xbe476751	-0.19473006
119	0x3dbf358f	0.09336387
120	0x3ccbd05f	0.024879633
121	0xbd85d781	-0.06535245
122	0x3dc41c63	0.09575727
123	0xbdbb1b73	-0.09136095
124	0x3d92b582	0.07163526
125	0x3e291884	0.16513258
126	0x3e257d03	0.1616097
127	0x3e13731c	0.1439938
128	0x3e30c552	0.17262772
129	0x3e165e30	0.14684367
130	0xbdff3568	-0.12461358
131	0xbbfa2289	-0.0076335114
132	0x3c887079	0.016655194
133	0x3c048126	0.008087432
134	0xbd8e7ea4	-0.069577485
135	0xbd16bad9	-0.036799286
136	0x3dc9b860	0.0984962
137	0xbde86f4b	-0.113493524
138	0x3d1a2f06	0.0376425
139	0xbcf8b50e	-0.030359771
140	0xbd3c96f1	-0.046042386
141	0xbdb5f127	-0.08883887
142	0xbcde935a	-0.027169872
143	0xbd3178e6	-0.04332819
144	0x3d2147f8	0.039375275
145	0xbd4dee21	-0.050275926
146	0x3d10c101	0.035340313
147	0x3e0589e7	0.13040887
148	0x3d5065f5	0.050878484
149	0x3d9ffcc5	0.07811884
150	0xbd92fab0	-0.07176721
151	0x3df8ac9a	0.12142296
152	0x3dfa4942	0.12221004
153	0x3deb5d15	0.11492363
154	0x3da558e2	0.08073594
155	0x3e2d8dfd	0.16948695
156	0xbd8e9bad	-0.069632865
157	0x3e441de7	0.19152032
158	0x3e2c298a	0.16812721
159	0x3d01eac6	0.031718038

model.rnn.weight_ih_l1 f4 [160, 40]
0	0xbd6770c0	-0.05650401
1	0xbdb01973	-0.08598604
2	0x3cdd580e	0.027019527
3	0x3d8f3ff3	0.06994619
4	0xbe1ab88d	-0.15109463
5	0xbe0420eb	-0.12903182
6	0x3d7df12a	0.06199757
7	0x3d96fb7c	0.073721856
8	0x3de266af	0.110547416
9	0xbd42f303	-0.047595035
10	0xbcb953c1	-0.022622945
11	0x3df59aa7	0.11992388
12	0xbe16c7ad	-0.14724608
13	0xbd715e27	-0.05892768
14	0xbdfcd829	-0.12345917
15	0xbd3efe6b	-0.04662935
16	0xbe28c3e0	-0.1648097
17	0x3d2ec9e6	0.042673014
18	0x3cca4f5f	0.02469605
19	0xbd144e19	-0.036207292
20	0x3d80093e	0.06251763
21	0x3d8c14c1	0.06839896
22	0x3dbe6be4	0.09297922
23	0xbd7a3bf4	-0.061092332
24	0x3dcdc437	0.10047191
25	0x3d985d25	0.07439641
26	0xbdded77b	-0.108809434
27	0xbc667fca	-0.014068553
28	0xbe158bb8	-0.1460408
29	0xbe160a2a	-0.14652315
30	0xbd7810db	-0.06056295
31	0xbdb0ae52	-0.08626999
32	0xbe004819	-0.12527503
33	0x3b884253	0.004158297
34	0xbdf4e49e	-0.11957668
35	0x3c9f1008	0.019416824
36	0xbe0aa458	-0.13539255
37	0x3cb21f47	0.02174343
38	0x3d97f31e	0.07419418
39	0xbe0dc72c	-0.1384551
40	0x3d394d03	0.04523946
41	0x3cd8deed	0.026473487
42	0x3dce6bfc	0.1007919
43	0x3d9b7b63	0.075918935
44	0xbdef6fc6	-0.11691241
45	0x39e84445	0.00044301353
46	0x3cc118a8	0.023571327
47	0xbdff78a4	-0.12474182
48	0x3c244474	0.010026086
49	0xbda005b3	-0.07813587
50	0x3dc74e0b	0.097316824
51	0xbc9b2897	-0.018940253
52	0xbdab9b65	-0.083792485
53	0xbbba2832	-0.005681061
54	0xbda608f7	-0.08107179
55	0xbda0c8e3	-0.07850816
56	0xbca1d1b5	-0.019753316
57	0x3cd31f34	0.025771715
58	0xbd0357a5	-0.032066006
59	0xbcbdac80	-0.023153543
60	0x3cf836b1	0.030299516
61	0xbdf5e047	-0.12005668
62	0xbb70a415	-0.0036718894
63	0xbcb257ec	-0.02177044
64	0xbd2bb92e	-0.041924648
65	0x3e2c4bb8	0.1682576
66	0xbe0805f8	-0.13283527
67	0x3e238395	0.15968163
68	0xbd0f1222	-0.034929402
69	0x3e28398d	0.16428204
70	0xbe090d5d	-0.13384004
71	0x3dfe1c28	0.12407714
72	0xbc65c90b	-0.014024983
73	0xbc725c4d	-0.014792514
74	0xbc881c30	-0.016615003
75	0x3dc0064a	0.093761995
76	0x3e253c1b	0.1613621
77	0x3daa359c	0.083110064
78	0xbdfa97a2	-0.12235953
79	0x3dbba32b	0.09161981
80	0x3dda086e	0.10646139
81	0xbe029df4	-0.12755567
82	0xbde126f9	-0.109937616
83	0xbdc158c7	-0.09440761
84	0xbd3fb824	-0.04680647
85	0x3d5adef6	0.05343529
86	0xbd31aa7b	-0.043375473
87	0x3d5c5d67	0.053800013
88	0xbe67c57d	-0.2263393
89	0x3e03440b	0.12818925
90	0x3ad37bbd	0.0016134899
91	0xbdb6d3b1	-0.08927096
92	0x3df6bccb	0.12047728
93	0x3e1d19a3	0.15341811
94	0xbdd75f66	-0.10516243
95	0xbc1f6489	-0.009728559
96	0x3d98d7dc	0.07463047
97	0x3cbce194	0.023056783
98	0xbd84bd0d	-0.06481371
99	0xbda92112	-0.08258261
100	0x3d822297	0.06354254
101	0xbe01128f	-0.12604736
102	0xbda34201	-0.079715736
103	0x3d843ae8	0.06456548
104	0xbd03b6bd	-0.032156695
105	0xbdcb79f2	-0.099353686
106	0x3d7cd24a	0.061723985
107	0x3e0c7d7a	0.1371974
108	0x3e0d7950	0.13815808
109	0xbd327e5b	-0.043577533
110	0xbdbf1726	-0.09330587
111	0x3d6ed2c6	0.058306478
112	0xbbc91210	-0.0061361864
113	0xbb5b2f83	-0.0033445067
114	0x3c50fb29	0.012755194
115	0x3e250b41	0.16117574
116	0x3d055e50	0.032560647
117	0x3e0a2df3	0.1349409
118	0x3d6f719d	0.05845796
119	0xbd8b8c96	-0.06813924
120	0xbd5bb217	-0.053636637
121	0x3a12718b	0.0005586377
122	0x3cf581b1	0.029969068
123	0xbd5c0b31	-0.05372161
124	0xbda82e6a	-0.08211978
125	0x3b8f73e3	0.0043778284
126	0x3dd7b0c4	0.10531762
127	0xbc7a1fbb	-0.015266354
128	0xbd5c5a0b	-0.05379681
129	0xbc9e2506	-0.019304764
130	0x3dfb395e	0.12266801
131	0x3dc40a96	0.095723316
132	0x3ced5d0d	0.028975034
133	0x3dc0c85a	0.09413214
134	0xbe2485e6	-0.16066703
135	0xbdd02992	-0.10164179
136	0xbcac4a7b	-0.021031609
137	0x3bdec3e7	0.0067982557
138	0x3c614b48	0.013750859
139	0x3ca40dcd	0.020026112
140	0xbe0cfa1e	-0.13767287
141	0x3d821548	0.06351715
142	0x3de8b600	0.11362839
143	0x3e22b17c	0.15888017
144	0x3e09fe7c	0.13475984
145	0x3e227c38	0.15867698
146	0x3da7e50d	0.08197985
147	0x3dec5ff6	0.115417406
148	0xbdf4c550	-0.11951697
149	0xbd4ae8e3	-0.049538504
150	0xbe0f034a	-0.13966098
151	0xbd9a5973	-0.07536592
152	0x3e047a1b	0.12937205
153	0xbc5aaee5	-0.013347362
154	0xbe1ad812	-0.15121487
155	0xbddcf177	-0.10788243
156	0x3df22271	0.118229754
157	0x3df0c448	0.11756188
158	0xbde5f91c	-0.112291545
159	0xbbaf0c2d	-0.0053420276
160	0xbbc60507	-0.00604308
161	0x3d2b3fc9	0.041808877
162	0xbc2d1f8e	-0.010566605
163	0x3d8f669f	0.07001995
164	0xbcedb471	-0.029016705
165	0xbdd88e33	-0.10573997
166	0xbd738ece	-0.05946236
167	0x3c3a4042	0.011367859
168	0x3e70f811	0.2353213
169	0xbbbf513b	-0.005838541
170	0x3d3436e5	0.043997664
171	0x3cb28a1c	0.021794371
172	0xbd54fb8f	-0.051997717
173	0xbd88e07e	-0.066834435
174	0xbd3b326f	-0.045702394
175	0x3dd2ee49	0.102993555
176	0x3e2ba8f8	0.16763675
177	0xbdc99136	-0.0984215
178	0x3d54c770	0.05194801
179	0xbd383f61	-0.044982318
180	0x3c995577	0.01871751
181	0x3dbdc4b1	0.092660315
182	0xbdf2d922	-0.11857821
183	0x3d84f4be	0.06491993
184	0x3db18d23	0.08669498
185	0xbe0ae907	-0.13565455
186	0x3cca13d3	0.024667656
187	0xbe8527cd	-0.26006928
188	0x3ddc2a3e	0.107502446
189	0xbe182298	-0.14856946
190	0x3c58e55a	0.013238275
191	0x3ce3fa2b	0.02782925
192	0x3d9599f9	0.073047586
193	0x3de8de90	0.113705754
194	0x3cb81951	0.02247301
195	0x3d738217	0.059450235
196	0x3e05385e	0.13009784
197	0x3dd63458	0.104592025
198	0x3d2c20a3	0.042023312
199	0xbdfe20e5	-0.12408618
200	0xbdc1a889	-0.09455974
201	0x3db975df	0.09055685
202	0x3e0a4a2a	0.13504854
203	0xbe0b1f27	-0.13586102
204	0x3d873d69	0.0660351
205	0xbd1e2963	-0.03861369
206	0xbe182fb4	-0.14861947
207	0x3df2d515	0.118570484
208	0xbd506fee	-0.050887994
209	0x3da0f09f	0.07858395
210	0xbcc9c5d2	-0.02463046
211	0x3dc3a560	0.09553027
212	0xbd6f33e9	-0.058399115
213	0x3d2f397f	0.042779442
214	0x3e15b861	0.14621116
215	0x3b27ce00	0.0025604963
216	0x3ca82395	0.02052478
217	0xbe04ec0f	-0.12980674
218	0xbdd81e8c	-0.10552701
219	0x3e23ac8b	0.15983789
220	0x3d4cedf1	0.050031606
221	0xbd008304	-0.031374946
222	0xbde1cad3	-0.11025014
223	0x3d5be68c	0.053686664
224	0x3d825a8c	0.06364927
225	0xbdaca39d	-0.08429644
226	0xbde64c9a	-0.11245079
227	0x3dd76030	0.10516393
228	0x3d5053bf	0.050861116
229	0x3e00b30b	0.125683
230	0x3defc86c	0.11708149
231	0x3d89d426	0.06729917
232	0x3d6e3165	0.058152575
233	0xbc838056	-0.016052406
234	0x3d6e0cfc	0.05811785
235	0x3dfcde5d	0.123471
236	0xbdcaea12	-0.099079266
237	0xbe0999c5	-0.13437565
238	0x3dde8132	0.10864486
239	0x3de40db6	0.11135428
240	0x3e15d63f	0.1463251
241	0x3db4adb1	0.088221915
242	0x3db07a4d	0.08617077
243	0xbdedc9af	-0.11610734
244	0x3d4263d9	0.047458503
245	0xbda653fb	-0.08121487
246	0xbdf806be	-0.12110661
247	0x3e1accf2	0.15117243
248	0xbc40e06a	-0.0117722545
249	0x3d72bfeb	0.05926506
250	0x3cfa1a8a	0.030530233
251	0x3d4b8bc5	0.04969384
252	0x3dcfda5f	0.10149073
253	0xbd4f3656	-0.05058893
254	0x3e095a20	0.13413286
255	0x3d6376d9	0.055533264

model.rnn.weight_hh_l1 f4 [160, 40]
0	0xba6910e8	-0.0008890764
1	0xbe12d264	-0.1433807
2	0x3dc56142	0.09637691
3	0x3d1b1276	0.037859403
4	0xbc216205	-0.00985003
5	0xbe24cb63	-0.16093211
6	0x3cfc0032	0.030761812
7	0x3db9158c	0.09037313
8	0x3ddd6c2b	0.10811647
9	0x3d8e624f	0.069523446
10	0x3d1f915b	0.03895698
11	0x3d594182	0.05304099
12	0x3c1369e8	0.008997418
13	0xbc1dcf47	-0.009631938
14	0xbe342253	-0.17591219
15	0xbd8bc90f	-0.06825458
16	0x3dc45bb3	0.09587803
17	0xbda822ce	-0.082097635
18	0xbdd1bbb1	-0.102408774
19	0x3d223f9f	0.039611455
20	0x3d80b85f	0.06285166
21	0x3d068fdb	0.032852035
22	0x3dad3afe	0.084585175
23	0x3e161acc	0.1465866
24	0x3e08fc3e	0.13377473
25	0x3d849369	0.06473429
26	0x3d108696	0.0352846
27	0xbe134b84	-0.14384276
28	0xbe057b11	-0.13035227
29	0xbca3af24	-0.019980974
30	0x3e172248	0.14759171
31	0xbdc5a203	-0.09650042
32	0xbd8f2de5	-0.069911756
33	0xbbd9b404	-0.006643774
34	0x3dd028c0	0.101640224
35	0x3c266cbe	0.010157762
36	0xbcc94fb6	-0.024574142
37	0x3dddd869	0.108322926
38	0xbdebd922	-0.11516024
39	0x3d60cea9	0.054884586
40	0xbe2b345c	-0.16719192
41	0x3d56d8e2	0.05245293
42	0xbd77503a	-0.060379244
43	0xbe17a753	-0.14809923
44	0xbd9d8b26	-0.07692556
45	0x3de3ffa3	0.11132743
46	0xbc6aaf58	-0.014324032
47	0xbdb3e330	-0.08783567
48	0x3e03a6fe	0.12856671
49	0x3e2d046c	0.16896218
50	0x3ca94fa6	0.020667862
51	0x3ce9a385	0.028520355
52	0x3d38ca5f	0.04511487
53	0xbd74faa2	-0.059809335
54	0xbdc9fd8d	-0.09862814
55	0xbd2ab4e2	-0.04167641
56	0xbd8561f8	-0.06512827
57	0x3c4f41b9	0.012649947
58	0xbcdbcdcc	-0.02683153
59	0x3de12ac2	0.109944835
60	0x3d5028c3	0.050820123
61	0xbd9a341b	-0.075294696
62	0x3c81d38e	0.015847947
63	0x3e1645a5	0.14675005
64	0x3d07d7a6	0.033164643
65	0xbda0169f	-0.07816815
66	0x3dc46e79	0.095913835
67	0xbd981013	-0.07424941
68	0xbd96a9fc	-0.07356641
69	0xbd16cf2d	-0.036818672
70	0xbd7c2645	-0.061559934
71	0xbe1201b0	-0.14258456
72	0x3e246073	0.16052417
73	0xbd2b4cb8	-0.04182121
74	0xbd1b90f4	-0.037980035
75	0x3dc1d915	0.09465233
76	0x3bb7a620	0.0056045204
77	0xbd689c64	-0.05678977
78	0xbd2415e5	-0.040059943
79	0x3dd48789	0.10377414
80	0xbdf6f7f7	-0.12059014
81	0x3d910353	0.07080712
82	0x3cb62153	0.022232687
83	0x3e0f8ea0	0.14019251
84	0xbdeb8cf6	-0.115014955
85	0x3d514f61	0.051101092
86	0xbdf6333a	-0.120214894
87	0xbd20b08a	-0.03923086
88	0xbc9de35b	-0.01927345
89	0xbcd6a8bc	-0.026203506
90	0xbd7aa125	-0.061188836
91	0xbd608276	-0.054811917
92	0x3d6d42ae	0.05792492
93	0xbc9459b4	-0.01810918
94	0xbd3c6ae0	-0.04600036
95	0x3e013897	0.12619244
96	0xbe17d9a2	-0.14829114
97	0x3dcd6055	0.100281395
98	0xbe124db4	-0.14287454
99	0xba1d8679	-0.00060091127
100	0x3bc663b7	0.0060543674
101	0xbcb3438a	-0.021882791
102	0x3cd20801	0.025638582
103	0x3c46b6a6	0.012128508
104	0x3df7851f	0.12085938
105	0x3da681e7	0.08130246
106	0x3dfbb138	0.12289661
107	0x3dc26e0e	0.094936475
108	0xbde1383b	-0.10997053
109	0xbe00a21e	-0.12561843
110	0xbd758ea6	-0.059950493
111	0xbd442e67	-0.047895815
112	0x3d06942a	0.032856144
113	0x3dbc351b	0.091898166
114	0xbe12b797	-0.14327846
115	0xbdc913cd	-0.0981823
116	0xbe1774f7	-0.14790712
117	0x3c585dac	0.013205927
118	0x3db0c26e	0.086308345
119	0x3d3c5597	0.045980062
120	0xbd9365ec	-0.071971744
121	0xbe1a98f6	-0.15097412
122	0xbccefde8	-0.025267556
123	0x3d3a1cda	0.04543767
124	0xbdbb7059	-0.09152288
125	0x3dd1d734	0.10246125
126	0x3db2562d	0.08707843
127	0xbcbdf436	-0.023187738
128	0xbc2565f3	-0.010095107
129	0x3d999e4f	0.07500898
130	0x3d980bb1	0.07424105
131	0x3d0da904	0.034585014
132	0xbd08158a	-0.033223666
133	0xbe1a8558	-0.15089929
134	0xbdcf15c3	-0.101115726
135	0x3ccf2240	0.025284886
136	0xbe0d0b55	-0.13773854
137	0xba1f7fca	-0.00060844107
138	0x3e0ca961	0.13736488
139	0xbbeb5a7e	-0.0071824184
140	0x3c6ba4a8	0.014382519
141	0xbdac8124	-0.08423069
142	0x3ce3d564	0.027811714
143	0xbc25a34f	-0.010109737
144	0x3cd0ae8d	0.025473857
145	0xbd889fef	-0.0667113
146	0x3e118684	0.1421147
147	0x3c3e5680	0.011617303
148	0x3db9c62d	0.09071002
149	0xbe104f9c	-0.14092869
150	0x3dfe5537	0.12418597
151	0x3d8dc5e0	0.06922507
152	0xbab31a90	-0.0013664532
153	0x3da9fe58	0.08300465
154	0xbd2f32b9	-0.042772982
155	0xbc0fdf8d	-0.008781326
156	0xbd6147e6	-0.05500021
157	0x3da33faa	0.07971127
158	0x3b0b9148	0.0021296311
159	0x3ccd036b	0.025026044
160	0x3d8013bb	0.06253763
161	0x3d669561	0.056294803
162	0x3e1a7c49	0.15086474
163	0xbe2056ef	-0.15658163
164	0x3d5a9d43	0.053372633
165	0xba89711b	-0.0010485979
166	0xbd42ca53	-0.047556233
167	0x3d466db7	0.048444476
168	0x3e0e3e14	0.13890868
169	0x3cc7d8f1	0.024395438
170	0x3e17b943	0.14816765
171	0xbdc2837a	-0.094977334
172	0xbd9511e4	-0.07278803
173	0x3da02317	0.07819193
174	0x3d9001db	0.07031604
175	0x3d6d8223	0.057985436
176	0xbe03420e	-0.12818167
177	0x3d6f82c9	0.058474336
178	0xbb89c8f9	-0.004204866
179	0xbcb5d60a	-0.022196788
180	0x3da6df7f	0.08148097
181	0xbde32607	-0.110912375
182	0xbe29f982	-0.16599086
183	0xbe165d20	-0.14683962
184	0xbe00fa83	-0.12595563
185	0x3b59a9c6	0.0033212765
186	0x3c850c9e	0.016241368
187	0x3dd83087	0.10556131
188	0xbd33f3b0	-0.04393357
189	0xbd48f9e0	-0.049066424
190	0x3de89923	0.113573335
191	0xbe1dcf4a	-0.15411106
192	0xbe0b99bd	-0.13632865
193	0x3e04ab8e	0.12956068
194	0x3b809200	0.0039236546
195	0x3dc65f1c	0.096861094
196	0x3e08f9c5	0.1337653
197	0xbcc7ebbe	-0.024404403
198	0x3d0d1599	0.034444425
199	0x3dbee144	0.0932031
200	0x3de00086	0.109376
201	0x3dac083c	0.08400008
202	0xbc0231c7	-0.007946438
203	0x3d2cbf3a	0.042174555
204	0xbdf34588	-0.118784964
205	0x3e130608	0.1435777
206	0x3d7b90cb	0.061417382
207	0xbda5637e	-0.08075617
208	0x3c949687	0.018138183
209	0x3e10e02b	0.14148013
210	0xbd9fecaf	-0.07808816
211	0x3d982682	0.0742922
212	0xbe0a4064	-0.13501126
213	0x3df80601	0.1211052
214	0x3cb72237	0.022355182
215	0xbe057ea5	-0.13036592
216	0x3ddea8d9	0.10872049
217	0xbac29648	-0.0014845813
218	0xbcb357f3	-0.021892523
219	0xbc91d5ce	-0.017802145
220	0x3c8cd608	0.017191902
221	0x3da21ae6	0.07915287
222	0xbe00fc32	-0.12596205
223	0x3d940b26	0.07228689
224	0x3ce72005	0.02821351
225	0xbd2c1a14	-0.042017058
226	0x3de408f4	0.1113452
227	0xbaa9cccb	-0.001295471
228	0xbde3fb7f	-0.111319534
229	0x3dccb362	0.09995152
230	0xbda0cc51	-0.0785147
231	0x3df6f92f	0.12059247
232	0x3ccdadc0	0.025107265
233	0x3d83984e	0.06425534
234	0xbe2dd40f	-0.16975425
235	0xbe1d3a64	-0.15354306
236	0xbd06d79c	-0.032920465
237	0xbe077b0b	-0.13230531
238	0x3dad912c	0.08474955
239	0x3dd239d0	0.10264933
240	0xbc411edf	-0.011787145
241	0x3e0caa35	0.13736804
242	0xbe11052d	-0.1416213
243	0xbdf21970	-0.11821258
244	0x3e2739bd	0.16330619
245	0x3de813c0	0.11331892
246	0x3b9fa8cb	0.0048724166
247	0x3e17e9fc	0.14835352
248	0x3db4e50d	0.088327505
249	0x3c12a472	0.00895034
250	0xbd641ba3	-0.05569042
251	0x3d8e8b9d	0.06960223
252	0x3cef36f1	0.029201003
253	0x3db711e6	0.08938961
254	0x3df0a69d	0.11750529
255	0xbb8c5e9b	-0.004283739

model.rnn.bias_ih_l1 f4 [160]
0	0x3d02091d	0.031746972
1	0x3e37b428	0.17939818
2	0xbcead991	-0.028668197
3	0xbc50a580	-0.012734771
4	0x3d831af5	0.06401626
5	0xbda8d39c	-0.08243486
6	0x3de3f391	0.11130441
7	0xbdec523c	-0.115391225
8	0xbded0f88	-0.11575228
9	0x3e0cbc7a	0.13743773
10	0x3e50e4d7	0.20399795
11	0xbca53033	-0.020164585
12	0xbdd6a452	-0.1048056
13	0xbce559e2	-0.027996961
14	0xbd7676f0	-0.06017202
15	0x3de8d36b	0.1136845
16	0xbdac9e65	-0.08428649
17	0xbdd423be	-0.1035838
18	0x3dd39abd	0.10332248
19	0x3c9bb096	0.019005101
20	0x3d0220f9	0.031769726
21	0x3e21bcbc	0.15794653
22	0xbda43ea6	-0.08019762
23	0x3dd1f497	0.1025173
24	0x3e05105e	0.12994525
25	0x3db3667e	0.08759783
26	0xbe306118	-0.17224538
27	0xbb87ec12	-0.004148015
28	0x3d83238e	0.06403266
29	0xbd36f860	-0.044670463
30	0xbc50bb42	-0.012739958
31	0x3d613266	0.054979704
32	0x399ef2ab	0.0003031691
33	0x3e15bfca	0.14623943
34	0xbdb05c15	-0.08611313
35	0x3d3b233c	0.0456879
36	0x3e1a96e7	0.15096627
37	0x3e1ac08b	0.15112512
38	0xba62322d	-0.00086286926
39	0xbdc29137	-0.09500354
40	0x3d6d4119	0.05792341
41	0x3d0c82c6	0.034304403
42	0xbde97051	-0.11398376
43	0xbbc9a13c	-0.006153254
44	0xbe236505	-0.15956505
45	0xbdaf554d	-0.08561192
46	0x3c6221e7	0.013802028
47	0x3d106f5f	0.03526246
48	0x3e15d462	0.14631799
49	0xbd561d9d	-0.052274335
50	0x3e2687ee	0.1626279
51	0x3c6e01ae	0.014526768
52	0x3adff1f0	0.0017085653
53	0x3b9b494c	0.0047389623
54	0xbca60fb9	-0.020271169
55	0xbd558b88	-0.05213502
56	0xbc9921fd	-0.018692965
57	0x3e1b32ea	0.15156141
58	0xbe0e8a4e	-0.13919947
59	0x3d36d6c5	0.044638414
60	0xbdd5c997	-0.10438841
61	0x3c2af2cb	0.010433863
62	0x3cf21b17	0.029553933
63	0x3d6a1de0	0.057157397
64	0xbd7d3573	-0.06181855
65	0x3e206114	0.15662032
66	0xbe1fa87e	-0.15591618
67	0x3d7b7164	0.061387435
68	0xbd99dd24	-0.07512882
69	0x3e1e8437	0.15480123
70	0x3e051b52	0.12998703
71	0xbb883dc2	-0.0041577527
72	0xbdd3f871	-0.10350121
73	0x3df72a27	0.12068587
74	0xbd20c8ef	-0.039254125
75	0xbc1e823d	-0.009674606
76	0xbdfef1e4	-0.12448481
77	0xbdd4f8e6	-0.10399036
78	0x3d59d764	0.053183928
79	0x3e0684ff	0.13136671
80	0x3d819d5f	0.06328844
81	0xbe048737	-0.12942205
82	0xbda7baff	-0.081899635
83	0x3d19028f	0.037355956
84	0x3dfa9d1c	0.122369975
85	0xbdbe259e	-0.09284519
86	0xbda143a9	-0.07874233
87	0x3e2e961c	0.1704945
88	0x3e1caa51	0.15299346
89	0x3c3fcc12	0.011706369
90	0x3da51f0a	0.08062561
91	0xbd48216e	-0.048860006
92	0x3dad1756	0.084517166
93	0x372d3581	1.0324061e-05
94	0xbe07efa1	-0.13275005
95	0xbd2404be	-0.040043585
96	0xbe3aa7d6	-0.18228087
97	0xbe1a3f90	-0.1506331
98	0xbdb247f8	-0.08705133
99	0xbdafce15	-0.08584229
100	0x3c8ac4c4	0.016939528
101	0xbd3e4e64	-0.046461478
102	0xbdab433d	-0.08362434
103	0x3d776423	0.060398232
104	0xbddd9f88	-0.10821444
105	0x3d0173a6	0.03160443
106	0xbe2ed80b	-0.17074601
107	0x3b8b113b	0.0042439974
108	0x3daef550	0.085428834
109	0x3dae8620	0.08521676
110	0x3e1e9a62	0.1548858
111	0x3e13f532	0.14449003
112	0x3e246792	0.16055134
113	0x3dc1a813	0.09455886
114	0x3d9d8601	0.07691575
115	0xbca43a71	-0.020047398
116	0xbdd9dcbc	-0.10637805
117	0x3d5648b1	0.052315418
118	0xbde7eb5a	-0.113241866
119	0xbcc7e5f4	-0.024401642
120	0x3d8e5c0d	0.06951151
121	0x3dfdd87b	0.12394806
122	0x3daba3e2	0.083808675
123	0x3c8bb8d4	0.017055906
124	0x3deda953	0.11604562
125	0xbe2fb1b8	-0.17157638
126	0x3c00bdc3	0.007857743
127	0x3daa16d8	0.08305138
128	0x3d30dc94	0.04317911
129	0x3d6ba0b8	0.05752632
130	0x3ddc5358	0.10758084
131	0xbd5bfd90	-0.053708613
132	0x3deb66a4	0.114941865
133	0xbda97821	-0.08274866
134	0x3caaf745	0.02086986
135	0x3de7dc84	0.11321357
136	0x3df76c62	0.12081219
137	0x3dc1b8ef	0.094591014
138	0xbc49ab70	-0.01230894
139	0x3d75f44b	0.06004743
140	0x3df2320d	0.11825953
141	0x3bdf3527	0.006811756
142	0xbd273bb1	-0.04082841
143	0xbc2e004e	-0.01062019
144	0x3c512b67	0.012766696
145	0x3df06ad4	0.11739126
146	0xbe3040af	-0.17212175
147	0x3dc56cfa	0.09639926
148	0xbd3840ad	-0.044983555
149	0x3e2a95d8	0.16658723
150	0x3db01aa7	0.085988335
151	0xbc8e21ad	-0.017350042
152	0x3d39d3ab	0.045367878
153	0x3e3f6e4d	0.1869442
154	0x3dcffc58	0.101555526
155	0x3dddb5c4	0.10825685
156	0x3dc6f9df	0.09715628
157	0x3e189f76	0.1490458
158	0x3dd6cd36	0.1048836
159	0x3da62ad8	0.081136405

model.rnn.bias_hh_l1 f4 [160]
0	0x3b9cf172	0.0047895247
1	0x3c863c5b	0.016386202
2	0x3d7b2553	0.061314892
3	0xbd6f41da	-0.05841241
4	0x3e09cb0e	0.13456365
5	0x3e0ed970	0.13950133
6	0x3dcb5293	0.09927859
7	0xbdd536b0	-0.104108214
8	0x3e0601a0	0.13086557
9	0xbe004a7e	-0.12528417
10	0x3e4f975b	0.20272581
11	0x3d7cc8a2	0.061714776
12	0x3e49e11a	0.19714776
13	0x3e0adf65	0.13561781
14	0xbd1c426d	-0.038149286
15	0x3e1c6f00	0.15276718
16	0x3e29769d	0.16549154
17	0x3d3df4e9	0.046376143
18	0x3c250811	0.010072724
19	0x3b006499	0.001959121
20	0x3d3e2725	0.04642405
21	0xbda897b7	-0.08232062
22	0xbdf20c08	-0.11818701
23	0x3d91c664	0.07117918
24	0x3df2e356	0.11859767
25	0x3ce9b2f8	0.028527722
26	0xbda91de2	-0.08257653
27	0xbbb8f618	-0.005644571
28	0x3cc917b8	0.024547443
29	0x3e1db9a8	0.15402853
30	0x3d628415	0.055301744
31	0x3e1d6a72	0.15372637
32	0x3dfde6c4	0.12397531
33	0x3e29d72c	0.16585988
34	0x3e0027bc	0.12515157
35	0x3d1a3faf	0.03765839
36	0xbdddba6a	-0.10826571
37	0xbdd2d3d3	-0.102943085
38	0x3e251ac1	0.16123487
39	0x3d63a8b2	0.055580802
40	0xbd82261f	-0.06354927
41	0xbcedbee8	-0.029021695
42	0xbcd8fb64	-0.02648706
43	0xbd9ae8b8	-0.07563919
44	0xbca76228	-0.020432547
45	0x3df714a7	0.12064486
46	0xbcf5e6b4	-0.030017234
47	0x3e2b0ee0	0.16704893
48	0x3d8e5c06	0.06951146
49	0x3e07817f	0.13232993
50	0xbdbea9b4	-0.09309712
51	0x3d7e313f	0.062058683
52	0xbdb2d294	-0.08731571
53	0xbd395319	-0.045245264
54	0x3df8304c	0.12118587
55	0xbdf68c6b	-0.12038501
56	0xbdb87a58	-0.0900771
57	0x3daae2c5	0.08344034
58	0x3d85c16a	0.065310314
59	0x3d1eebc2	0.038799055
60	0x3d694051	0.056946103
61	0x3e33e4b3	0.1756771
62	0x3e354e8d	0.17705746
63	0x3e235018	0.15948522
64	0x3c9b7e50	0.018981129
65	0x3d47f965	0.048821826
66	0xbdc5b99b	-0.09654542
67	0xbe1118b2	-0.14169577
68	0x3e098429	0.13429321
69	0x3e2c0f13	0.16802625
70	0x3d71be15	0.059019167
71	0xbe1bbda6	-0.15209064
72	0x3d8bc859	0.06825323
73	0x3e444768	0.19167864
74	0x3dd5eff9	0.10446162
75	0xbdb83135	-0.089937605
76	0x3d563954	0.052300766
77	0x3de42ccd	0.111413576
78	0x3d9c9c45	0.076469935
79	0xbd51e750	-0.051245987
80	0xbe2f691e	-0.17129943
81	0xbc0227c1	-0.007944048
82	0x3df90715	0.12159554
83	0xbd692f6d	-0.056929994
84	0x3d86cc21	0.06581903
85	0xbd8a7126	-0.067598626
86	0x3e12ef73	0.14349155
87	0x3bfa240d	0.007633692
88	0xbd17aad7	-0.03702816
89	0x3d812405	0.06305698
90	0x3d79fc58	0.06103167
91	0xbdb0aaa6	-0.086262986
92	0x3dc8d6e6	0.098066136
93	0xbd4346bf	-0.04767489
94	0xbd4d862c	-0.050176784
95	0xbdc92244	-0.09820989
96	0xbd2af1fc	-0.04173468
97	0xbe14c7ba	-0.14529315
98	0x3ddac2ef	0.10681712
99	0xbd100296	-0.035158716
100	0xbde5afce	-0.11215173
101	0x3dbd9ac0	0.09258032
102	0x3de0946c	0.10965809
103	0x3e1e054c	0.15431708
104	0xbe0e60eb	-0.13904159
105	0xbdb2cf0c	-0.08730897
106	0x3d9a4b09	0.07533843
107	0x3da33351	0.07968772
108	0x3de6f599	0.11277313
109	0x3df1134c	0.11771259
110	0x3e07ad65	0.13249739
111	0x3c38b8b4	0.011274505
112	0x3dfec2a5	0.12439469
113	0x3d5e3418	0.0542489
114	0x3dcdbbd1	0.10045589
115	0x3e00272a	0.1251494
116	0xbd97bcff	-0.07409095
117	0x3dff611f	0.12469696
118	0xbce46b95	-0.02788333
119	0xbcd244da	-0.025667597
120	0xbda6e5fc	-0.08149335
121	0x3e067001	0.13128664
122	0xbd9c7e29	-0.07641251
123	0x3d649ce6	0.055813693
124	0x3d089738	0.03334734
125	0xbc4176a9	-0.011808076
126	0x3e085c3c	0.13316435
127	0xbdde168e	-0.10844146
128	0x3b52f8aa	0.0032191672
129	0xbd9b1138	-0.075716436
130	0x3d8f072d	0.069837905
131	0x3e54fb40	0.2079897
132	0x3de94c76	0.11391537
133	0xbde9d085	-0.11416725
134	0xbd79a394	-0.060947016
135	0xbca090b6	-0.019600254
136	0x3dcea87f	0.10090732
137	0x3e4f0450	0.20216489
138	0x3e1b4459	0.15162791
139	0xbc2f96e2	-0.010717126
140	0x3cff0636	0.031130891
141	0x3d90855a	0.07056685
142	0x3dd528ca	0.104081705
143	0x3e36a172	0.17835024
144	0x3da7282f	0.08161961
145	0x3ce62202	0.028092388
146	0xbe28b2cd	-0.16474457
147	0xbe22f7e6	-0.15914878
148	0xbd4ee7a1	-0.050513867
149	0xbe10ea6c	-0.14151925
150	0x3d826c49	0.0636831
151	0xbe11a2ba	-0.14222232
152	0x3e03a278	0.12854946
153	0xbd5a566e	-0.053305082
154	0xbe13defe	-0.14440534
155	0x3e1b03d4	0.15138179
156	0x3dd63082	0.10458471
157	0x3c93d965	0.018047998
158	0x3d66cf36	0.056349955
159	0x3e5886ac	0.21145123
