MARTS/AutogluonModels/ag-20240820_232514/models/DeepAR/W0/gluon_ts/prediction-net-state.pt (torch, 109152 bytes, 11 tensors)

model.param_proj.proj.0.weight f4 [1, 40]
-0.015514276 -0.123476796 -0.26704088 -0.21511933 0.030626563 0.24167664 0.28033084 0.2906999
0.33503935 0.2600729 0.38523594 -0.12961178 0.64835656 -0.26354828 0.09063388 0.1099575
-0.13330227 -0.14101134 0.2703078 0.33696175 -0.33133352 -0.40201217 0.21299116 0.29639503
-0.13457482 0.32392648 0.061945107 0.11212401 -0.07689048 -0.05578631 0.2861408 0.11396414
0.23542222 0.37990206 -0.048645113 0.4096373 -0.17847075 0.17805077 0.10863672 -0.3201838
00000000: 972f 7ebc 67e1 fcbd 95b9 88be 3e48 5cbe
00000010: 8fe4 fa3c 157a 773e 8687 8f3e 9ed6 943e
00000020: 478a ab3e 4628 853e a53d c53e f3b8 04be
00000030: b2fa 253f cdef 86be 419e b93d 6631 e13d
00000040: 6480 08be 4765 10be c965 8a3e 4086 ac3e
00000050: 8ca4 a9be 8ad4 cdbe 5b1a 5a3e 17c1 973e
00000060: fbcd 09be b1d9 a53e 27ba 7d3d 46a1 e53d
00000070: c278 9dbd 3080 64bd 0c81 923e 0866 e93d
00000080: 8612 713e 8682 c23e 1940 47bd fbbb d13e
00000090: 09c1 36be f152 363e ee7c de3d 22ef a3be

model.param_proj.proj.1.weight f4 [1, 40]
-0.11179665 -0.092886046 0.0035322537 -0.058089744 -0.069496594 0.12660351 0.1115288 0.14675066
-0.0056888703 0.09620646 0.041934427 0.0035304439 0.0116057545 0.07893476 0.085642904 0.063487016
-0.09108515 -0.025186853 0.11319091 0.020324238 -0.0730009 -0.085126504 0.023288352 0.15603553
-0.0062646726 0.09233461 -0.015330087 -0.1250885 0.09074526 0.14613949 0.11447843 0.13034171
-0.043818835 0.05218288 0.09076761 -0.0540083 -0.06326159 -0.06027809 0.039447777 -0.034006625
00000000: a4f5 e4bd 0a3b bebd 627d 673b 83ef 6dbd
00000010: 3b54 8ebd 5aa4 013e 3669 e43d ce45 163e
00000020: b469 babb e407 c53d 6fc3 2b3d 055f 673b
00000030: 1026 3e3c 8ca8 a13d 8c65 af3d 7b05 823d
00000040: da8a babd a954 cebc a3d0 e73d 047f a63c
00000050: 7f81 95bd ce56 aebd 37c7 be3c c7c7 1f3e
00000060: e247 cdbb ee19 bd3d 0c2b 7bbc 3317 00be
00000070: a7d8 b93d 97a5 153e ab73 ea3d 4c78 053e
00000080: 617b 33bd b7bd 553d 5ee4 b93d cf37 5dbd
00000090: 4b8f 81bd 29e6 76bd fe93 213d 884a 0bbd

model.param_proj.proj.2.weight f4 [1, 40]
-0.10174572 0.08113284 0.013269466 0.26323706 -0.16019794 -0.036011256 -0.14712785 -0.07413543
-0.18504146 -0.25292024 -0.21289043 0.26334792 -0.1235844 0.22183031 0.026472008 -0.19183287
0.26642197 0.11380797 -0.24061401 -0.23661788 0.2058786 0.18949878 -0.038521565 -0.23254047
0.21214342 -0.064767465 0.02198128 -0.08553169 0.14571828 0.14017704 -0.053161416 0.050040275
-0.21392274 -0.12970522 0.011983278 -0.12775078 -0.020655809 -0.276036 -0.24904089 0.13521342
00000000: 0f60 d0bd f928 a63d 2d68 593c 02c7 863e
00000010: ee0a 24be 8a80 13bd afa8 16be 51d4 97bd
00000020: 827b 3dbe c37e 81be f3ff 59be 8ad5 863e
00000030: d119 fdbd 7c27 633e d3db d83c d66f 44be
00000040: 7668 883e 2714 e93d 8563 76be f54b 72be
00000050: d7d1 523e f80b 423e cac8 1dbd 171f 6ebe
00000060: 203c 593e cea4 84bd 1612 b43c 3d2b afbd
00000070: 2c37 153e 928a 0f3e c9bf 59bd 08f7 4c3d
00000080: 900e 5bbe 72d1 04be 8355 443c 1ad1 02be
00000090: 5f36 a9bc 9754 8dbe 9304 7fbe 6375 0a3e

model.rnn.weight_ih_l0 f4 [160, 37]
-0.026433168 -0.051947575 0.21366695 0.1232561 -0.010522026 0.20113339 0.059041545 0.03495298
0.20075807 0.09596995 0.10932249 0.19516045 -0.09246169 0.1882101 -0.013482074 0.020966137
-0.0649089 -0.020162582 0.10504952 -0.09619813 0.11010799 0.07509818 0.18329108 0.11867567
0.13307065 -0.05889005 0.14455174 -0.056981564 0.100514695 -0.10554429 0.057083454 -0.026805008
0.17723699 0.07868764 -0.18006971 -0.2523428 0.10767297 0.14863203 0.095429935 -0.079922765
-0.083607405 0.12984243 -0.085119374 0.016276123 -0.020301413 0.008323181 0.03826366 -0.07361754
-0.148924 0.008529784 0.011551764 0.121534586 0.0029103484 -0.022333058 0.09314581 0.053166706
0.10648239 -0.026944967 0.20387957 -0.049185224 0.09320414 0.063703746 0.19006811 0.22955288
0.13242322 0.020977337 0.05870175 -0.111796014 -0.027791036 -0.01080481 -0.24170025 -0.089747556
-0.03954136 0.07101963 0.11281976 0.114682324 0.15231311 0.027883377 -0.08926093 0.022824926
0.01464448 0.17300901 0.03811523 -0.117178455 -0.11368589 0.19115861 0.19451359 0.1487043
0.15324841 0.12149891 0.15897039 -0.015833007 -0.06231052 0.06533116 0.034236506 0.18838009
0.20402661 -0.09436862 -0.094761275 -0.05227815 -0.035714637 -0.11946633 -0.066849045 0.041210886
-0.14938053 -9.424913e-05 -0.03387768 0.047279086 -0.023990626 0.019880164 0.110807806 -0.03287414
0.01853443 0.081850484 -0.009072687 0.18438682 0.11680553 0.050035473 0.019329537 0.0673891
-0.06310782 -0.07983014 0.046980165 -0.14812575 -0.09079325 0.045855485 0.121553674 0.05408686
-0.14389105 -0.08651176 -0.13610128 0.11704905 -0.16641006 -0.03046958 -0.13926303 -0.02544376
-0.038173184 -0.024835369 0.119094834 -0.109649196 -0.092196845 -0.052615844 -0.0030772355 -0.15951811
0.3635568 -0.14083017 -0.3475185 0.13451973 0.09130933 0.10394039 -0.07805241 -0.08370297
-0.07285642 -0.09214297 0.053488348 -0.05981962 -0.06666787 -0.08745118 -0.044795424 -0.049880814
0.084687136 0.072983965 0.19435048 0.18214703 0.031931657 0.14278193 0.10778131 0.1466532
-0.017500633 0.18777604 0.16151324 0.082476 0.01349273 -0.12751085 0.10083061 0.090332165
-0.109267145 0.15517166 -0.10788188 0.02399948 0.10686532 -0.07863032 -0.15056418 -0.053550385
0.19739111 0.033440292 0.10769484 0.041652158 0.04752876 -0.12172317 0.11406222 -0.0026929108
-0.07891468 0.10234158 0.104821004 -0.038041398 0.15559919 -0.1506746 -0.103400916 -0.07586829
-0.048898578 -0.12915245 -0.11931451 0.123667344 0.13783935 0.068147115 0.22006223 0.042656932
0.22051355 0.15725671 -0.07093786 0.15019158 0.110430725 -0.08713629 0.08142925 0.12896335
-0.009354729 0.02675295 -0.05265984 -0.14336967 -0.048779186 0.084178284 -0.060040787 -0.04133603
0.009597266 -0.07556805 0.020907493 0.05891847 -0.06930211 -0.014696389 0.007711594 0.013248048
-0.01362604 0.011874136 -0.036850933 0.15980007 0.059658706 0.16112761 -0.06308829 0.18605943
0.16193873 -0.024206772 0.12284215 -0.049329557 -0.028759575 0.05250183 -0.03407443 -0.056265514
0.16632915 0.1759522 -0.022028565 0.013897953 -0.06940103 -0.028795835 0.022373268 -0.13332011
00000000: 5f8a d8bc fbc6 54bd 82cb 5a3e b26d fc3d
00000010: 9364 2cbc e9f5 4d3e 8cd5 713d db2a 0f3d
00000020: 8693 4d3e e58b c43d 78e4 df3d 24d8 473e
00000030: 8e5c bdbd 26ba 403e ebe3 5cbc 2dc1 ab3c
00000040: f5ee 84bd 002c a5bc 3424 d73d 8603 c5bd
00000050: 4c80 e13d 13cd 993d a8b0 3b3e 3b0c f33d
00000060: ac43 083e b136 71bd 5f05 143e 8065 69bd
00000070: a6da cd3d 9b27 d8bd 57d0 693d 2d96 dbbc
00000080: 9d7d 353e fc26 a13d 3264 38be 1333 81be
00000090: a583 dc3d ff32 183e c570 c33d 8cae a3bd
000000a0: 5c3a abbd 6af5 043e 1153 aebd 8155 853c
000000b0: 264f a6bc f45d 083c 5bba 1c3d cbc4 96bd
000000c0: 887f 18be 82c0 0b3c 9c43 3d3c 20e7 f83d
000000d0: 8bbb 3e3b d1f3 b6bc 3bc3 be3d 55c5 593d
000000e0: 7013 da3d b1bb dcbc cec5 503e 7276 49bd
000000f0: d0e1 be3d 1c77 823d 37a1 423e e90f 6b3e
00000100: f499 073e aad8 ab3c 3f71 703d 4ff5 e4bd
00000110: 07aa e3bc a806 31bc 4580 77be 91cd b7bd
00000120: 1ff6 21bd bd72 913d 0c0e e73d 91de ea3d
00000130: f8f7 1b3e ae6b e43c 6fce b6bd 57fb ba3c
00000140: 67ef 6f3c 4629 313e b71e 1c3d 42fb efbd
00000150: 26d4 e8bd 15bf 433e 922e 473e f145 183e
00000160: 27ed 1c3e 6cd4 f83d 22c9 223e 39b4 81bc
00000170: 5139 7fbd 58cc 853d 943b 0c3d b6e6 403e
00000180: 5aec 503e 5644 c1bd 3312 c2bd 9d21 56bd
00000190: 8349 12bd c3aa f4bd 27e8 88bd bfcc 283d
000001a0: 36f7 18be 9ea7 c5b8 52c3 0abd b7a7 413d
000001b0: fd87 c4bc badb a23c 34ef e23d 09a7 06bd
000001c0: 84d5 973c 3aa1 a73d 9ba5 14bc e6cf 3c3e
000001d0: bd37 ef3d fff1 4c3d fa58 9e3c 4c03 8a3d
000001e0: ac3e 81bd fc7d a3bd 466e 403d 47ae 17be
000001f0: d0f1 b9bd f6d2 3b3d 22f1 f83d 2f8a 5d3d
00000200: 2d58 13be 142d b1bd 225e 0bbe 6ab7 ef3d
00000210: 6667 2abe 579b f9bc f89a 0ebe 6f6f d0bc
00000220: 7c5b 1cbd 8b73 cbbc fee7 f33d c28f e0bd
00000230: b3d1 bcbd b683 57bd 72ab 49bb b758 23be
00000240: 1e24 ba3e c935 10be f2ed b1be 8abf 093e
00000250: 6300 bb3d b3de d43d f1d9 9fbd 766c abbd
00000260: bf35 95bd 74b5 bcbd 9916 5b3d 6b05 75bd
00000270: 2a89 88bd 9b19 b3bd 687b 37bd d34f 4cbd
00000280: 7370 ad3d 9e78 953d d003 473e c084 3a3e
00000290: c5ca 023d 6d35 123e 73bc dc3d 422c 163e
000002a0: 7d5d 8fbc 5d48 403e ba63 253e 2de9 a83d
000002b0: 9d10 5d3c 3492 02be 4780 ce3d 1200 b93d
000002c0: 74c7 dfbd 52e5 1e3e 2df1 dcbd 8f9a c43c
000002d0: 34dc da3d ef08 a1bd 7f2d 1abe a657 5bbd
000002e0: e520 4a3e b0f8 083d 1d8f dc3d 749b 2a3d
000002f0: 84ad 423d ff49 f9bd 7499 e93d 8c7b 30bb
00000300: 059e a1bd 7698 d13d 65ac d63d 4cd1 1bbd
00000310: 6555 1f3e 714a 1abe dcc3 d3bd d660 9bbd
00000320: e049 48bd 8a40 04be 2a5b f4bd 4e45 fd3d
00000330: c225 0d3e b790 8b3d fe57 613e 09b9 2e3d
00000340: 4ece 613e e707 213e de47 91bd d2cb 193e
00000350: 8129 e23d 8374 b2bd 61c4 a63d f80e 043e
00000360: 9444 19bc 0129 db3c d8b1 57bd 80cf 12be
00000370: afcc 47bd aa65 ac3d 54ed 75bd f84f 29bd
00000380: da3d 1d3c 6cc3 9abd 3146 ab3c 7e54 713d
00000390: 44ee 8dbd 20c9 70bc 8ab1 fc3b 570e 593c
000003a0: c13f 5fbc bc8b 423c 01f1 16bd a1a2 233e
000003b0: b05c 743d a3fe 243e 6f34 81bd 5d86 3e3e
000003c0: 44d3 253e 484d c6bc aa94 fb3d ca0d 4abd
000003d0: 3399 ebbc 290c 573d a191 0bbd ab76 66bd
000003e0: 3052 2a3e d02c 343e 4075 b4bc 3db4 633c
000003f0: 2122 8ebd 3ee5 ebbc 2548 b73c 1185 08be

model.rnn.weight_hh_l0 f4 [160, 40]
0.104049794 -0.036690872 -0.102544196 0.07876373 -0.10692661 0.0039866483 0.1641871 0.03973571
0.08138217 -0.019041669 -0.05490926 0.103514835 -0.13948333 -0.04958911 -0.10071608 -0.05113985
-0.038663182 0.016003102 0.03848645 -0.04790931 0.050447777 -0.04008973 -0.09913682 -0.102719195
0.09735106 0.01117655 -0.07853665 -0.055152252 0.17027356 0.03317979 0.22540496 -0.12645912
-0.10323778 -0.028232366 0.03352315 0.110124625 -0.08179938 0.13675223 -0.12332259 -0.078035
0.078271866 -0.116202064 -0.10967154 0.10937968 0.06370323 0.058758564 0.02417941 -0.053807367
0.028458968 0.04373096 -0.1348018 -0.06175407 0.07037082 -0.09139155 -0.016090686 -0.039738692
-0.08926829 -0.12187096 0.09501354 0.03169889 0.21074659 0.11115881 -0.20838028 0.064303614
0.1383895 -0.0072908816 0.042849965 -0.21931215 0.1550095 0.10553411 0.03297709 -0.06201109
0.119435884 0.13845773 0.013802533 -0.13611987 -0.15560824 -0.029885853 -0.11681007 -0.077091135
-0.094616786 -0.074313976 0.06276236 0.048835445 0.17534868 -0.07279976 0.0026093815 -0.067216
-0.013052989 -0.073393375 -0.068025514 0.0030168071 -0.07770876 0.0134128 -0.04210438 0.014806474
-0.11783878 -0.049803324 -0.052993733 0.06202836 0.14220783 -0.1115103 -0.1298614 0.11937821
0.010651099 -0.124413066 -0.11010137 0.1908044 -0.114372715 -0.10052459 0.14490172 0.13538505
-0.13094878 0.181708 0.04010433 -0.11106313 -0.005251502 -0.07747821 -0.051766522 -0.030483607
-0.0041627316 0.13239835 -0.11401332 -0.009809402 0.09858182 0.2575008 0.11155505 -0.12693448
0.023522101 0.17172824 0.0076716575 -0.0094341375 -0.12923212 -0.08973242 0.0013816104 -0.09868475
-0.10355807 0.010418354 -0.09384681 -0.14135352 0.108719245 0.10163338 -0.11530638 -0.1719067
0.008472286 -0.11718495 0.099261954 0.3597392 0.020142132 -0.11040642 -0.09900052 -0.02354353
0.078582935 0.101261534 -0.11739643 -0.09005045 0.0023167324 0.022003792 0.08117776 -0.06490434
0.1461092 0.010324496 -0.07131431 -0.024355037 0.039274976 0.0016087316 -0.094591856 0.1718258
0.06271359 -0.07941091 -0.03732468 -0.06503517 -0.20429733 0.20717078 0.0067820246 -0.06446597
0.0887091 0.15030599 -0.030997647 -0.15014523 0.03333458 -0.010189954 0.030084366 -0.040642943
0.053349063 -0.022789551 -0.093940236 -0.07428749 0.18578963 0.026046256 0.13166735 -0.24406318
0.029667675 0.15238696 -0.09193704 0.10380438 0.16288035 -0.04427333 -0.11168148 0.15501769
-0.065597445 0.18182597 -0.12527749 -0.06462144 -0.015381795 -0.11380247 0.20658946 0.17655896
-0.13332982 -0.17777781 -0.16057302 -0.029785274 -0.17731851 0.056721307 0.06096509 -0.03941707
-0.028253987 -0.093106955 0.17283612 0.008485455 -0.17492515 -0.11559749 0.16234197 -0.15488838
-0.0030780197 0.23071687 -0.11082395 -0.028877517 -0.02472996 0.11190422 0.013433306 0.058272194
0.0007723238 0.012215913 -0.041547593 0.048031334 0.08067719 -0.070457004 0.10438702 0.12711793
0.17217499 0.18483387 -0.11609371 -0.010690623 0.07653333 -0.049029484 0.19864862 0.16013303
0.07592608 0.056975447 -0.18130906 -0.047052857 0.04796031 0.1942703 0.05784518 -0.042626124
00000000: 0f18 d53d 2b49 16bd b102 d2bd e14e a13d
00000010: 57fc dabd 6ea2 823b aa20 283e e9c1 223d
00000020: b2ab a63d 46fd 9bbc 88e8 60bd 96ff d33d
00000030: b8d4 0ebe f31d 4bbd 3b44 cebd 0578 51bd
00000040: 495d 1ebd f018 833c f8a3 1d3d 8d3c 44bd
00000050: 54a2 4e3d 2135 24bd 3f08 cbbd 715e d2bd
00000060: fe5f c73d d91d 373c d3d7 a0bd 54e7 61bd
00000070: 315c 2e3e 88e7 073d 8fd0 663e 807e 01be
00000080: 546e d3bd 9047 e7bc 924f 093d 0589 e13d
00000090: 6f86 a7bd c708 0c3e 8e90 fcbd d0d0 9fbd
000000a0: 004d a03d 59fb edbd 799b e0bd 7402 e03d
000000b0: d776 823d d2ac 703d e613 c63c 1d65 5cbd
000000c0: c822 e93c 3c1f 333d 7c09 0abe d6f1 7cbd
000000d0: 941e 903d 7e2b bbbd 9dd0 83bc 0ac5 22bd
000000e0: 4bd2 b6bd 7b97 f9bd 7596 c23d b2d6 013d
000000f0: f4cd 573e 3ba7 e33d a461 55be 9db1 833d
00000100: fab5 0d3e 59e8 eebb 7283 2f3d 5d93 60be
00000110: cfba 1e3e 4422 d83d fc12 073d 57ff 7dbd
00000120: cd9a f43d ddc7 0d3e 0524 623c 0263 0bbe
00000130: c457 1fbe 2dd3 f4bc 1e3a efbd f5e1 9dbd
00000140: 72c6 c1bd ed31 98bd 8d89 803d ad07 483d
00000150: 9b8e 333e 0a18 95bd 2802 2b3b 8ba8 89bd
00000160: 34dc 55bc 444f 96bd f650 8bbd a0b5 453b
00000170: c525 9fbd 5cc1 5b3c a475 2cbd da96 723c
00000180: 7555 f1bd 92fe 4bbd f50f 59bd 7311 7e3d
00000190: ee9e 113e 835f e4bd 63fa 04be 907c f43d
000001a0: f281 2e3c 47cc febd d47c e1bd 3b62 433e
000001b0: 3e3c eabd d6df cdbd 1e61 143e 61a2 0a3e
000001c0: 7017 06be a911 3a3e 7044 243d 1175 e3bd
000001d0: cb14 acbb e5ac 9ebd 2209 54bd c2b8 f9bc
000001e0: 8667 88bb 6f93 073e d17f e9bd 9db7 20bc
000001f0: 44e5 c93d 25d7 833e f976 e43d 1dfb 01be
00000200: 6cb1 c03c 87d9 2f3e 8762 fb3b a491 1abc
00000210: 6d55 04be a2c5 b7bd 2717 b53a 3b1b cabd
00000220: 4116 d4bd beb1 2a3c c232 c0bd fabe 10be
00000230: 32a8 de3d 2925 d03d c025 ecbd 4f08 30be
00000240: 58cf 0a3c aafe efbd da49 cb3d bd2f b83e
00000250: 1d01 a53c c31c e2bd c9c0 cabd 5cde c0bc
00000260: 17f0 a03d 3562 cf3d 8a6d f0bd 5f6c b8bd
00000270: 52d4 173b 4c41 b43c 8740 a63d 91ec 84bd
00000280: a69d 153e 1328 293c 3d0d 92bd 3784 c7bc
00000290: ccde 203d 13dc d23a 60b9 c1bd 1af3 2f3e
000002a0: fc6f 803d 30a2 a2bd c3e1 18bd 2931 85bd
000002b0: 5233 51be 9424 543e bf3b de3b bc06 84bd
000002c0: 1ead b53d d0e9 193e c7ee fdbc acbf 19be
000002d0: d789 083d c4f3 26bc 7d73 f63c 3779 26bd
000002e0: 8c84 5a3d 27b1 babc bd63 c0bd 0a24 98bd
000002f0: a33f 3e3e f55e d53c ced3 063e b3eb 79be
00000300: a009 f33c 540b 1c3e 7d49 bcbd 6497 d43d
00000310: 1bca 263e f457 35bd 43b9 e4bd f5bc 1e3e
00000320: f457 86bd 9630 3a3e be48 00be 3f58 84bd
00000330: ed03 7cbc 4511 e9bd 308c 533e dfcb 343e
00000340: 9d87 08be 630b 36be 416d 24be 3f00 f4bc
00000350: fc92 35be 9a54 683d 88b6 793d cb73 21bd
00000360: e874 e7bc dcae bebd f4fb 303e 9406 0b3c
00000370: 941f 33be 60be ecbd f93c 263e 0f9b 1ebe
00000380: 9ab8 49bb 0b41 6c3e abf7 e2bd 8b90 ecbc
00000390: 7c96 cabc 0a2e e53d 5e17 5c3c d3ae 6e3d
000003a0: c675 4a3a 4125 483c cf2d 2abd 81bc 443d
000003b0: 153a a53d c34b 90bd ddc8 d53d 342b 023e
000003c0: a44e 303e 1745 3d3e 8ac2 edbd b927 2fbc
000003d0: 82bd 9c3d 24d3 48bd 8b6a 4b3e eaf9 233e
000003e0: 227f 9b3d 165f 693d 15a9 39be 7fba 40bd
000003f0: 0872 443d cbee 463e 11ef 6c3d bb98 2ebd

model.rnn.bias_ih_l0 f4 [160]
0.043784287 0.08046847 -0.0763425 -0.0863786 0.202248 -0.03480937 -0.017745955 0.04517515
-0.06873434 0.096572325 0.17565921 -0.113978475 0.036474977 -0.031524654 0.12839374 0.0715143
0.10826417 -0.16241439 -0.15034752 0.08137911 -0.07449991 0.09734671 0.22593792 0.025750766
-0.02078313 0.03943824 0.07505892 0.0861168 0.019314818 -0.024923382 0.21581961 0.13877107
0.093160205 -0.00800656 -0.0786012 -0.119850464 -0.06577656 -0.047378205 -0.1374756 0.15527
-0.0076474138 -0.1009126 -0.00899305 0.013484843 0.1980228 0.15752442 0.059372723 -0.0056909355
0.00029207714 -0.07689149 0.16085258 0.14768818 -0.024197346 0.14411807 -0.0268603 0.07237543
0.036854308 -0.034647316 -0.01459357 0.13464092 -0.044064548 0.24833146 0.17526479 -0.084796526
0.09969162 0.13658212 0.100035705 -0.08104803 0.032727238 0.10126872 0.0006193145 0.053668693
-0.085456654 0.039800603 0.08222675 0.078675315 -0.059390336 0.08955379 0.1112181 -0.14365372
0.18874937 0.048088145 -0.13850567 0.007818205 0.17926548 -0.09438012 0.13403973 0.08559042
0.018801963 0.06644838 -0.1290086 -0.112621225 -0.1165771 0.10220001 -0.14904775 0.06747081
-0.07623595 0.17369525 -0.046443824 -0.20698577 0.05574641 0.017044025 -0.054280765 0.092195466
-0.036154058 0.022496605 0.030878415 -0.1315867 0.10834252 -0.10822662 0.03585165 -0.17332785
-0.031119797 -0.16009657 -0.14035857 -0.021550544 0.05479447 -0.0831148 -0.051794652 -0.012885256
-0.12031112 -0.0931465 0.11562864 0.08291617 0.11109114 0.1781082 0.03371372 0.11549198
0.13679649 -0.06826702 0.012843877 -0.038857516 0.17295784 0.13296418 0.025754353 0.13217722
-0.114154674 -0.12529713 -0.018104902 0.20859429 0.030823283 0.14308265 -0.11443029 -0.0267748
0.12825991 0.047254585 -0.05751262 0.013994865 0.08641292 0.10043726 0.16193366 0.11404214
0.22274399 -0.055268873 0.20504397 -0.113589585 0.03637568 -0.0107020205 -0.10526823 0.17233561
00000000: 2757 333d a7cc a43d 7559 9cbd 43e7 b0bd
00000010: 1a1a 4f3e 4594 0ebd f75f 91bc 9409 393d
00000020: 97c4 8cbd b6c7 c53d 02e0 333e 8c6d e9bd
00000030: c966 153d ff1f 01bd a679 033e 1776 923d
00000040: 9bb9 dd3d f54f 26be b3f4 19be 17aa a63d
00000050: 6993 98bd b65d c73d 455c 673e 45f3 d23c
00000060: 6241 aabc fe89 213d 7eb8 993d 015e b03d
00000070: 1c3a 9e3c 1f2c ccbc d1ff 5c3e 011a 0e3e
00000080: c7ca be3d f22d 03bc aaf9 a0bd 2974 f5bd
00000090: dcb5 86bd a60f 42bd 67c6 0cbe 19ff 1e3e
000000a0: 2897 fabb 44ab cebd 9657 13bc 88ef 5c3c
000000b0: 7dc6 4a3e 154e 213e d030 733d 077b babb
000000c0: ee21 9939 4979 9dbd 8ab6 243e 923b 173e
000000d0: 8339 c6bc b093 133e 220a dcbc 9239 943d
000000e0: 8bf4 163d 58ea 0dbd de19 6fbc 4fdf 093e
000000f0: 077d 34bd 9a4a 7e3e 9d78 333e cda9 adbd
00000100: 1f2b cc3d 2fdc 0b3e 85df cc3d 82fc a5bd
00000110: ff0c 063d fa65 cf3d 7e59 223a b4d3 5b3d
00000120: e603 afbd f505 233d 8066 a83d 8620 a13d
00000130: 4843 73bd fa67 b73d 51c6 e33d f619 13be
00000140: 8447 413e 13f8 443d 6ed4 0dbe ee17 003c
00000150: 5f91 373e 5d4a c1bd b641 093e 084a af3d
00000160: 9306 9a3c 1716 883d d51a 04be f5a5 e6bd
00000170: f9bf eebd 3d4e d13d f99f 18be 232e 8a3d
00000180: 9821 9cbd 2bdd 313e e13b 3ebd 14f4 53be
00000190: 5956 643d e99f 8b3c 8255 5ebd fad0 bc3d
000001a0: 4716 14bd cd4a b83c bbf4 fc3c aabe 06be
000001b0: afe2 dd3d eba5 ddbd 2ed9 123d db7c 31be
000001c0: f2ee febc 5bf0 23be 28ba 0fbe c48a b0bc
000001d0: 2b70 603d 1838 aabd a126 54bd ae1c 53bc
000001e0: ad65 f6bd 98c3 bebd b5ce ec3d f4cf a93d
000001f0: c083 e33d ff61 363e 6617 0a3d 0f87 ec3d
00000200: 6114 0c3e 94cf 8bbd 206f 523c 0f29 1fbd
00000210: dc1b 313e c327 083e cbfa d23c 7759 073e
00000220: edc9 e9bd e44d 00be bb50 94bc be99 553e
00000230: 1c81 fc3c 4284 123e 6e5a eabd d356 dbbc
00000240: 9156 033e 068e 413d 5a92 6bbd b84a 653c
00000250: 42f9 b03d 0db2 cd3d f0d1 253e ed8e e93d
00000260: 0017 643e 9d61 62bd 0cf7 513e a8a1 e8bd
00000270: aafe 143d 8757 2fbc df96 d7bd bf78 303e

model.rnn.bias_hh_l0 f4 [160]
-0.054452494 0.015199669 -0.07298247 -0.06710094 0.0035399294 -0.10576187 0.023208497 0.059223585
-0.11481361 0.15942967 0.09226127 -0.040217068 0.015337024 0.0460392 -0.11995031 -0.09035974
-0.13167287 0.09548964 0.15213351 0.112274855 0.17249495 0.011977456 0.12525868 -0.12440839
0.09697162 -0.12180283 -0.07718288 -0.069707565 -0.00055961986 -0.06826148 0.21047783 0.013853947
0.20539886 -0.019239604 -0.008040309 -0.11317671 0.2007339 -0.044447433 -0.10339674 -0.1044243
-0.10970772 0.01172322 -0.08607127 0.105773084 -0.028559638 0.14713497 -0.07190189 -0.023350712
0.027350716 -0.053982835 0.0331217 0.06631315 -0.10024113 0.11571708 0.008409599 0.10425347
-0.13636531 0.08612353 -0.006744875 0.11822455 0.15859622 0.09271175 -0.05572209 0.07542175
-0.04545445 0.08398499 0.19164777 -0.0966752 0.08536955 -0.0010849116 0.034585994 0.087682344
-0.034792196 0.12973681 0.13181674 -0.13716485 0.057155468 0.100396425 0.16958685 0.018771531
0.053812437 0.1101258 0.105440654 -0.058339152 0.025651868 -0.011135043 0.19167235 0.015663369
-0.024156095 -0.103478715 -0.0639208 -0.12485698 -0.0328591 -0.029771443 0.07222538 0.121538125
-0.04221169 -0.034850538 -0.07873972 0.006300097 -0.13942684 0.066472456 -0.07432738 -0.09717341
0.03859146 0.112716876 0.11136891 0.113678284 -0.0632203 0.13748148 0.079098776 -0.06527403
-0.083124176 -0.1549996 -0.18849713 -0.013343374 0.027824072 0.024657175 -0.159645 0.07716184
0.012789179 -0.09558532 0.13599539 -0.07183913 0.06244676 0.18300284 0.13893232 0.13309827
0.20915993 0.19144392 -0.11770207 0.0015256891 0.019692255 0.038714755 -0.08056229 -0.080922194
0.0698823 -0.13168886 0.014852267 -0.018586544 -0.046955593 -0.11123285 -0.0141192 -0.03741228
0.0020292196 -0.041511104 0.039899033 0.15694602 0.046693042 0.06346074 -0.095317245 0.118742965
0.14840414 0.0581139 0.07923034 0.16515687 -0.08457968 0.19948484 0.12161076 0.021960802
00000000: 9409 5fbd 0808 793c d577 95bd 386c 89bd
00000010: 29fe 673b ae99 d8bd bf1f be3c 6e94 723d
00000020: 6623 ebbd 8841 233e 7af3 bc3d a7ba 24bd
00000030: 2448 7b3c 9a93 3c3d 82a8 f5bd 870e b9bd
00000040: 41d5 06be 1390 c33d e3c8 1b3e 5cf0 e53d
00000050: 84a2 303e 173d 443c d043 003e d3c9 febd
00000060: 0f99 c63d c373 f9bd 0f12 9ebd d7c2 8ebd
00000070: 74b3 12ba adcc 8bbd 8087 573e aafb 623c
00000080: 1454 523e 609c 9dbc 80bb 03bc 31c9 e7bd
00000090: 308d 4d3e 830e 36bd acc1 d3bd 68dc d5bd
000000a0: 71ae e0bd c012 403c 2246 b0bd 8f9f d83d
000000b0: e7f5 e9bc 8daa 163e 4c41 93bd fe49 bfbc
000000c0: 9c0e e03c 1b1d 5dbd 9faa 073d 30cf 873d
000000d0: 394b cdbd 14fd ec3d 6ac8 093c d882 d53d
000000e0: 59a3 0bbe 8961 b03d 1d04 ddbb b61f f23d
000000f0: 0c67 223e a8df bd3d d93c 64bd b876 9a3d
00000100: 722e 3abd 5300 ac3d 503f 443e a6fd c5bd
00000110: 3bd6 ae3d 9833 8eba 0baa 0d3d cd92 b33d
00000120: 4382 0ebd bad9 043e f8fa 063e f174 0cbe
00000130: da1b 6a3d a49c cd3d 2da8 2d3e c1c6 993c
00000140: 6e6a 5c3d a389 e13d 45f1 d73d 09f5 6ebd
00000150: de23 d23c c16f 36bc c245 443e 7750 803c
00000160: 01e3 c5bc a6ec d3bd e9e8 82bd 04b5 ffbd
00000170: 4397 06bd 3ee3 f3bc e6ea 933d fbe8 f83d
00000180: 2ae6 2cbd 70bf 0ebd 4a42 a1bd 0b71 ce3b
00000190: e9c5 0ebe b622 883d f438 98bd da02 c7bd
000001a0: 1412 1e3d 1bd8 e63d 6215 e43d 29d0 e83d
000001b0: a579 81bd f2c7 0c3e 8afe a13d 64ae 85bd
000001c0: 023d aabd 37b8 1ebe 6405 41be 2b9e 5abc
000001d0: 4fef e33c d8fd c93c fb79 23be 0707 9e3d
000001e0: b489 513c 3cc2 c3bd 6042 0b3e 6520 93bd
000001f0: 2cc8 7f3d 1965 3b3e 4644 0e3e ea4a 083e
00000200: 052e 563e e009 443e c80d f1bd a2f9 c73a
00000210: a751 a13c 5d93 1e3d d8fd a4bd 89ba a5bd
00000220: 741e 8f3d 72d9 06be ec56 733c cf42 98bc
00000230: 8254 40bd 0cce e3bd 3854 67bc 9e3d 19bd
00000240: a8fc 043b 8c07 2abd 2b6d 233d 75b6 203e
00000250: 3441 3f3d b4f7 813d b035 c3bd 832f f33d
00000260: 41f7 173e d708 6e3d 8443 a23d e21e 293e
00000270: 1c38 adbd c145 4c3e 100f f93d 24e7 b33c

model.rnn.weight_ih_l1 f4 [160, 40]
-0.067988336 -0.08475966 0.0018040512 0.06793158 -0.13952002 -0.08182941 0.06531953 0.05997107
0.10819285 -0.042813987 -0.02507159 0.14351249 -0.17836168 -0.04288045 -0.14951804 0.0034141259
-0.10001662 0.048581496 0.036321722 -0.03395651 0.034713805 0.048921075 0.0830993 -0.078307174
0.10743357 0.07210144 -0.10264826 -0.022255914 -0.15684178 -0.14814977 -0.013983548 -0.10654827
-0.15159109 0.040004544 -0.084112324 0.011770559 -0.14903033 0.02387454 0.027799873 -0.14542523
0.04446354 0.035178285 0.08313028 0.05758024 -0.10865474 0.09052819 0.032017443 -0.117941454
-0.019804513 -0.045319658 0.0893918 -0.016871803 -0.0938772 0.0039517316 -0.07645642 -0.07762677
-0.009214004 0.03467085 -0.021238267 -0.030552069 0.047201835 -0.117726535 0.0011345549 0.006841383
-0.043519955 0.15680118 -0.14135864 0.18358697 -0.02758809 0.17108043 -0.13003366 0.122158565
-0.013665766 -0.010672245 -0.019412972 0.09236751 0.16389745 0.084873624 -0.12697342 0.09327868
0.06803257 -0.14817116 -0.0937648 -0.15555304 -0.06013708 0.18958908 -0.061922036 0.0429971
-0.2755671 0.31792086 0.010934642 -0.06185774 0.10854922 0.14117299 -0.081677236 -0.04287719
0.058354028 0.012078921 -0.06339628 -0.07717409 0.08809163 -0.11071476 -0.09449487 0.11372769
-0.023235759 -0.13913204 0.064922065 0.19661044 0.12116993 -0.06610497 -0.1249457 0.096634395
0.018342769 -0.02755391 0.04522719 0.16633737 0.0119262375 0.11662754 0.07997211 -0.10038711
-0.057779375 -0.0039087245 0.039395675 -0.055199184 -0.083671436 0.053778313 0.10376371 -0.016824126
-0.063960314 -0.017507624 0.12576613 0.104424894 0.03400316 0.09184317 -0.15581158 -0.102310844
0.045678418 0.003609938 0.010931084 0.022431243 -0.112051316 0.08988517 0.10018757 0.1622943
0.14154644 0.14887556 0.088589065 0.13216208 -0.12237034 -0.046881933 -0.1532575 -0.066653036
0.13495407 -0.01833489 -0.14517641 -0.103688575 0.112967566 0.10931735 -0.11241951 -0.0019858421
-0.0040902677 0.035319325 -0.03593153 0.10298758 -0.03592012 -0.11932377 -0.058159504 0.0049673584
0.17135298 -0.044193547 0.05367518 0.03318918 -0.042609453 -0.075970136 -0.0312917 0.09579181
0.1358097 -0.10549242 0.039746042 -0.033526946 0.035008237 0.09648237 -0.12850277 0.028955253
0.08805858 -0.13694839 0.03475375 -0.23721206 0.10057393 -0.1619416 0.00904436 0.036240377
0.08057443 0.11164629 0.02892641 0.048611484 0.124000244 0.10021113 0.051124904 -0.12959005
-0.1037403 0.08863345 0.13901933 -0.16662672 0.061690986 0.03327707 -0.1498655 0.12527323
-0.09616713 0.1469468 -0.026115336 0.11062354 -0.060726214 0.043082118 0.16053659 -0.0013593015
0.02912472 -0.12804854 -0.10544863 0.16440824 0.06525113 -0.03085498 -0.1132341 0.08694571
0.06378643 -0.09941452 -0.11377921 0.13617575 0.044316523 0.12409371 0.11396348 0.07660544
0.061869375 -0.019150693 0.06898141 0.10866733 -0.10323781 -0.14162715 0.11019003 0.105742425
0.13442697 0.08022019 0.15840295 -0.12739559 0.03427675 -0.05353861 -0.13150956 0.1473709
0.024583474 0.09648806 0.0472494 0.06357768 0.10921634 -0.058945436 0.14420944 0.03976509
00000000: 783d 8bbd 7996 adbd ea75 ec3a b61f 8b3d
00000010: 56de 0ebe 2d96 a7bd 3fc6 853d 3aa4 753d
00000020: 3794 dd3d b85d 2fbd ef62 cdbc f0f4 123e
00000030: 72a4 36be 69a3 2fbd 421b 19be 87bf 5f3b
00000040: 83d5 ccbd 64fd 463d 16c6 143d fb15 0bbd
00000050: 1030 0e3d 7761 483d f72f aa3d 835f a0bd
00000060: 2206 dc3d eba9 933d 4039 d2bd 0952 b6bc
00000070: 229b 20be 93b4 17be 401b 65bc fb35 dabd
00000080: b23a 1bbe cedb 233d 1543 acbd 4dd9 403c
00000090: 689b 18be 8a94 c33c 8fbc e33c 5aea 14be
000000a0: 671f 363d 1b17 103d 3540 aa3d 42d9 6b3d
000000b0: 6086 debd d866 b93d b924 033d 4a8b f1bd
000000c0: 133d a2bc 1ba1 39bd 0c13 b73d bc36 8abc
000000d0: b042 c0bd 877d 813b 2f95 9cbd c9fa 9ebd
000000e0: 55f6 16bc 0503 0e3d e0fb adbc 5548 fabc
000000f0: b656 413d 9c1a f1bd 58b5 943a ae2d e03b
00000100: fb41 32bd 7d90 203e 52c0 10be 39fe 3b3e
00000110: 6b00 e2bc b52f 2f3e 8b27 05be 452e fa3d
00000120: 61e6 5fbc a4da 2ebc f407 9fbc 2d2b bd3d
00000130: bcd4 273e 39d2 ad3d 5205 02be e508 bf3d
00000140: a954 8b3d 2eba 17be c207 c0bd 4c49 1fbe
00000150: 4c52 76bd a423 423e f6a1 7dbd ba1d 303d
00000160: 2217 8dbe 86c6 a23e 3627 333c 8b5e 7dbd
00000170: 0e4f de3d a78f 103e 6546 a7bd fe9f 2fbd
00000180: a204 6f3d abe6 453c e9d5 81bd 730d 9ebd
00000190: 6269 b43d 6cbe e2bd 8786 c1bd 10ea e83d
000001a0: eb58 bebc a178 0ebe dcf5 843d 3f54 493e
000001b0: f127 f83d 0b62 87bd 88e3 ffbd 41e8 c53d
000001c0: 9343 963c bdb8 e1bc 2540 393d 5854 2a3e
000001d0: 4466 433c 6bda ee3d 6bc8 a33d c297 cdbd
000001e0: 11aa 6cbd c214 80bb 5c5d 213d 8a18 62bd
000001f0: ee5b abbd a646 5c3d 1182 d43d c0d2 89bc
00000200: a0fd 82bd 266c 8fbc d6c8 003e b8dc d53d
00000210: e646 0b3d 4618 bc3d 128d 1fbe 5988 d1bd
00000220: 4b19 3b3d b694 6c3b 4a18 333c bac1 b73c
00000230: 297b e5bd b715 b83d 242f cd3d 7a30 263e
00000240: 8df1 103e d672 183e 2f6e b53d 7f55 073e
00000250: 4d9d fabd 4507 40bd 89ef 1cbe 6381 88bd
00000260: 6631 0a3e 0d33 96bc 20a9 14be ad5a d4bd
00000270: 8a5b e73d c6e1 df3d 333c e6bd e724 02bb
00000280: a707 86bb ffaa 103d f12c 13bd 27eb d23d
00000290: fa20 13bd 0560 f4bd a938 6ebd 39c5 a23b
000002a0: 2877 2f3e 4b04 35bd 81da 5b3d 61f1 073d
000002b0: 4087 2ebd 3b96 9bbd ba2b 00bd 7f2e c43d
000002c0: b311 0b3e 690c d8bd bfcc 223d 8d53 09bd
000002d0: cc64 0f3d 8c98 c53d 3b96 03be 9133 ed3c
000002e0: 0f58 b43d 333c 0cbe f359 0e3d b8e7 72be
000002f0: b4f9 cd3d 05d4 25be cc2e 143c ca70 143d
00000300: 3504 a53d cfa6 e43d 14f7 ec3c d61c 473d
00000310: d7f3 fd3d 7e3b cd3d 5968 513d 41b3 04be
00000320: cb75 d4bd 7485 b53d 155b 0e3e 32a0 2abe
00000330: b0af 7c3d 894d 083d 5776 19be a047 003e
00000340: 46f3 c4bd 3979 163e d4ef d5bc 988e e23d
00000350: 0dbc 78bd e076 303d b463 243e 972a b2ba
00000360: f796 ee3c 281f 03be 74f5 d7bd a25a 283e
00000370: 62a2 853d 95c3 fcbc 48e7 e7bd 9810 b23d
00000380: 76a2 823d d799 cbbd 1305 e9bd a871 0b3e
00000390: 3e85 353d d824 fe3d af65 e93d 50e3 9c3d
000003a0: be6a 7d3d eae1 9cbc 2046 8d3d fa8c de3d
000003b0: 586e d3bd b506 11be 4fab e13d 7c8f d83d
000003c0: 39a7 093e 7c4a a43d 6234 223e fd73 02be
000003d0: c765 0c3d 4d4b 5bbd 71aa 06be 66e8 163e
000003e0: 4863 c93c 889b c53d 9688 413d 0435 823d
000003f0: d1ac df3d c570 71bd a4ab 133e b8e0 223d

model.rnn.weight_hh_l1 f4 [160, 40]
-0.008495464 -0.14165473 0.08526466 0.046322156 -0.030492887 -0.14857437 0.024773136 0.097291626
0.098801866 0.07115708 0.034854345 0.059391893 -0.0006576304 0.0037058732 -0.16346374 -0.07395459
0.0968776 -0.08645424 -0.11589443 0.038144298 0.061098572 0.035461605 0.09633212 0.14481728
0.13638672 0.063519135 0.03291371 -0.14732608 -0.120198436 -0.016904388 0.14759402 -0.09517119
-0.07549593 -0.00916184 0.12633295 -0.010065944 -0.028407596 0.1001282 -0.13308024 0.05678216
-0.16015013 0.044349473 -0.06794785 -0.15102081 -0.066630945 0.11943883 -0.016636694 -0.08065139
0.13125631 0.17510472 0.02183333 0.02516483 0.054591917 -0.057268992 -0.1000448 -0.036903184
-0.07079561 0.0009444093 -0.037073344 0.11560815 0.0434376 -0.08073233 0.024106383 0.15304738
0.027828299 -0.07297051 0.089557044 -0.058986217 -0.08564836 -0.03396366 -0.05493454 -0.12802406
0.16655768 -0.03601384 -0.044134706 0.10649955 0.0007743811 -0.052940626 -0.039403144 0.09779674
-0.14980471 0.083348185 0.03095496 0.16125143 -0.13901938 0.048701674 -0.14346232 -0.051695302
-0.03684142 -0.044599243 -0.084994435 -0.036516357 0.045843195 0.007472011 -0.07047273 0.10763473
-0.13050805 0.11280264 -0.17658633 -0.018018799 0.022613823 -0.0050213803 0.015232751 -0.0039962977
0.13801233 0.064666316 0.119945325 0.09019149 -0.10062005 -0.08870217 -0.073556975 -0.022481453
0.017801872 0.075282164 -0.14550103 -0.1074641 -0.13099162 -0.0019112068 0.06516065 0.06212923
-0.04936623 -0.14673401 -0.022954298 0.052835822 -0.07631805 0.09939425 0.074964255 -0.026155163
-0.025258498 0.08236485 0.07180357 0.04652199 -0.052099604 -0.122562215 -0.10149685 0.01766758
-0.13468154 -0.012130694 0.121167116 -0.011454477 0.013594228 -0.07936959 0.028178586 -0.013919887
0.029891264 -0.068291664 0.13200651 0.013587241 0.09158383 -0.14903586 0.12213836 0.06972656
-0.013465554 0.07898339 -0.044270474 -0.021425562 -0.053948615 0.055320635 -0.032556854 0.028999615
0.0216224 0.06607809 0.15230328 -0.14541745 0.03184896 -0.009614734 -0.050935823 0.040416967
0.13033962 0.015639884 0.1404755 -0.086194515 -0.08323594 0.082355686 0.08250907 0.046944708
-0.11719842 0.06988086 0.0035551023 -0.0326659 0.092887826 -0.10016323 -0.17006767 -0.15698777
-0.11455333 0.00094691216 0.010195366 0.086938806 -0.030262839 -0.021362936 0.108546674 -0.14603603
-0.14491637 0.11836065 0.010946835 0.086689554 0.13813485 -0.03230042 0.030427666 0.10426574
0.061608385 0.087895244 -0.00874624 0.049815297 -0.11798542 0.14504026 0.050509788 -0.08455022
0.010583602 0.13674659 -0.08579578 0.081484 -0.13754731 0.13088809 -0.00972637 -0.1357453
0.11396104 0.0012782221 -0.04598288 -0.02317283 0.021904418 0.08425398 -0.13079923 0.06710653
0.033798706 -0.051408116 0.08923747 -6.7014866e-05 -0.11137483 0.1284817 -0.08687139 0.13655536
0.021562181 0.058964323 -0.17732657 -0.15949653 -0.02469189 -0.13660488 0.07381088 0.10767054
0.004275672 0.1450188 -0.13378696 -0.10911189 0.169033 0.11100932 -0.008329696 0.1412822
0.07847416 0.002055318 -0.0662571 0.0785122 0.027650358 0.101630844 0.05346285 -0.011814517
00000000: 8f30 0bbc f00d 11be 3d9f ae3d 4dbc 3d3d
00000010: 38cc f9bc e123 18be 08f1 ca3c d540 c73d
00000020: a258 ca3d ceba 913d 6ec3 0e3d ea44 733d
00000030: d464 2cba 3cde 723b 0a63 27be 8175 97bd
00000040: c367 c63d ec0e b1bd 0f5a edbd 323d 1c3d
00000050: 7f42 7a3d 3040 113d c649 c53d fb4a 143e
00000060: f6a8 0b3e 5216 823d 87d0 063d a6dc 16be
00000070: 992a f6bd 127b 8abc e322 173e 1de9 c2bd
00000080: 9c9d 9abd 8b1b 16bc 6d5d 013e a1eb 24bc
00000090: 0cb7 e8bc 0410 cd3d 3046 08be 6994 683d
000000a0: 65fe 23be cba7 353d 3e28 8bbd 33a5 1abe
000000b0: ce75 88bd 589c f43d ad49 88bc 8e2c a5bd
000000c0: 0e68 063e a74e 333e d0db b23c 7926 ce3c
000000d0: c69b 5f3d e492 6abd 4ae4 ccbd cb27 17bd
000000e0: 4afd 90bd 3c92 773a 38da 17bd f7c3 ec3d
000000f0: a0eb 313d fe56 a5bd c07a c53c 74b8 1c3e
00000100: 2cf8 e33c 9071 95bd af69 b73d 889b 71bd
00000110: 6868 afbd 7b1d 0bbd 0a03 61bd bd18 03be
00000120: 198e 2a3e 4083 13bd 98c6 34bd 701c da3d
00000130: d6ff 4a3a 45d8 58bd 3165 21bd a849 c83d
00000140: 6866 19be 74b2 aa3d 4295 fd3c 181f 253e
00000150: 195b 0ebe 687b 473d c9e7 12be 74be 53bd
00000160: 07e7 16bd b2ad 36bd 9011 aebd 2d92 15bd
00000170: 13c6 3b3d c5d7 f43b 0254 90bd 996f dc3d
00000180: e7a3 05be 1205 e73d 0cd3 34be 299c 93bc
00000190: a040 b93c 648a a4bb ca92 793c 60f3 82bb
000001a0: 1b53 0d3e c66f 843d e5a5 f53d 51b6 b83d
000001b0: e311 cebd 7ca9 b5bd 0aa5 96bd 062b b8bc
000001c0: 3bd5 913c 892d 9a3d 39fe 14be 2316 dcbd
000001d0: ab22 06be 7581 faba f272 853d 387b 7e3d
000001e0: 3e34 4abd 7141 16be a70a bcbc 606a 583d
000001f0: a34c 9cbd 368f cb3d dc86 993d 5a43 d6bc
00000200: e9ea cebc e7ae a83d c00d 933d d88d 3e3d
00000210: 6566 55bd e601 fbbd 95dd cfbd 9abb 903c
00000220: f5e9 09be d2bf 46bc 7726 f83d 8fab 3bbc
00000230: 53ba 5e3c 868c a2bd c7d6 e63c 3d10 64bc
00000240: 86de f43c 80dc 8bbd b72c 073e 059d 5e3c
00000250: 4e90 bb3d db9c 18be ad23 fa3d cccc 8e3d
00000260: a19e 5cbc 0bc2 a13d f554 35bd a984 afbc
00000270: 39f9 5cbd e497 623d 565a 05bd 9a90 ed3c
00000280: 7621 b13c f353 873d 64f5 1b3e 50e8 14be
00000290: 0e74 023d 1e87 1dbc 15a2 50bd 438c 253d
000002a0: c077 053e 371f 803c cfd8 0f3e c086 b0bd
000002b0: 9b77 aabd 19aa a83d 84fa a83d 1849 403d
000002c0: ba05 f0bd b21d 8f3d b8fc 683b aecc 05bd
000002d0: f93b be3d 6122 cdbd 3826 2ebe 67c1 20be
000002e0: f09a eabd 333a 783a 770a 273c f90c b23d
000002f0: c6e9 f7bc 5301 afbc b84d de3d 788a 15be
00000300: f564 14be 1267 f23d 5b5a 333c 4b8a b13d
00000310: 3973 0d3e 724d 04bd 7143 f93c 4789 d53d
00000320: 1359 7c3d 6c02 b43d 644c 0fbc 200b 4c3d
00000330: 57a2 f1bd 6f85 143e 5ae3 4e3d aa28 adbd
00000340: d866 2d3c 4c07 0c3e b3b5 afbd 15e1 a63d
00000350: 34d9 0cbe 8707 063e 5a5b 1fbc d100 0bbe
00000360: 6864 e93d 048a a73a 8b58 3cbd f2d4 bdbc
00000370: e570 b33c 5a8d ac3d 3cf0 05be 266f 893d
00000380: 8370 0a3d 5191 52bd 22c2 b63d 558a 8cb8
00000390: 7d18 e4bd b590 033e a1e9 b1bd 2bd5 0b3e
000003a0: 2ca3 b03c 9384 713d 1995 35be 0f53 23be
000003b0: a646 cabc 26e2 0bbe 292a 973d 5f82 dc3d
000003c0: f01a 8c3b cf7f 143e 73ff 08be 0e76 dfbd
000003d0: fd16 2d3e db58 e33d 4779 08bc 48ac 103e
000003e0: 0fb7 a03d 84b2 063b cdb1 87bd 01cb a03d
000003f0: 0183 e23c d523 d03d ddfb 5a3d ad91 41bc

model.rnn.bias_ih_l1 f4 [160]
0.030745171 0.18756236 -0.045761507 -0.012893336 0.055325173 -0.088055156 0.10303779 -0.11125668
-0.15955913 0.12705487 0.20100993 -0.026393954 -0.09905028 -0.033911087 -0.06130293 0.12458685
-0.08123722 -0.08927138 0.10224975 0.017725086 0.006396313 0.16747259 -0.07990375 0.11449659
0.12875366 0.08708411 -0.17729571 -0.015048242 0.054731924 -0.078186214 -0.011066446 0.015649358
-0.012461874 0.15948229 -0.099529974 0.044839878 0.15310578 0.14601168 0.0019719568 -0.084038734
0.08236244 0.037909728 -0.118134625 -0.0026582098 -0.1714595 -0.08513029 0.004554991 0.03676559
0.15115446 -0.026201628 0.16201152 0.013287144 0.014356483 0.0050094584 -0.02804081 -0.042578153
-0.010644893 0.16859114 -0.14649118 0.04519103 -0.087614015 0.013846968 0.026592156 0.060454696
-0.061410453 0.15259385 -0.15297125 0.04776868 -0.08273692 0.16053163 0.12626566 0.010325124
-0.106061645 0.124205895 -0.052732285 -0.010252847 -0.12903878 -0.109421596 0.034122605 0.13526033
0.063406825 -0.13665165 -0.072983466 0.03299254 0.1175172 -0.09310239 -0.072289504 0.18101649
0.13574955 -0.0128583815 0.08334405 -0.041048147 0.08957715 0.0039374093 -0.12945575 -0.03205816
-0.18213151 -0.11198555 -0.074839376 -0.08573604 0.021817626 -0.054897495 -0.08565874 0.06584828
-0.10837658 0.03929861 -0.17275439 0.0009865958 0.09621111 0.08510466 0.15893328 0.14593607
0.15258728 0.10077974 0.081560075 -0.024149477 -0.110525884 0.04726115 -0.1084726 -0.03445756
0.06442863 0.12302223 0.07529395 0.02733204 0.09724745 -0.17478883 0.004254902 0.08116623
0.037638456 0.06802964 0.11652129 -0.051479544 0.11518884 -0.09273007 0.020741476 0.12862533
0.12564266 0.09920959 -0.022195198 0.06771494 0.13016108 0.020691967 -0.048171423 0.0009073005
0.02155393 0.11264528 -0.17814472 0.08984698 -0.054696325 0.1692777 0.08053894 -0.012526066
0.041611504 0.1990393 0.085616104 0.09426562 0.09308474 0.14853185 0.10312122 0.09623987
00000000: 4cdd fb3c 5910 403e 6b70 3bbd 923e 53bc
00000010: a69c 623d 4356 b4bd 7a05 d33d 8bda e3bd
00000020: 7863 23be ac1a 023e 8cd5 4d3e 2238 d8bc
00000030: e0da cabd 5ae6 0abd c818 7bbd 6427 ff3d
00000040: b35f a6bd ead3 b6bd 5168 d13d 3334 913c
00000050: 2a98 d13b ef7d 2b3e 94a4 a3bd 307d ea3d
00000060: 00d8 033e 2759 b23d 028d 35be e78c 76bc
00000070: 952e 603d 1820 a0bd 0a50 35bc 1533 803c
00000080: e32c 4cbc 534f 233e 5fd6 cbbd 05aa 373d
00000090: c3c7 1c3e 1684 153e f23b 013b 801c acbd
000000a0: a4ad a83d 3b47 1b3d 91f0 f1bd 5c35 2ebb
000000b0: 1493 2fbe ca58 aebd 0942 953b 8497 163d
000000c0: 3cc8 1a3e cca4 d6bc 59e6 253e 52b2 593c
000000d0: 7437 6b3c 6226 a43b d7b5 e5bc 6e66 2ebd
000000e0: eb67 2ebc 28a3 2c3e c901 16be 3b1a 393d
000000f0: fa6e b3bd 65de 623c cbd7 d93c 589f 773d
00000100: 8789 7bbd 9041 1c3e 7fa4 1cbe 17a9 433d
00000110: f971 a9bd 6762 243e c94b 013e b52a 293c
00000120: d936 d9bd a95f fe3d cffd 57bd 8ffb 27bc
00000130: be22 04be 6e18 e0bd 25c4 0b3d af81 0a3e
00000140: 70db 813d 69ee 0bbe 5b78 95bd 3023 073d
00000150: dcac f03d 77ac bebd 850c 94bd 635c 393e
00000160: ee01 0b3e f6ab 52bc 49b0 aa3d 1a22 28bd
00000170: 3a74 b73d 6205 813b 0c90 04be 6b4f 03bd
00000180: af80 3abe ae58 e5bd 6345 99bd 6096 afbd
00000190: e1ba b23c 32dc 60bd d96d afbd 77db 863d
000001a0: 8af4 ddbd 94f7 203d 87e6 30be a950 813a
000001b0: 550a c53d 5a4b ae3d 68bf 223e 4470 153e
000001c0: d73f 1c3e 9c65 ce3d f808 a73d 20d5 c5bc
000001d0: 655b e2bd e894 413d e226 debd 5f23 0dbd
000001e0: 28f3 833d 14f3 fb3d b733 9a3d 71e7 df3c
000001f0: ac29 c73d d8fb 32be b46c 8b3b 7b3a a63d
00000200: c82a 1a3d 2053 8b3d b7a2 ee3d 37dc 52bd
00000210: 20e8 eb3d 43e9 bdbd 07ea a93c 5cb6 033e
00000220: 78a8 003e 662e cb3d b4d2 b5bc 21ae 8a3d
00000230: f248 053e 3382 a93c 664f 45bd e8d7 6d3a
00000240: de91 b03c 92b2 e63d 926b 36be b201 b83d
00000250: 4109 60bd 2257 2d3e 9af1 a43d 213a 4dbc
00000260: d370 2a3d f5d0 4b3e 7f57 af3d 550e c13d
00000270: 36a3 be3d bc18 183e 3831 d33d 6919 c53d

model.rnn.bias_hh_l1 f4 [160]
0.0037879262 0.02455104 0.044221003 -0.058570363 0.12587239 0.13388099 0.091012105 -0.099973686
0.08701897 -0.13566282 0.1997378 0.05548357 0.20289646 0.12970364 -0.039280724 0.16366898
0.16853926 0.060684923 0.009000101 0.0006793972 0.021050397 -0.072791174 -0.11789311 0.08315883
0.11740675 0.028013881 -0.08763257 -0.016544815 0.01524679 0.12051283 0.056975164 0.11439546
0.111207776 0.17910175 0.11173393 0.036810488 -0.106125735 -0.10805395 0.16406707 0.06653764
-0.03910963 -0.025416099 -0.030638726 -0.07214326 -0.032327406 0.121126525 -0.039264243 0.16855207
0.07435459 0.15840007 -0.09371027 0.060818303 -0.074666955 -0.044974737 0.11340894 -0.1108269
-0.082028605 0.10047185 0.058018383 0.03935176 0.073718786 0.17908852 0.17409565 0.16278216
0.019387593 0.04479541 -0.093605675 -0.15531364 0.12668453 0.17375664 0.05529776 -0.13760708
0.065691374 0.19519657 0.09098217 -0.0905153 0.04774663 0.1059799 0.05740835 -0.047346093
-0.17118077 -0.015174368 0.13051102 -0.061292715 0.060966272 -0.06785582 0.14994425 0.018156271
-0.05426825 0.038492028 0.06375017 -0.07845112 0.103126064 -0.04374768 -0.046882864 -0.0902239
-0.041585725 -0.10664566 0.11902894 -0.035052814 -0.10727328 0.08414396 0.1076236 0.15976687
-0.13920312 -0.07961492 0.073329195 0.076430134 0.12355546 0.117600486 0.13654485 0.0127201835
0.11643031 0.06047 0.10510018 0.12104744 -0.078238904 0.11964234 -0.02311499 -0.035723507
-0.08657556 0.13036062 -0.0849263 0.06608963 0.014549349 -0.015020589 0.12956151 -0.110326655
-0.002320993 -0.065212846 0.07877874 0.21021728 0.11416234 -0.124148495 -0.06107339 -0.0041877036
0.10573788 0.20678215 0.14174168 -0.0030492486 0.043032855 0.08444668 0.096738584 0.1898775
0.09040602 0.023346493 -0.17076786 -0.16570118 -0.06022663 -0.13882834 0.058233734 -0.13739793
0.12479238 -0.041208748 -0.1603439 0.13739003 0.10051313 0.017534273 0.054588173 0.22655301
00000000: db3e 783b 431f c93c 1521 353d 7ae7 6fbd
00000010: b1e4 003e 1918 093e 8e64 ba3d 01bf ccbd
00000020: 0037 b23d 32eb 0abe 1188 4c3e bd42 633d
00000030: 17c4 4f3e 08d1 043e d3e4 20bd d798 273e
00000040: 8e95 2c3e c190 783d 2975 133c 9319 323a
00000050: e271 ac3c 8a13 95bd f171 f1bd 2d4f aa3d
00000060: f372 f03d 5e7d e53c b478 b3bd fe88 87bc
00000070: accd 793c 6ecf f63d ca5e 693d 2b48 ea3d
00000080: e7c0 e33d 7366 373e c2d4 e43d 98c6 163d
00000090: 7358 d9bd 644b ddbd 3301 283e e344 883d
000000a0: 6b31 20bd 6c35 d0bc 11fe fabc d8bf 93bd
000000b0: be69 04bd 2f11 f83d 8bd3 20bd ea98 2c3e
000000c0: 3847 983d a133 223e 2ceb bfbd 9d1c 793d
000000d0: fdea 98bd 6e37 38bd f242 e83d 37f9 e2bd
000000e0: 9dfe a7bd 2fc4 cd3d afa4 6d3d 502f 213d
000000f0: e0f9 963d fb62 373e 2146 323e 5eb0 263e
00000100: bbd2 9e3c 647b 373d 55b4 bfbd 8a0a 1fbe
00000110: 97b9 013e 43ed 313e e77f 623d dfe8 0cbe
00000120: 3389 863d 9ce1 473e dc54 ba3d 1660 b9bd
00000130: f891 433d fd0b d93d 0525 6b3d faed 41bd
00000140: 034a 2fbe ea9d 78bc aea4 053e 120e 7bbd
00000150: c5b7 793d fef7 8abd fc8a 193e 76bc 943c
00000160: 6248 5ebd d1a9 1d3d 738f 823d fbaa a0bd
00000170: c233 d33d c430 33bd 3f08 40bd 4fc7 b8bd
00000180: cb55 2abd 0a69 dabd 72c5 f33d 8a93 0fbd
00000190: 18b2 dbbd ab53 ac3d c369 dc3d ed99 233e
000001a0: 438b 0ebe 260d a3bd 9e2d 963d 6787 9c3d
000001b0: a50a fd3d 86d8 f03d 6ad2 0b3e 5168 503c
000001c0: 0473 ee3d 64af 773d c33e d73d b8e7 f73d
000001d0: b83b a0bd 0b07 f53d a65b bdbc d052 12bd
000001e0: 874e b1bd 417d 053e d7ed adbd 005a 873d
000001f0: 6560 6e3c eb18 76bc c6ab 043e f1f2 e1bd
00000200: cd1b 18bb 508e 85bd bf56 a13d 3343 573e
00000210: f2cd e93d 9141 febd 1728 7abd 0139 89bb
00000220: 1a8d d83d b3be 533e bb24 113e e7d5 47bb
00000230: 3843 303d 62f2 ac3d e11e c63d 3f6f 423e
00000240: cb26 b93d 2541 bf3c c5dd 2ebe 92ad 29be
00000250: 33b0 76bd 0429 0ebe 7f86 6e3d 0bb2 0cbe
00000260: 2693 ff3d 81ca 28bd 3131 24be f9af 0c3e
00000270: d4d9 cd3d 09a4 8f3c d997 5f3d 83fd 673e
