MARTS/AutogluonModels/ag-20240821_152300/models/DeepAR/W0/gluon_ts/prediction-net-state.pt (torch, 109152 bytes, 11 tensors)

model.param_proj.proj.0.weight f4 [1, 40]
-0.12952964 -0.018142879 -0.23188385 -0.08298656 -0.018577605 0.17724054 0.119993456 0.2050632
0.15237091 0.13708538 0.26911962 -0.0006295394 0.2905919 -0.02999727 0.06414489 -0.014105337
-0.022771612 -0.03651966 0.06351657 0.22984217 -0.22545885 -0.28868183 0.13603765 0.1950857
-0.023978071 0.21632496 0.094415285 0.0016654108 -0.019244257 0.024943875 0.2214595 0.056750532
0.08840772 0.27087095 -0.026181906 0.1970679 -0.13214502 0.033689726 -0.0514907 -0.21706106
00000000: 6ba3 04be 60a0 94bc f672 6dbe dcf4 a9bd
00000010: 1030 98bc 8b7e 353e 21bf f53d 16fc 513e
00000020: 1f07 1c3e 1c60 0c3e 0cca 893e ad07 25ba
00000030: 76c8 943e d6bc f5bc 655e 833d 121a 67bc
00000040: 888b babc a495 15bd fa14 823d bf5b 6b3e
00000050: afde 66be 1bce 93be 744d 0b3e 8cc4 473e
00000060: a96d c4bc 4a84 5d3e cd5c c13d ea49 da3a
00000070: 22a6 9dbc 1957 cc3c 47c6 623e 3f73 683d
00000080: 1b0f b53d 99af 8a3e 707b d6bc 2bcc 493e
00000090: 0651 07be 3dfe 093d eae7 52bd 4145 5ebe

model.param_proj.proj.1.weight f4 [1, 40]
-0.13654019 -0.09216401 -5.9376063e-05 -0.05729597 -0.08373912 0.13385618 0.119387485 0.14589699
-0.0066085993 0.093770765 0.04478149 0.005987057 0.009053308 0.0794678 0.09338677 0.059824914
-0.08793936 -0.018855767 0.12824723 0.016467864 -0.06924391 -0.081066765 0.021410557 0.15257639
-0.0029850358 0.10122357 -0.045460276 -0.13058242 0.1014552 0.15419371 0.11638443 0.130307
-0.04840268 0.048762787 0.106418 -0.060171757 -0.06692218 -0.06439891 0.041638337 -0.030151548
00000000: 31d1 0bbe 7cc0 bcbd 900a 79b8 2eaf 6abd
00000010: 6a7f abbd 9811 093e 6d81 f43d 0566 153e
00000020: f38c d8bb e30a c03d cc6c 373d 132f c43b
00000030: 5354 143c 04c0 a23d 9041 bf3d f80a 753d
00000040: 8d19 b4bd 6977 9abc 3e53 033e 9de7 863c
00000050: c0cf 8dbd 5506 a6bd 3165 af3c fc3c 1c3e
00000060: 97a0 43bb 4e4e cf3d 8e34 3abd 66b7 05be
00000070: bec7 cf3d f5e4 1d3e f65a ee3d 336f 053e
00000080: e341 46bd 7dbb 473d aef1 d93d a976 76bd
00000090: 7f0e 89bd 93e3 83bd f68c 2a3d 6100 f7bc

model.param_proj.proj.2.weight f4 [1, 40]
0.012010958 0.074491456 0.040629573 0.21576552 -0.13388239 -0.026457151 -0.10902453 -0.07116831
-0.12948133 -0.22360806 -0.18853667 0.22798203 -0.08194414 0.15021868 0.033940352 -0.15653373
0.24496676 0.10010379 -0.16077167 -0.2174183 0.18976578 0.17157175 -0.05000075 -0.22010626
0.19504926 -0.052349295 -0.006972544 -0.062141404 0.1314565 0.060531914 -0.056299508 0.056337982
-0.17206483 -0.114504725 -0.0018100496 -0.08827824 -0.022890277 -0.23314728 -0.17635942 0.12171223
00000000: 9cc9 443c fa8e 983d 326b 263d a3f1 5c3e
00000010: 7718 09be abbc d8bc 4148 dfbd b1c0 91bd
00000020: c196 04be 83f9 64be c20f 41be 1f74 693e
00000030: 54d2 a7bd edd2 193e 0a05 0b3d 614a 20be
00000040: 91d8 7a3e 3703 cd3d 54a1 24be e7a2 5ebe
00000050: f651 423e 81b0 2f3e 96cd 4cbd 8963 61be
00000060: feba 473e 376c 56bd f079 e4bb fc87 7ebd
00000070: 889c 063e 50f0 773d 509a 66bd a8c2 663d
00000080: c331 30be 7481 eabd 303f edba 39cb b4bd
00000090: 6484 bbbc 29be 6ebe 9097 34be 4344 f93d

model.rnn.weight_ih_l0 f4 [160, 37]
-0.052972637 -0.08128052 0.18868153 0.097043544 -0.03603311 0.17717151 0.03489575 0.012919158
0.18130289 0.07677544 0.09182103 0.17786798 -0.11001857 0.17177865 -0.03110815 0.0029883832
-0.08171647 -0.039940417 0.08862603 -0.11384038 0.093317725 0.054885224 0.16171099 0.098626055
0.1151035 -0.081061184 0.12769513 -0.080608755 0.076695465 -0.1294022 0.10191854 -0.10790445
0.1678694 0.08387678 -0.03976358 -0.12676081 0.08130941 0.15367983 0.09800108 -0.08057422
-0.08329188 0.13661341 -0.08429423 0.027881617 -0.003390496 0.010153205 0.052583937 -0.05442266
-0.14108378 0.029218135 0.03632995 0.12863903 0.018197384 -0.004402318 0.10899541 0.06487887
0.114977874 -0.028625283 0.17901872 -0.07072617 0.07457282 -0.031673837 0.096838295 0.1334663
0.113811694 0.011569035 0.048092898 -0.14029132 -0.11145871 0.097946644 0.038517382 0.041694455
-0.10841283 0.07863079 0.1318969 0.12201927 0.15483268 0.011236029 -0.109690465 0.00447831
-0.0010366341 0.16727895 0.0035140994 -0.14753377 -0.1284078 0.1546098 0.15401243 0.12174896
0.11215913 0.07405898 0.13205051 -0.055131804 -0.09435976 0.016898002 -0.020427322 0.13908534
0.17945318 -0.11534125 -0.11270187 -0.05221433 -0.06389778 -0.14894888 -0.10188617 0.010007321
-0.12253922 -0.00042835248 -0.014839454 0.10607683 -0.024028217 0.18188024 0.071047254 0.011517503
0.053858865 0.08601461 -0.022741085 0.17129068 0.15539153 0.09612794 0.06781204 0.10503756
-0.027540157 -0.041083414 0.07412713 -0.11278565 -0.045064896 0.09697158 0.16850975 0.10462849
-0.09865623 -0.06870087 -0.10267272 0.16067936 -0.11132007 0.014495255 -0.080306366 0.02940955
0.008440191 0.038896836 0.14354311 -0.09183752 -0.047378536 -0.07393345 -0.013762711 0.18087937
0.083279796 0.015489267 -0.055349756 0.17212753 0.06558563 0.079229414 -0.0994546 -0.10865424
-0.09959616 -0.11619586 0.034909613 -0.08610594 -0.08992899 -0.104976006 -0.069481544 -0.072002515
0.06799604 0.048980933 0.1719355 0.16517928 0.0074259937 0.11886784 0.08717316 0.12953037
-0.03383596 0.15746944 0.13675244 0.04653367 0.008395975 -0.13124554 0.09703605 0.08852402
-0.11125607 0.15464361 -0.07474823 0.09766024 0.07115884 -0.1135285 -0.16300839 0.054186042
0.17035295 0.014260449 0.15339841 0.09511239 0.05134769 -0.0970584 0.09306993 0.06044484
-0.09944746 0.09084144 0.13539433 -0.058930103 0.14849602 -0.09817378 -0.10801214 -0.07077091
-0.0058555733 -0.13816705 -0.12581336 0.16601312 0.12776573 0.08988453 0.16646273 -0.01295515
0.14229573 0.1278456 -0.0915056 0.10269675 0.122634515 -0.0899007 0.05841996 0.13073018
-0.040546127 0.026629744 -0.032594137 -0.03574434 -0.067624845 0.058767427 -0.10121536 -0.081707165
-0.030539192 -0.11409369 -0.01724468 0.022390297 -0.106458254 -0.0517992 -0.026879966 -0.022185512
-0.048984077 -0.021566385 -0.0711211 0.12553538 0.02599139 0.1264305 -0.09826311 0.15052912
0.1258597 -0.056792572 0.09141841 -0.08101892 -0.06410654 0.016832042 -0.07034146 -0.092299655
0.12969925 0.15660666 -0.041724816 -0.006888724 -0.021605905 -0.11505691 0.065615505 -0.12584586
00000000: d6f9 58bd 6776 a6bd bb35 413e c4be c63d
00000010: 7497 13bd 736c 353e d9ee 0e3d e0aa 533c
00000020: 77a7 393e 713c 9d3d aa0c bc3d 0623 363e
00000030: 6b51 e1bd bee6 2f3e 85d6 febc c0d8 433b
00000040: f75a a7bd 9098 23bd 9081 b53d 2525 e9bd
00000050: 5d1d bf3d 54cf 603d 9197 253e 75fc c93d
00000060: 62bb eb3d 6803 a6bd 83c2 023e 3416 a5bd
00000070: 8312 9d3d 0382 04be abba d03d 02fd dcbd
00000080: f5e5 2b3e 97c7 ab3d 23df 22bd 96cd 01be
00000090: 8c85 a63d 3f5e 1d3e cab4 c83d 1904 a5bd
000000a0: ef94 aabd 63e4 0b3e 74a2 acbd fd67 e43c
000000b0: 1533 5ebb a159 263c 4162 573d 4cea 5ebd
000000c0: 4478 10be df5a ef3c b7ce 143d f3b9 033e
000000d0: ae12 953c 5241 90bb fc38 df3d 37df 843d
000000e0: 8579 eb3d 927f eabc af50 373e e2d8 90bd
000000f0: a2b9 983d 6dbc 01bd 2853 c63d 64ab 083e
00000100: 1b16 e93d 0d8c 3d3c 0ffd 443d 87a8 0fbe
00000110: 7744 e4bd 4098 c83d 67c4 1d3d cec7 2a3d
00000120: 8c07 debd 2e09 a13d fb0f 073e 3de5 f93d
00000130: 758c 1e3e 5217 383c 65a5 e0bd c9be 923b
00000140: abdf 87ba 2c4b 2b3e ce4c 663b 1813 17be
00000150: 567d 03be 0852 1e3e 6fb5 1d3e 8557 f93d
00000160: b0b3 e53d 3cac 973d 4038 073e e3d1 61bd
00000170: b13f c1bd ae6d 8a3c 3357 a7bc 636c 0e3e
00000180: 93c2 373e 0938 ecbd 3dd0 e6bd b1de 55bd
00000190: d7dc 82bd 0e86 18be b2a9 d0bd bff5 233c
000001a0: d8f5 fabd 7f94 e0b9 2e21 73bc cf3e d93d
000001b0: d3d6 c4bc d03e 3a3e 3981 913d e9b3 3c3c
000001c0: 1d9b 5c3d 6e28 b03d 834b babc d366 2f3e
000001d0: f51e 1f3e bade c43d 0ae1 8a3d ef1d d73d
000001e0: e59b e1bc 1547 28bd f7cf 973d 2afc e6bd
000001f0: f895 38bd 0999 c63d d28d 2c3e 7647 d63d
00000200: 470c cabd 0bb3 8cbd 1346 d2bd 2189 243e
00000210: c7fb e3bd 827d 6d3c aa77 a4bd 4cec f03c
00000220: ba48 0a3c 4a52 1f3d f7fc 123e 4f15 bcbd
00000230: ff0f 42bd 6c6a 97bd fe7c 61bc 7138 393e
00000240: 998e aa3d b2c6 7d3c 6db6 62bd 3342 303e
00000250: c251 863d 0843 a23d daae cbbd 1d86 debd
00000260: 12f9 cbbd 18f8 edbd 62fd 0e3d 5058 b0bd
00000270: b12c b8bd a9fd d6bd 574c 8ebd 0e76 93bd
00000280: 8241 8b3d 3ba0 483d dc0f 303e c224 293e
00000290: c055 f33b fb70 f33d d787 b23d 9ca3 043e
000002a0: 9397 0abd ab3f 213e d508 0c3e 179a 3e3d
000002b0: 468f 093c 3b65 06be d6ba c63d 154c b53d
000002c0: 39da e3bd e55a 1e3e 9a15 99bd 1802 c83d
000002d0: babb 913d a181 e8bd aceb 26be 2ff2 5d3d
000002e0: 0171 2e3e a9a4 693c 7914 1d3e 49ca c23d
000002f0: f551 523d 8ec6 c6bd 739b be3d 0295 773d
00000300: 1cab cbbd 140b ba3d d0a4 0a3e b160 71bd
00000310: 570f 183e 560f c9bd 7835 ddbd 57f0 90bd
00000320: 1ce0 bfbb aa7b 0dbe 38d5 00be 58ff 293e
00000330: 05d5 023e 6115 b83d 3575 2a3e d641 54bc
00000340: f9b5 113e f5e9 023e 4a67 bbbd ac52 d23d
00000350: ce27 fb3d dc1d b8bd c549 6f3d 22de 053e
00000360: b213 26bd 9f26 da3c 6e81 05bd a868 12bd
00000370: e57e 8abd 1db6 703d 004a cfbd 1656 a7bd
00000380: 542d fabc f4a9 e9bd b744 8dbc db6b b73c
00000390: c906 dabd 662b 54bd 6033 dcbc 64be b5bc
000003a0: 87a3 48bd fdab b0bc f0a7 91bd 598c 003e
000003b0: e5eb d43c ff76 013e 2b3e c9bd 4e24 1a3e
000003c0: 5de1 003e 549f 68bd 9339 bb3d 3fed a5bd
000003d0: 4a4a 83bd 5ae3 893c 2f0f 90bd 9a07 bdbd
000003e0: e1cf 043e 7f5d 203e a4e7 2abd ceba e1bb
000003f0: defe b0bc f5a2 ebbd 6c61 863d bddd 00be

model.rnn.weight_hh_l0 f4 [160, 40]
0.087329954 -0.065599285 -0.11340851 0.091141716 -0.12839186 -0.021263085 0.12986489 0.019718148
0.08379982 -0.023613421 -0.027227156 0.13378063 -0.10370456 -0.08571552 -0.09505917 -0.06846746
-0.01633297 -0.017339854 0.013652122 -0.013471446 0.043111823 -0.051210634 -0.012344536 -0.116180815
0.108096026 0.028452588 -0.05157544 -0.07774503 0.15559052 0.024057286 0.1768521 -0.09311067
-0.10381039 -0.04503229 0.06128554 0.11115121 -0.12428013 0.111674294 -0.101443805 -0.100892276
0.10645482 -0.0971537 -0.15198842 0.101029515 0.08146891 0.0310732 0.0410796 -0.047107175
0.104048826 0.13565373 -0.15407044 -0.13451573 0.034716643 -0.060993236 -0.026504759 -0.019954272
-0.14633179 -0.10619154 0.1289785 -0.0064154165 0.15020931 0.04347498 -0.1658308 0.052842278
0.11513205 0.0047473502 0.0010989339 -0.052907392 0.170051 0.1352013 0.051101327 -0.09912156
0.08298723 0.15675277 -0.014548288 -0.12932377 -0.13227145 0.030620292 -0.14617166 -0.045405496
-0.13694096 -0.09324828 0.11015126 0.061490715 0.14257094 -0.08173723 -0.027570097 -0.095705226
-0.11856771 -0.11274116 -0.044011362 0.027064405 -0.03996425 -0.02015546 0.0021879994 -0.013532397
-0.12413249 -0.07984884 -0.08932912 0.09825275 0.21484184 -0.06296054 -0.20715043 0.086578004
0.044814393 -0.15791987 -0.065624535 0.2271144 -0.1498271 -0.13420051 0.12228966 0.17363505
-0.08116326 0.14724466 0.080095716 -0.06902218 -0.035478678 -0.12566678 -0.022665061 -0.052311692
0.04973654 0.18019837 -0.076386414 -0.06007321 0.13454916 0.044578027 0.17014885 -0.06701639
0.0919309 0.13487777 -0.04316589 -0.026090544 -0.19807427 -0.040972963 -0.02473138 -0.077762
-0.13746548 0.06027399 -0.0389417 -0.19362673 0.09240604 -0.0047873235 -0.08043277 -0.1074419
-0.04923932 -0.023341533 0.028286077 0.14439635 0.058875535 -0.03599913 -0.06259419 -0.121392295
0.024654262 0.14281812 -0.17534651 -0.14839138 0.038601212 0.086643115 0.0110239005 -0.019043269
0.12524466 -0.011561911 -0.068039894 -0.011460024 0.02366055 -0.008978972 -0.12733297 0.15697344
0.07042546 -0.09221308 -0.020633247 -0.056601375 -0.15257657 0.17901313 0.011579711 -0.0739656
0.105680466 0.1308646 -0.057154156 -0.12211411 0.029739307 0.016469955 0.05906003 -0.05667656
0.06503214 -0.040849842 -0.064646594 -0.08709948 0.17308818 0.013536665 0.10859547 -0.18366419
0.041392215 0.14239112 -0.05849599 0.10996046 0.14269538 -0.07890444 -0.08827731 0.13544646
-0.09383351 0.16884373 -0.15847892 -0.08621552 -0.038696986 -0.11452318 0.1964286 0.17022242
-0.17074361 -0.04586875 -0.14815229 -0.016841251 -0.15614884 0.031828303 0.11905388 -0.050754383
-0.06544034 -0.11535367 0.14759746 0.02841795 -0.12393062 -0.088645004 0.14976598 -0.12924257
0.013923615 0.15745568 -0.08473754 0.10453937 -0.048624642 0.113138676 -0.019291857 0.061942223
0.029871326 -0.010881387 -0.026165975 0.08793324 0.06574097 -0.09008279 0.11519862 0.1312904
0.15908165 0.17077866 -0.104865186 -0.0046445653 0.062419675 -0.1375805 0.18023065 0.14899859
0.09121446 0.04828826 -0.16431504 -0.038012803 0.06727583 0.17383231 0.062861025 -0.058146015
00000000: 0cda b23d eb58 86bd b942 e8bd 82a8 ba3d
00000010: 2879 03be ec2f aebc 4dfb 043e f487 a13c
00000020: 3d9f ab3d ef70 c1bc 7c0b dfbc cafd 083e
00000030: 0e63 d4bd 9e8b afbd 62ae c2bd ab38 8cbd
00000040: b8cc 85bc 4f0c 8ebc 26ad 5f3c 57b7 5cbc
00000050: 0696 303d 3ec2 51bd bd40 4abc 35f0 edbd
00000060: 7361 dd3d 6715 e93c c540 53bd c938 9fbd
00000070: 1f53 1f3e c913 c53c b818 353e cfb0 bebd
00000080: 8b9a d4bd c773 38bd 8c06 7b3d 3fa3 e33d
00000090: 9586 febd 7eb5 e43d c5c1 cfbd 9ca0 cebd
000000a0: fc04 da3d 85f8 c6bd daa2 1bbe 90e8 ce3d
000000b0: 2cd9 a63d 398d fe3c 1543 283d 74f3 40bd
000000c0: 8d17 d53d d0e8 0a3e a4c4 1dbe 7ebe 09be
000000d0: 0a33 0e3d 0bd4 79bd 8220 d9bc 2477 a3bc
000000e0: 00d8 15be f37a d9bd f112 043e 6a38 d2bb
000000f0: 78d0 193e d212 323d 8dcf 29be 2571 583d
00000100: 5aca eb3d a98f 9b3b 1a0a 903a 6cb5 58bd
00000110: d921 2e3e 3672 0a3e a04f 513d 3f00 cbbd
00000120: 35f5 a93d cc83 203e f15b 6ebc 736d 04be
00000130: 2b72 07be 68d7 fa3c 06ae 15be 1dfb 39bd
00000140: 403a 0cbe f4f8 bebd fc96 e13d b0dd 7b3d
00000150: 1efe 113e d965 a7bd afda e1bc 1a01 c4bd
00000160: a1d3 f2bd d6e4 e6bd 4245 34bd 2cb6 dd3c
00000170: 8eb1 23bd 101d a5bc 8a64 0f3b fdb6 5dbc
00000180: 2d39 febd ca87 a3bd 30f2 b6bd bd38 c93d
00000190: 80ff 5b3e 75f1 80bd 3e1f 54be cf4f b13d
000001a0: 4c8f 373d bfb5 21be 2866 86bd ad90 683e
000001b0: 466c 19be dc6b 09be 0073 fa3d 63cd 313e
000001c0: ec38 a6bd 4ec7 163e 3909 a43d 805b 8dbd
000001d0: 1752 11bd cbae 00be 14ac b9bc c944 56bd
000001e0: 8bb8 4b3d ec85 383e 7b70 9cbd 540f 76bd
000001f0: 41c7 093e 7397 363d 803b 2e3e e43f 89bd
00000200: 4546 bc3d 661d 0a3e b7ce 30bd d6bb d5bc
00000210: fbd3 4abe 44d3 27bd 7799 cabc af41 9fbd
00000220: c0c3 0cbe dce1 763d 5581 1fbd 1646 46be
00000230: 613f bd3d fbde 9cbb f0b9 a4bd 800a dcbd
00000240: 2baf 49bd be36 bfbc 34b8 e73c a3dc 133e
00000250: 7927 713d d373 13bd 6231 80bd 869c f8bd
00000260: bcf7 c93c ea3e 123e 098e 33be e9f3 17be
00000270: 4e1c 1e3d f271 b13d 979d 343c a100 9cbc
00000280: 2340 003e 2b6e 3dbc 8058 8bbd d3c2 3bbc
00000290: c5d3 c13c 8a1c 13bc 9363 02be a5bd 203e
000002a0: 393b 903d 36da bcbd 0e07 a9bc d8d6 67bd
000002b0: 083d 1cbe 384f 373e d4b8 3d3c 477b 97bd
000002c0: 006f d83d 5f01 063e 7a1a 6abd f616 fabd
000002d0: d99f f33c 00ec 863c eee8 713d ae25 68bd
000002e0: 922f 853d 2a52 27bd 6f65 84bd 3661 b2bd
000002f0: 073e 313e e3c8 5d3c 4d67 de3d 7712 3cbe
00000300: e28a 293d face 113e 7e99 6fbd f332 e13d
00000310: bd1e 123e a798 a1bd bcca b4bd 7ab2 0a3e
00000320: c92b c0bd 5fe5 2c3e 4c48 22be c391 b0bd
00000330: bb80 1ebd 218b eabd 9424 493e c94e 2e3e
00000340: 6ad7 2ebe dfe0 3bbd 3cb5 17be aaf6 89bc
00000350: 7be5 1fbe 655e 023d 85d2 f33d d4e3 4fbd
00000360: 9605 86bd 8c3e ecbd ca23 173e c3cc e83c
00000370: 56cf fdbd 838b b5bd 415c 193e 2a58 04be
00000380: e01f 643c 103c 213e e08a adbd bd18 d63d
00000390: a22a 47bd 40b5 e73d f509 9ebc 21b7 7d3d
000003a0: b6b4 f43c d847 32bc 075a d6bc 5816 b43d
000003b0: 34a3 863d 537d b8bd 41ed eb3d fe70 063e
000003c0: 4de6 223e 9ae0 2e3e 8fc3 d6bd 7031 98bb
000003d0: c6ab 7f3d e7e1 0cbe 628e 383e 1693 183e
000003e0: a6ce ba3d e9c9 453d 3442 28be 50b3 1bbd
000003f0: e9c7 893d 1901 323e 48bd 803d 842a 6ebd

model.rnn.bias_ih_l0 f4 [160]
-0.0012576501 0.10888612 -0.10323734 -0.0651513 0.1690813 -0.03660411 -0.065907046 0.06919734
-0.053475544 0.066132136 0.16265115 -0.098135374 0.0138400365 -0.11059145 0.12950428 0.04261546
0.11342921 -0.12663205 -0.10975606 0.010455255 -0.08538355 -0.011904884 0.15024717 0.035178233
-0.051825542 0.066301495 0.035600282 0.068954356 0.019990802 -0.0024607037 0.17227793 0.11855643
0.040997326 0.040907923 -0.095853746 -0.06073289 -0.10255926 -0.09825722 -0.091182806 0.18556288
-0.02598188 -0.09865475 -0.04720484 0.03296676 0.18261324 0.16209452 0.04813711 -0.003455826
0.00034226524 -0.09444002 0.12026955 0.13785294 -0.052846815 0.1320191 -0.022764564 0.061777025
0.04434409 -0.05566838 -0.009466323 0.13225347 -0.04354443 0.1671093 0.16808747 -0.06065097
0.09026117 0.13549614 0.088949144 -0.04629821 0.040629048 0.14132595 0.00032458623 0.046153914
-0.097270004 0.030101521 0.07399157 0.108132504 -0.0685184 0.06862109 0.124274075 -0.11230877
0.16880403 0.07978973 -0.16336113 -0.018447384 0.16582808 -0.100744374 0.104295895 0.123176485
0.0034971081 0.10680852 -0.14620806 -0.091662765 -0.122289285 0.08073959 -0.12842208 0.053181626
-0.12392406 0.150118 -0.026178064 -0.17854768 0.07033744 0.02358053 -0.06751099 0.12824164
-0.019140638 0.05007856 0.030420844 -0.11583482 0.087690026 -0.0837319 0.028276173 -0.16698675
-0.018532444 -0.12358267 -0.122215115 -0.05193494 0.034998402 -0.0972842 -0.077343985 0.012595804
-0.104014196 -0.08575609 0.08178135 0.06389773 0.12134745 0.16054586 0.05885678 0.12909111
0.09660738 -0.11782299 0.00929221 -0.045895983 0.13883401 0.12750585 0.031603094 0.17693861
-0.096047215 -0.10428015 0.0061541186 0.17729686 0.04482046 0.1635217 -0.12291704 -0.026246322
0.16917168 0.038586624 -0.068942375 -0.008107253 0.08991324 0.11933699 0.1698164 0.124145545
0.18734969 -0.013967222 0.20659102 -0.109785855 0.04083644 -0.028883446 -0.08185083 0.189845
00000000: bcd7 a4ba b0ff de3d 196e d3bd 0b6e 85bd
00000010: a623 2d3e 31ee 15bd 46fa 86bd 56b7 8d3d
00000020: 2c09 5bbd 4970 873d 068e 263e 33fb c8bd
00000030: 52c1 623c c57d e2bd c59c 043e 8c8d 2e3d
00000040: 934d e83d d5ab 01be c9c7 e0bd 854c 2b3c
00000050: 92dd aebd b40c 43bc 65da 193e 0d17 103d
00000060: 0547 54bd 14c9 873d 9ad1 113d f137 8d3d
00000070: c0c3 a33c c243 21bb a069 303e b7cd f23d
00000080: d0ec 273d 118f 273d f84e c4bd 0dc3 78bd
00000090: 970a d2bd 153b c9bd 0dbe babd 3204 3e3e
000000a0: f4d7 d4bc 800b cabd dd59 41bd 2708 073d
000000b0: f7fe 3a3e 1bfc 253e 6b2b 453d 247b 62bb
000000c0: 1072 b339 c569 c1bd e24f f63d 5229 0d3e
000000d0: e775 58bd 0430 073e c07c babc e809 7d3d
000000e0: 26a2 353d 8704 64bd a318 1bbc 746d 073e
000000f0: a55b 32bd b31e 2b3e 1f1f 2c3e 276d 78bd
00000100: d9da b83d 80bf 0a3e f82a b63d 31a3 3dbd
00000110: a56a 263d c0b7 103e 3a2d aa39 e30b 3d3d
00000120: 7f35 c7bd 7797 f63c e488 973d 9374 dd3d
00000130: 6053 8cbd 3789 8c3d 6883 fe3d 2402 e6bd
00000140: f7da 2c3e cc68 a33d 2448 27be f81e 97bc
00000150: d6ce 293e 1153 cebd 1699 d53d f443 fc3d
00000160: bd2f 653b 6dbe da3d 91b7 15be b0b9 bbbd
00000170: ce72 fabd cc5a a53d 1481 03be fad4 593d
00000180: e6cb fdbd 88b8 193e 6173 d6bc 34d5 36be
00000190: 130d 903d f52b c13c 3443 8abd c751 033e
000001a0: d4cc 9cbc 2d1f 4d3d 2235 f93c ce3a edbd
000001b0: d496 b33d a17b abbd 6fa3 e73c 93fe 2abe
000001c0: 5ad1 97bc e918 fdbd eb4b fabd bbb9 54bd
000001d0: 7c5a 0f3d f03c c7bd 8666 9ebd a25e 4e3c
000001e0: 6505 d5bd e4a0 afbd fb7c a73d d0dc 823d
000001f0: 0385 f83d 2266 243e cf13 713d 7630 043e
00000200: 17da c53d 2e4d f1bd 5b3e 183c 6dfd 3bbd
00000210: 812a 0e3e e590 023e 3f72 013d 652f 353e
00000220: 67b4 c4bd d590 d5bd 7da8 c93b 4f8d 353e
00000230: a995 373d 3c72 273e eebb fbbd 8702 d7bc
00000240: 573b 2d3e 020d 1e3d a931 8dbd 49d4 04bc
00000250: 6f24 b83d f466 f43d 5ae4 2d3e 0540 fe3d
00000260: 99d8 3f3e c6d6 64bc 998c 533e 68d7 e0bd
00000270: 1c44 273d fa9c ecbc 68a1 a7bd ba66 423e

model.rnn.bias_hh_l0 f4 [160]
-0.09950069 0.04361655 -0.09987728 -0.04587354 -0.029658038 -0.10755678 -0.024950346 0.083246045
-0.099555455 0.12899068 0.07924934 -0.024373973 -0.0072987652 -0.033019572 -0.118839875 -0.11926595
-0.12650868 0.13130887 0.19273214 0.041354757 0.16161221 -0.09728197 0.04955552 -0.11498168
0.06593326 -0.09493969 -0.11665003 -0.08687208 0.0001163746 -0.045798957 0.16693516 -0.0063741677
0.15324017 0.029674584 -0.025292436 -0.054059107 0.16397037 -0.095326096 -0.05710365 -0.07413093
-0.12804677 0.013981631 -0.12428333 0.12525526 -0.043988135 0.15170509 -0.083141975 -0.021115812
0.027400983 -0.07153108 -0.0074631097 0.05647808 -0.12889332 0.10361426 0.012505404 0.09365584
-0.12887578 0.06511282 -0.0016174854 0.11583563 0.15911673 0.01147699 -0.062913306 0.099571206
-0.05488743 0.082898915 0.18056534 -0.061925463 0.09327162 0.03897248 0.034293704 0.080169395
-0.046603654 0.1200387 0.123581566 -0.10770803 0.04802905 0.07946449 0.18264328 0.050116528
0.03386502 0.14182764 0.08058498 -0.08460489 0.012211728 -0.017499156 0.16193067 0.05324932
-0.039460957 -0.06311869 -0.08111673 -0.10389869 -0.03856939 -0.051243875 0.09285134 0.10725075
-0.08989972 -0.058460698 -0.05847426 0.034777407 -0.12483731 0.07301042 -0.08755788 -0.061126485
0.055606868 0.14029874 0.11091431 0.12943006 -0.08387325 0.1619759 0.07152395 -0.058931004
-0.07053722 -0.11848568 -0.17035374 -0.04372771 0.008027179 0.010489231 -0.18519542 0.10264263
0.029085912 -0.088194914 0.102148145 -0.09085816 0.072703116 0.16544053 0.1640752 0.14669748
0.16897218 0.14188969 -0.121254355 -0.005512677 -0.0144322235 0.033256654 -0.07471335 -0.036161058
0.0879903 -0.11067202 0.039111435 -0.04988499 -0.03295839 -0.09079376 -0.022605887 -0.036883827
0.04294036 -0.050179187 0.028469335 0.134846 0.050193403 0.08236039 -0.087434046 0.12884626
0.11300885 0.099415764 0.080777146 0.1689616 -0.08011896 0.1813045 0.14502881 0.039470255
00000000: 05c7 cbbd 44a7 323d 768c ccbd e5e5 3bbd
00000010: 6af5 f2bc bb46 dcbd ab64 ccbc e77c aa3d
00000020: bbe3 cbbd 2216 043e 7a4d a23d edab c7bc
00000030: 7b2a efbb 883f 07bd 5262 f3bd b541 f4bd
00000040: 7e8b 01be d575 063e 935b 453e 9b63 293d
00000050: ac7d 253e c53b c7bd bbfa 4a3d 847b ebbd
00000060: 0408 873d bd6f c2bd 36e6 eebd fde9 b1bd
00000070: 230e f438 b097 3bbd 0df1 2a3e 65de d0bb
00000080: feea 1c3e 1d18 f33c 1532 cfbc 156d 5dbd
00000090: d9e7 273e 543a c3bd 84e5 69bd f5d1 97bd
000000a0: b11e 03be 3613 653c 4288 febd ea42 003e
000000b0: e72c 34bd 9458 1b3e 5746 aabd 11fb acbc
000000c0: 0778 e03c e37e 92bd 1a8d f4bb 8f55 673d
000000d0: 9cfc 03be b733 d43d 77e3 4c3c a2ce bf3d
000000e0: 03f8 03be df59 853d ce01 d4ba 3b3b ed3d
000000f0: 7fef 223e fc09 3c3c b1d8 80bd fdeb cb3d
00000100: a4d1 60bd e8c6 a93d 1fe6 383e 8ea5 7dbd
00000110: 3105 bf3d 9ba1 1f3d 8e77 0c3d da2f a43d
00000120: 79e3 3ebd dad6 f53d 5518 fd3d 0796 dcbd
00000130: 1cba 443d 47be a23d d706 3b3e fd46 4d3d
00000140: 0cb6 0a3d 443b 113e bd09 a53d 5445 adbd
00000150: b313 483c 645a 8fbc 27d1 253e f51b 5a3d
00000160: d0a1 21bd 5f44 81bd 8720 a6bd d6c8 d4bd
00000170: f0fa 1dbd 19e5 51bd d828 be3d 48a6 db3d
00000180: 581d b8bd 7c74 6fbd b582 6fbd c172 0e3d
00000190: b4aa ffbd 7d86 953d 8c51 b3bd c45f 7abd
000001a0: 07c4 633d 79aa 0f3e 0b27 e33d 5089 043e
000001b0: bdc5 abbd 03dd 253e 267b 923d a361 71bd
000001c0: d175 90bd 9fa8 f2bd 3671 2ebe d41b 33bd
000001d0: 6e84 033c 06db 2b3c dea3 3dbe 4d36 d23d
000001e0: 9445 ee3c 899f b4bd 0c33 d13d d813 babd
000001f0: 5fe5 943d 3e69 293e 5403 283e dd37 163e
00000200: 0b07 2d3e 884b 113e 3454 f8bd b0a3 b4bb
00000210: 2275 6cbc 2138 083d 5003 99bd 9e1d 14bd
00000220: 4234 b43d 03a8 e2bd 5033 203d 3454 4cbd
00000230: 60ff 06bd 14f2 b9bd fb2f b9bc 7f13 17bd
00000240: 3be2 2f3d b188 4dbd 8638 e93c 1215 0a3e
00000250: 9997 4d3d 90ac a83d 9f10 b3bd 46f0 033e
00000260: 2f71 e73d 7e9a cb3d 7d6e a53d 4504 2d3e
00000270: 6915 a4bd e3a7 393e 6f82 143e 90ab 213d

model.rnn.weight_ih_l1 f4 [160, 40]
-0.042140298 -0.08626382 0.054526627 0.07918096 -0.13832624 -0.111290336 0.071260646 0.074904084
0.13312568 -0.05824824 -0.025328107 0.09271554 -0.1480515 -0.057166778 -0.1407459 -0.054153096
-0.067941524 0.045806684 0.029907482 -0.050672546 0.044594802 0.08726257 0.08833202 -0.06493226
0.10185254 0.06967013 -0.1055814 0.005895148 -0.13319764 -0.14514217 -0.05895634 -0.08134812
-0.13058256 0.009531715 -0.14322862 0.06355972 -0.13292092 0.02274076 0.069536716 -0.13557872
0.04558879 0.030235423 0.11684394 0.07626069 -0.11696117 0.0016130338 0.024094436 -0.12525892
0.0027426195 -0.06985279 0.0978895 -0.026170636 -0.08192145 -0.0062791514 -0.08077308 -0.078394964
-0.006522641 0.024046931 -0.032602094 -0.024403883 0.043179948 -0.12031079 -0.01568118 -0.021786837
-0.037974272 0.1680634 -0.12969485 0.17789263 -0.036033127 0.16414301 -0.12665612 0.123173006
-0.012687463 -0.014995795 -0.01668134 0.09930426 0.1618016 0.08068992 -0.123405226 0.09028035
0.11821956 -0.10698802 -0.061974738 -0.09641689 -0.038760073 0.037757363 -0.031428356 0.063307956
-0.21784 0.13015488 -0.005137164 -0.105002105 0.11941235 0.16051695 -0.10266147 0.0014528459
0.08428353 0.027806483 -0.062305566 -0.09020298 0.06490809 -0.14221016 -0.08676536 0.076844394
-0.038161986 -0.08712726 0.05600068 0.109073356 0.14393896 -0.031620797 -0.06968366 0.03780329
-0.01628688 0.0059907464 0.0013280098 0.14572561 0.041590683 0.14680006 0.041579567 -0.059364885
-0.04888882 0.0056689573 0.027973622 -0.056787282 -0.07808201 -0.015030842 0.11665524 -0.0119601805
-0.05736235 -0.016408196 0.11842557 0.08932346 0.024862831 0.0983754 -0.16613364 -0.09810048
-0.03789841 0.010856606 0.017860228 0.015502345 -0.14501514 0.046140574 0.12416629 0.16253456
0.12519757 0.1649586 0.07637743 0.12371467 -0.11527894 -0.045657814 -0.12606356 -0.08441869
0.12507193 -0.009000794 -0.15774581 -0.10864841 0.12539946 0.12662615 -0.11782543 -0.0017799106
-0.0022872668 0.046145163 -0.089583546 0.060814053 -0.022903709 -0.11209109 -0.05424593 0.017574485
0.20495178 0.0116610145 0.03669262 0.030291917 -0.0608251 -0.059406765 -0.04775843 0.10299638
0.13528746 -0.08883786 0.06449687 -0.0505549 0.010108697 0.091924764 -0.103770256 0.07837826
0.07982608 -0.13390373 0.01557773 -0.22124134 0.11567332 -0.14721026 0.016383968 0.025716102
0.06413616 0.12219662 0.017267006 0.038814303 0.13223712 0.108060315 0.03912491 -0.11998653
-0.09327136 0.09877243 0.17031361 -0.13069943 0.065732256 -0.036380928 -0.14738339 0.11744412
-0.055104475 0.07818677 -0.022656977 0.08587194 -0.055833213 0.04086454 0.15110941 0.0046628388
0.0545616 -0.1350201 -0.10954442 0.15934046 0.06311005 -0.03492154 -0.12277787 0.050341625
0.0657714 -0.08138292 -0.10722819 0.09896254 0.048418142 0.1280697 0.12402451 0.063966125
0.06058854 -0.01909572 0.057321727 0.13102113 -0.096141726 -0.13542473 0.105940424 0.1119368
0.1470615 0.096107624 0.14443274 -0.11146063 0.046196412 -0.07564507 -0.122194864 0.15014951
-0.033236925 0.05496229 0.032419153 0.043943144 0.105313495 -0.054443594 0.14067991 0.060172938
00000000: 4e9b 2cbd 16ab b0bd 5057 5f3d a129 a23d
00000010: 65a5 0dbe 30ec e3bd 1af1 913d 5067 993d
00000020: 1952 083e b595 6ebd e47c cfbc a5e1 bd3d
00000030: d09a 17be b627 6abd b11f 10be a3cf 5dbd
00000040: ed24 8bbd ca9f 3b3d 8900 f53c 048e 4fbd
00000050: 0aa9 363d b8b6 b23d 6be7 b43d 34fb 84bd
00000060: 1198 d03d 37af 8e3d 103b d8bd 162c c13b
00000070: f664 08be 26a0 14be 347c 71bd d899 a6bd
00000080: 6fb7 05be e92a 1c3c 86aa 12be 992b 823d
00000090: 6c1c 08be d54a ba3c 4469 8e3d 26d5 0abe
000000a0: 50bb 3a3d 47b0 f73c e04b ef3d 912e 9c3d
000000b0: 5789 efbd 6f6c d33a b261 c53c e043 00be
000000c0: 85bd 333b fb0e 8fbd 4a7a c83d cd63 d6bc
000000d0: 6fc6 a7bd 57c1 cdbb 5b6c a5bd 8a8d a0bd
000000e0: e1bb d5bb 12fe c43c c689 05bd a7ea c7bc
000000f0: 75dd 303d 8165 f6bd d175 80bc 4f7a b2bc
00000100: e98a 1bbd d018 2c3e bace 04be 7c29 363e
00000110: 7997 13bd 1b15 283e 24b2 01be 2142 fc3d
00000120: 14df 4fbc ecb0 75bc 4ea7 88bc 0860 cb3d
00000130: 52af 253e c240 a53d e1bb fcbd e7e4 b83d
00000140: 191d f23d 891c dbbd 39d9 7dbd 3876 c5bd
00000150: e2c2 1ebd 77a7 1a3d 05bb 00bd 9aa7 813d
00000160: 7311 5fbe 5247 053e a855 a8bb 580b d7bd
00000170: 768e f43d 8e5e 243e 2d40 d2bd 6b6d be3a
00000180: d89c ac3d 6cca e33c 1f34 7fbd 57bc b8bd
00000190: 88ee 843d 8a9f 11be 09b2 b1bd 9860 9d3d
000001a0: be4f 1cbd c76f b2bd f860 653d da61 df3d
000001b0: bc64 133e cf84 01bd 4fb6 8ebd 9fd7 1a3d
000001c0: 106c 85bc 064e c43b 9d10 ae3a 1839 153e
000001d0: fe5a 2a3d c152 163e 564f 2a3d 9828 73bd
000001e0: a53f 48bd a9c2 b93b f028 e53c c899 68bd
000001f0: 76e9 9fbd ec43 76bc f1e8 ee3d a2f4 43bc
00000200: c9f4 6abd 7b6a 86bc 1b89 f23d 38ef b63d
00000210: 23ad cb3c 0b79 c93d f01e 2abe e8e8 c8bd
00000220: 5d3b 1bbd e8df 313c 9d4f 923c 8cfd 7d3c
00000230: d97e 14be e6fd 3c3d e54a fe3d 766f 263e
00000240: cb33 003e e8ea 283e c56b 9c3d 1e5e fd3d
00000250: 5d17 ecbd b003 3bbd ce16 01be b5e3 acbd
00000260: db12 003e 1178 13bc 1e88 21be 0f83 debd
00000270: b768 003e 49aa 013e 764e f1bd e44b e9ba
00000280: f8e5 15bb b602 3d3d 9477 b7bd 2818 793d
00000290: 8fa0 bbbc 0390 e5bd fb30 5ebd 5ef8 8f3c
000002a0: e1de 513e d70d 3f3c 004b 163d c126 f83c
000002b0: bd23 79bd 8254 73bd 589e 43bd c4ef d23d
000002c0: cc88 0a3e a0f0 b5bd ef16 843d a812 4fbd
000002d0: f39e 253c 0d43 bc3d 8085 d4bd c884 a03d
000002e0: db7b a33d 0f1e 09be bc39 7f3c 178d 62be
000002f0: 22e6 ec3d 49be 16be ac37 863c 93aa d23c
00000300: d259 833d 3942 fa3d 8973 8d3c bffb 1e3d
00000310: 2b69 073e ba4e dd3d 7141 203d 7fbb f5bd
00000320: 0e05 bfbd 3349 ca3d b166 2e3e 12d6 05be
00000330: a29e 863d 2b04 15bd aceb 16be 8b86 f03d
00000340: 3bb5 61bd 6320 a03d 209b b9bc a1dd af3d
00000350: 5eb1 64bd 9361 273d 6dbc 1a3e baca 983b
00000360: fc7b 5f3d b642 0abe d358 e0bd 252a 233e
00000370: d83f 813d e409 0fbd f772 fbbd 0533 4e3d
00000380: 28b3 863d 17ac a6bd 749a dbbd dfac ca3d
00000390: 1a52 463d b424 033e 9000 fe3d ac00 833d
000003a0: b02b 783d a16e 9cbc 30ca 6a3d 672a 063e
000003b0: f4e5 c4bd c8ac 0abe 4bf7 d83d 1f3f e53d
000003c0: 4a97 163e 13d4 c43d 2de6 133e 7945 e4bd
000003d0: 7338 3d3d cdeb 9abd 4d41 fabd cbc0 193e
000003e0: 7123 08bd 2320 613d f2c9 043d bafd 333d
000003f0: 9aae d73d 3f00 5fbd 650e 103e e677 763d

model.rnn.weight_hh_l1 f4 [160, 40]
0.03521702 -0.14841436 0.08672602 0.045290966 0.012840989 -0.15239209 0.038466595 0.09626997
0.10757559 0.07488439 0.04478578 0.058569834 0.022702126 0.0002581658 -0.17437911 -0.0680403
0.09056684 -0.088844076 -0.10332298 0.047145788 0.05512373 0.027289633 0.08649049 0.15475163
0.12690474 0.07104664 0.012210566 -0.12704971 -0.1503301 -0.066462494 0.15158543 -0.098461345
-0.07405508 0.0009980854 0.10954819 0.031118592 -0.024330588 0.09404481 -0.1240995 0.046801623
-0.1748342 0.053706605 -0.061606098 -0.14598632 -0.07790928 0.11506252 -0.0146015845 -0.08882592
0.12638967 0.16751692 0.020864032 0.03046395 0.044070154 -0.05947987 -0.10088036 -0.04376792
-0.0636571 0.014528455 -0.028903766 0.108775415 0.05183662 -0.07342499 0.013109576 0.14581648
0.034136627 -0.077331 0.09248368 -0.07448597 -0.072544344 -0.03708573 -0.06199877 -0.13929753
0.15824336 -0.0428255 -0.036571052 0.09474966 0.0056630885 -0.05975761 -0.042307172 0.10461309
-0.13374273 0.06593562 0.014986573 0.12800224 -0.10408139 0.059720177 -0.10817075 -0.034020774
-0.010337491 -0.015091238 -0.051442735 -0.06408438 0.06612527 -0.029936835 -0.05060044 0.135789
-0.15656456 0.094929084 -0.12981606 0.0069818296 -0.0012740006 -0.028635237 0.030480238 0.017864894
0.11370186 0.08789261 0.1222939 0.094095685 -0.11146306 -0.1351331 -0.055855922 -0.045053244
0.041059766 0.09873059 -0.14578861 -0.09406682 -0.15048468 0.020248957 0.09793774 0.039399553
-0.08077422 -0.15546641 -0.030896245 0.038235944 -0.05994024 0.10497839 0.10318036 -0.019863386
0.0023554247 0.08032559 0.07703668 0.026857996 -0.016037636 -0.17257331 -0.10197803 0.031927522
-0.14243469 -0.003660836 0.16994967 -0.0031744835 0.010884508 -0.08846348 0.031516537 -0.0066744625
0.021408906 -0.06276036 0.14316702 0.018296478 0.08571644 -0.148477 0.12700161 0.066549346
0.008181703 0.08703637 -0.043161098 0.01761654 -0.05593089 0.09304305 0.027094156 0.021257913
0.028117528 0.047057446 0.13994351 -0.16134782 0.047190476 -0.0022681362 -0.045127247 0.05767901
0.1439486 0.029988647 0.15251748 -0.09889977 -0.066729225 0.0781532 0.07849303 0.06406373
-0.13506718 0.050662156 -0.0033295988 -0.015170663 0.0745864 -0.11798265 -0.15387337 -0.13996404
-0.13296814 0.010194186 0.0246371 0.09706966 -0.03913231 -0.030731047 0.124164656 -0.15953565
-0.13216299 0.13633886 0.008051553 0.09650432 0.12194781 -0.020208646 0.037279043 0.08635027
0.112052225 0.08654166 -0.0075525707 0.041805137 -0.1136789 0.14941406 0.06386055 -0.08322831
0.018439004 0.14000016 -0.07789649 0.07418585 -0.13443536 0.11782044 0.020476565 -0.13137017
0.109834045 0.000504562 -0.018985517 -0.018981121 0.018432438 0.080702305 -0.12943996 0.07075015
0.029252863 -0.042066667 0.0965578 0.0029397036 -0.11293555 0.08927488 -0.08141729 0.12989931
0.024208548 0.06334379 -0.17055948 -0.15133345 -0.030066395 -0.13406576 0.0863442 0.103695385
-0.016994426 0.14196715 -0.1398719 -0.11479393 0.16751534 0.118618675 0.0050205304 0.14406893
0.08544355 0.0051006586 -0.05826297 0.07246261 0.02861963 0.08909467 0.10716171 -0.0085196365
00000000: b93f 103d eff9 17be 699d b13d 0583 393d
00000010: 0363 523c ac0c 1cbe 268f 1d3d 3129 c53d
00000020: 9750 dc3d fd5c 993d 4b71 373d ece6 6f3d
00000030: cff9 b93c 6d5a 8739 7090 32be b658 8bbd
00000040: 1b7b b93d e2f3 b5bd 009b d3bd f11b 413d
00000050: 6cc9 613d 828e df3c ed21 b13d 3677 1e3e
00000060: 51f3 013e e780 913d d30e 483c 5219 02be
00000070: 22f0 19be 7d1d 88bd 3639 1b3e 1aa6 c9bd
00000080: 31aa 97bd 30d2 823a cd5a e03d 6bec fe3c
00000090: f150 c7bc 919a c03d e127 febd 0fb3 3f3d
000000a0: bd07 33be 75fb 5b3d ad56 7cbd 707d 15be
000000b0: e78e 9fbd e6a5 eb3d 7c3b 6fbc 5dea b5bd
000000c0: 4b6c 013e 8e89 2b3e 0ceb aa3c 898f f93c
000000d0: e882 343d 2aa1 73bd 5d9a cebd fe45 33bd
000000e0: a75e 82bd c208 6e3c 97c7 ecbc a5c5 de3d
000000f0: a352 543d d75f 96bd 8cc9 563c ea50 153e
00000100: d9d2 0b3d b75f 9ebd 1568 bd3d 1a8c 98bd
00000110: 2192 94bd 35e7 17bd 6cf2 7dbd 03a4 0ebe
00000120: 8c0a 223e cb69 2fbd 87cb 15bd 1c0c c23d
00000130: 6e91 b93b 65c4 74bd 494a 2dbd 633f d63d
00000140: dbf3 08be 4109 873d 3e8a 753c 0513 033e
00000150: a028 d5bd 259d 743d a088 ddbd 5e59 0bbd
00000160: 945e 29bc 3d41 77bc 9eb5 52bd ac3e 83bd
00000170: b06c 873d 183e f5bc 6842 4fbd 460c 0b3e
00000180: 7652 20be 2e6a c23d 80ee 04be d5c7 e43b
00000190: 5efc a6ba 7294 eabc b1b1 f93c 6659 923c
000001a0: 85dc e83d 0a01 b43d 3975 fa3d 3db5 c03d
000001b0: bf46 e4bd 5560 0abe 2ec9 64bd c089 38bd
000001c0: 492e 283d 4333 ca3d 9c49 15be 1ba6 c0bd
000001d0: a818 1abe 24e1 a53c 9593 c83d 6d61 213d
000001e0: f46c a5bd 9632 1fbe 1f1a fdbc 4b9d 1c3d
000001f0: e683 75bd e9fe d63d 3950 d33d 8ab8 a2bc
00000200: 785d 1a3b be81 a43d 68c5 9d3d 4d05 dc3c
00000210: 5c61 83bc 0fb7 30be dbd9 d0bd 6fc6 023d
00000220: 66da 11be a3ea 6fbb 4907 2e3e ff0a 50bb
00000230: ef54 323c 572c b5bd 7c17 013d 73b5 dabb
00000240: bb61 af3c 8188 80bd 609a 123e 7fe2 953c
00000250: 1a8c af3d 5b0a 18be b60c 023e 064b 883d
00000260: 8d0c 063c 2040 b23d b1c9 30bd 9050 903c
00000270: ca17 65bd 5b8d be3d 90f4 dd3c 1325 ae3c
00000280: bb56 e63c 4fbf 403d 5a4d 0f3e 5d38 25be
00000290: cd4a 413d 03a5 14bb 59d7 38bd d340 6c3d
000002a0: 4367 133e c0aa f53c 8b2d 1c3e f68b cabd
000002b0: 55a9 88bd c90e a03d f4c0 a03d d833 833d
000002c0: 0d4f 0abe 1f83 4f3d 6635 5abb 5f8e 78bc
000002d0: c1c0 983d e3a0 f1bd fb90 1dbe bc52 0fbe
000002e0: cd28 08be 8405 273c bed3 c93c 75cc c63d
000002f0: 3349 20bd adbf fbbc 0a4a fe3d 505d 23be
00000300: bc55 07be 6a9c 0b3e a9ea 033c 0fa4 c53d
00000310: c6bf f93d 9a8c a5bc e9b1 183d 69d8 b03d
00000320: a37b e53d c13c b13d 8e7b f7bb dd3b 2b3d
00000330: 7cd0 e8bd 0000 193e 52c9 823d 9b73 aabd
00000340: 650d 973c 345c 0f3e 3288 9fbd c0ee 973d
00000350: 6ca9 09be d84b f13d 78be a73c e785 06be
00000360: acf0 e03d 9544 043a 8487 9bbc 4c7e 9bbc
00000370: a0ff 963c 4047 a53d e98b 04be 74e5 903d
00000380: b3a3 ef3c 194e 2cbd 19c0 c53d 0ba8 403b
00000390: c14a e7bd c0d5 b63d 1cbe a6bd 5304 053e
000003a0: 0151 c63c 64ba 813d 25a7 2ebe 28f7 1abe
000003b0: cd4d f6bc 8948 09be 3ad5 b03d 3f5e d43d
000003c0: e537 8bbc d65f 113e 943a 0fbe 1419 ebbd
000003d0: 2489 2b3e 59ee f23d 4383 a43b ce86 133e
000003e0: 07fd ae3d 6d23 a73b 27a5 6ebd 4767 943d
000003f0: b773 ea3c 4477 b63d 9977 db3d f295 0bbc

model.rnn.bias_ih_l1 f4 [160]
0.042275175 0.18069424 -0.022907477 -0.009555726 0.067680195 -0.08293748 0.10884475 -0.110878766
-0.113330565 0.14830776 0.20582396 -0.02122383 -0.10863248 -0.02168305 -0.063548975 0.11280233
-0.07801148 -0.09411902 0.10012283 0.0200552 0.03563569 0.1619081 -0.069395095 0.1082247
0.12898223 0.08645451 -0.16504437 -0.0063859303 0.06462887 -0.037952982 -0.012053817 0.063066155
0.0023422423 0.14752865 -0.088602796 0.042749166 0.15001966 0.14883912 -0.0007005018 -0.09409829
0.04841521 0.0310528 -0.10960027 -0.005019924 -0.15982439 -0.08172896 0.015881028 0.03430347
0.14603758 -0.049829427 0.16439582 0.014344515 -0.0033969113 0.007817897 -0.021281956 -0.050945874
-0.014547468 0.15287946 -0.14284469 0.045682643 -0.10293333 0.012685033 0.03130537 0.05730803
-0.061762273 0.15338182 -0.14723764 0.059960134 -0.07369243 0.14273062 0.1269512 0.00603519
-0.10277272 0.12209289 -0.041553494 -0.0066922265 -0.12531531 -0.10523119 0.05484824 0.13158716
0.060555775 -0.13011749 -0.072473235 0.03779092 0.12749119 -0.090180755 -0.078279845 0.1717214
0.1542771 0.012680034 0.08128273 -0.050347816 0.085287705 -0.0015497891 -0.13535686 -0.04202327
-0.18468979 -0.15868337 -0.09117189 -0.08556718 0.015848717 -0.04744049 -0.07460407 0.060656134
-0.107415356 0.030113341 -0.16815776 0.0030133864 0.08391629 0.07893425 0.1513653 0.14146361
0.16262121 0.094395675 0.07634214 -0.018112736 -0.10658779 0.05316477 -0.1160747 -0.023538217
0.077572554 0.12360946 0.091330685 0.011821394 0.119897954 -0.17070149 0.0051725316 0.08229618
0.037130643 0.054346345 0.10540217 -0.05598627 0.113009684 -0.08334428 0.01706367 0.11031896
0.116747335 0.09179729 -0.016055776 0.057841297 0.11758219 0.0035354474 -0.041484274 -0.0136061935
0.009700876 0.11450794 -0.16420105 0.0928299 -0.044436913 0.16379403 0.08787754 -0.011582804
0.04442638 0.18372291 0.09800266 0.103214316 0.098086976 0.1491747 0.09743866 0.07532455
00000000: bc28 2d3d e907 393e 76a8 bbbc 9f8f 1cbc
00000010: ea9b 8a3d 20db a9bd ffe9 de3d 6814 e3bd
00000020: db19 e8bd fddd 173e 84c3 523e 99dd adbc
00000030: b57a debd a7a0 b1bc f725 82bd e804 e73d
00000040: 7cc4 9fbd 79c1 c0bd 330d cd3d ce4a a43c
00000050: bbf6 113d 3dcb 253e 041f 8ebd e9a4 dd3d
00000060: eb13 043e 100f b13d 6401 29be 1141 d1bb
00000070: 245c 843d 9674 1bbd 5f7d 45bc d428 813d
00000080: 4e80 193b c011 173e 6275 b5bd c019 2f3d
00000090: c19e 193e 4869 183e e1a1 37ba 9bb6 c0bd
000000a0: 074f 463d 7162 fe3c 1b76 e0bd 2d7e a4bb
000000b0: 01a9 23be 8361 a7bd ee18 823c cc81 0c3d
000000c0: e08a 153e f119 4cbd 6157 283e 4205 6b3c
000000d0: b79e 5ebb a316 003c 7f57 aebc 9fac 50bd
000000e0: 8158 6ebc 6f8c 1c3e e145 12be b91d 3b3d
000000f0: b6ce d2bd e2d4 4f3c 0f3a 003d d3bb 6a3d
00000100: 70fa 7cbd 2010 1d3e 77c5 16be c298 753d
00000110: 0fec 96bd fa27 123e 7fff 013e d8c2 c53b
00000120: 817a d2bd d60b fa3d ff33 2abd 774a dbbb
00000130: a852 00be 7383 d7bd 8ca8 603d c9be 063e
00000140: 5509 783d 853d 05be d96c 94bd a7ca 1a3d
00000150: 0d8d 023e b0b0 b8bd 2f51 a0bd bcd7 2f3e
00000160: d1fa 1d3e ebbf 4f3c 8f77 a63d 8339 4ebd
00000170: 52ab ae3d 4b22 cbba fd9a 0abe 9820 2cbd
00000180: 521f 3dbe e57d 22be 54b8 babd d83d afbd
00000190: 2bd5 813c f650 42bd 05ca 98bd 9172 783d
000001a0: 95fc dbbd 41b0 f63c 8c31 2cbe 3c7c 453b
000001b0: 4edc ab3d 48a8 a13d 81ff 1a3e d6db 103e
000001c0: 2d86 263e 8552 c13d 4559 9c3d 2961 94bc
000001d0: b34a dabd 4dc3 593d 93b8 edbd 38d3 c0bc
000001e0: 5cde 9e3d f526 fd3d 950b bb3d 85ae 413c
000001f0: 0f8d f53d 5fcc 2ebe 577e a93b e68a a83d
00000200: 4d16 183d 469a 5e3d 18dd d73d dc51 65bd
00000210: 9f71 e73d 68b0 aabd 1cc9 8b3c e8ee e13d
00000220: 3a19 ef3d 3800 bc3d 6787 83bc ffea 6c3d
00000230: eece f03d f7b2 673b 6aeb 29bd 83ec 5ebc
00000240: 6cf0 1e3c 2483 ea3d 5224 28be 9a1d be3d
00000250: 7b03 36bd 9fb9 273e 24f9 b33d cdc5 3dbc
00000260: 70f8 353d dc21 3c3e 9eb5 c83d 0762 d33d
00000270: d3e1 c83d 41c1 183e ec8d c73d c243 9a3d

model.rnn.bias_hh_l1 f4 [160]
0.015317724 0.017682146 0.06707559 -0.0552334 0.13822758 0.13899894 0.09681893 -0.09959573
0.13328938 -0.114414506 0.20455182 0.06065556 0.19332118 0.14193173 -0.041526124 0.15188518
0.1717665 0.055841204 0.006873111 0.0030092052 0.05029003 -0.078359075 -0.10738449 0.076886594
0.11763465 0.02738443 -0.07537492 -0.007882484 0.025143573 0.16074617 0.055987924 0.1618128
0.1260143 0.16714914 0.12266199 0.034719676 -0.109212235 -0.105229385 0.16139735 0.056486394
-0.07305755 -0.032273296 -0.022103552 -0.07450584 -0.020691965 0.124527976 -0.027938243 0.16608995
0.06923091 0.13477513 -0.0913293 0.061876465 -0.09242131 -0.04216639 0.120175496 -0.11919608
-0.08593154 0.08475837 0.06166529 0.03984328 0.058401395 0.17792839 0.17880894 0.15963599
0.019037496 0.045583352 -0.0878664 -0.14312303 0.13572966 0.15595564 0.05598325 -0.14189753
0.0689819 0.19308542 0.10216254 -0.08695527 0.0514704 0.110172786 0.07813425 -0.05102602
-0.17403206 -0.008639551 0.13102202 -0.056495093 0.0709402 -0.06493417 0.14395398 0.008860555
-0.035744768 0.06403065 0.06168864 -0.08775087 0.0988367 -0.049235005 -0.052783582 -0.1001895
-0.044143815 -0.15334341 0.10269657 -0.034883667 -0.11324252 0.091601364 0.11867839 0.15457481
-0.13824254 -0.0888001 0.07792684 0.07845708 0.11126057 0.11143008 0.1289768 0.0082480265
0.12646459 0.05408559 0.099882275 0.12708424 -0.07430066 0.12554625 -0.03071615 -0.024804177
-0.0734324 0.13094808 -0.068890594 0.050579194 0.03719965 -0.010932996 0.1304791 -0.1091967
-0.0028293242 -0.0788965 0.06765919 0.20571218 0.11198319 -0.114762865 -0.06475335 -0.022494908
0.096842445 0.19937108 0.14788099 -0.012923331 0.030453509 0.06729061 0.1034259 0.1753643
0.07855385 0.025209056 -0.15682386 -0.16271842 -0.04996722 -0.14431247 0.06557231 -0.13645515
0.127608 -0.056526713 -0.14795865 0.14633898 0.105515376 0.018176736 0.04890494 0.20563944
00000000: 31f7 7a3c 26da 903c ed5e 893d 6b3c 62bd
00000010: 888b 0d3e bd55 0e3e 0149 c63d d9f8 cbbd
00000020: 037d 083e 2752 eabd 0876 513e f771 783d
00000030: fdf5 453e 8d56 113e 4c17 2abd ca87 1b3e
00000040: 8fe3 2f3e bfb9 643d d537 e13b 1636 453b
00000050: ebfc 4d3d b97a a0bd 66ec dbbd b876 9d3d
00000060: 6fea f03d 5055 e03c 2b5e 9abd 8925 01bc
00000070: e5f9 cd3c a59a 243e 9853 653d 41b2 253e
00000080: e509 013e 2529 2b3e 3636 fb3d 3836 0e3d
00000090: aaaa dfbd 8182 d7bd 5945 253e 475e 673d
000000a0: 329f 95bd 0131 04bd 8212 b5bc 8596 98bd
000000b0: 3282 a9bc 8608 ff3d bede e4bc 7c13 2a3e
000000c0: efc8 8d3d 7e02 0a3e db0a bbbd 2d72 7d3d
000000d0: 6247 bdbd aab6 2cbd 921e f63d 131d f4bd
000000e0: e0fc afbd cc95 ad3d be94 7c3d b532 233d
000000f0: 4d36 6f3d dc32 363e b119 373e 9e77 233e
00000100: 86f4 9b3c 9cb5 3a3d 4df3 b3bd d88e 12be
00000110: b7fc 0a3e d6b2 1f3e b14e 653d 964d 11be
00000120: 6246 8d3d 2fb8 453e 983a d13d 9b15 b2bd
00000130: a0d2 523d 45a2 e13d da04 a03d a900 51bd
00000140: 7635 32be e78c 0dbc a32a 063e 6667 67bd
00000150: 1849 913d 35fc 84bd ac68 133e dc2b 113c
00000160: 1b69 12bd 8022 833d 3aad 7c3d bab6 b3bd
00000170: e56a ca3d a5aa 49bd 9933 58bd 2730 cdbd
00000180: 25d0 34bd 0e06 1dbe 9452 d23d 2de2 0ebd
00000190: b2eb e7bd 7f99 bb3d a80d f33d dc48 1e3e
000001a0: 748f 0dbe d4dc b5bd 1b98 9f3d 1bae a03d
000001b0: 95dc e33d 7435 e43d 7f12 043e bb22 073c
000001c0: ef7f 013e da88 5d3d 148f cc3d 5f22 023e
000001d0: f22a 98bd 328f 003e 6fa0 fbbc 2132 cbbc
000001e0: ba63 96bd 4117 063e 8316 8dbd 212c 4f3d
000001f0: a95e 183d 4f20 33bc 509c 053e 85a2 dfbd
00000200: 2f6c 39bb 7d94 a1bd e790 8a3d 37a6 523e
00000210: 7157 e53d cb08 ebbd 689d 84bd 3e47 b8bc
00000220: 5555 c63d ef27 4c3e 1d6e 173e 61bc 53bc
00000230: a379 f93c a9cf 893d f5d0 d33d b392 333e
00000240: d7e0 a03d 3983 ce3c 6f96 20be a89f 26be
00000250: 6daa 4cbd a6c6 13be c64a 863d e6ba 0bbe
00000260: acab 023e 8e88 67bd 7982 17be e3d9 153e
00000270: 7218 d83d 61e7 943c 8c50 483d 2593 523e
