MARTS/AutogluonModels/ag-20240821_083716/models/DeepAR/W0/gluon_ts/prediction-net-state.pt (torch, 109152 bytes, 11 tensors)

model.param_proj.proj.0.weight f4 [1, 40]
00000000: a9da eebd ff13 c3bd 5edb a0be ad7d 3fbe
00000010: 5b55 f63d 1999 593e 6f33 8d3e f06e 8d3e
00000020: 4a4d 933e c4aa 6d3e 2734 b63e 87e7 cbbd
00000030: 7514 fb3e 6c3b 3ebe ba24 863d eee1 a73d
00000040: b37d e0bd 1632 efbd 1a1e 273e a1c3 9f3e
00000050: 285f 9dbe 5f26 c2be 51e2 543e 575d 8b3e
00000060: 47f1 debd 4759 a23e 0b36 943d 077a 673d
00000070: 1fa9 f3bc 05f0 37bd a008 8d3e a20b 983d
00000080: 6ca8 4a3e a118 b63e 5c2b 64bd 35fc d43e
00000090: b318 21be f6f7 113e 9fcc a13d 34c0 97be
-0.116628 -0.09525298 -0.31417364 -0.18700285 0.12027999 0.21249808 0.27578303 0.276237
0.28769904 0.23209673 0.35586664 -0.0995627 0.49039045 -0.18577355 0.06549974 0.081973895
-0.10961475 -0.11679475 0.16320077 0.3120394 -0.3073666 -0.379199 0.20789458 0.2721965
-0.10885864 0.31708738 0.072368704 0.05651286 -0.02974373 -0.044906635 0.27545643 0.07424094
0.1979081 0.35565665 -0.055705413 0.4159867 -0.15732078 0.14254746 0.079003565 -0.29638827

model.param_proj.proj.1.weight f4 [1, 40]
00000000: 5d25 06be cde4 b7bd 8400 033c 6519 70bd
00000010: 8453 94bd 1ef0 fc3d 734b ea3d e047 153e
00000020: cf94 a2bb ae77 c13d c6d8 3b3d dda6 a63b
00000030: 5643 da3b 9c2d 963d 215a b83d c175 7a3d
00000040: c599 b6bd f9a2 abbc 93d9 e93d f012 953c
00000050: a4b4 90bd 6149 a9bd 25ad ab3c 0798 1d3e
00000060: 16a0 99bb e7ef c13d e59e b5bc c735 fdbd
00000070: 46ed bc3d 3f09 1a3e b422 ec3d d4b6 f03d
00000080: 7941 3bbd 134c 4e3d 3f34 cf3d fd65 44bd
00000090: db46 83bd 195f 7ebd a93a 2c3d a24a 03bd
-0.1310019 -0.08979187 0.007995728 -0.058617968 -0.07242492 0.12350486 0.11440172 0.145782
-0.004961587 0.09446655 0.045861028 0.0050858096 0.006660859 0.07332918 0.09001566 0.061147455
-0.08916048 -0.020951735 0.11418452 0.018197507 -0.070657045 -0.08265949 0.020956585 0.15390025
-0.004688273 0.09469586 -0.022170493 -0.12363773 0.09224944 0.1504259 0.115300566 0.11753622
-0.045716736 0.05036552 0.10117387 -0.047948826 -0.06409999 -0.06210241 0.04204813 -0.032053597

model.param_proj.proj.2.weight f4 [1, 40]
00000000: e48b 0dbd 14f8 b23d 390a 413d 0b3c 7e3e
00000010: a347 6cbe 040a 1dbd 391a 30be c4ed a4bd
00000020: ee53 31be ad92 7cbe aa5f 53be bab3 823e
00000030: 64b0 16be 19d0 593e e938 0f3d da40 3cbe
00000040: 7a7e 863e fdf6 eb3d 9b2c 5dbe 33a3 70be
00000050: a4fe 533e 5716 473e 03ec 6dbd eea5 6fbe
00000060: fa78 593e 8a9d 9ebd 5bae 333c c35c acbd
00000070: d1a9 0b3e 779a 9a3d 11a3 77bd f0cb 3f3d
00000080: ac72 51be 24bd 06be d732 4b3c 29bf 67be
00000090: 223d c0bc d925 88be 5941 6dbe c1d5 0b3e
-0.03455724 0.087387234 0.04712889 0.24827592 -0.23074202 -0.03833963 -0.17197503 -0.08053163
-0.17317173 -0.24665327 -0.20641962 0.25527745 -0.14715725 0.21270789 0.034966383 -0.18384114
0.2626837 0.11521719 -0.21599047 -0.23499756 0.20702606 0.19442116 -0.058086406 -0.23403141
0.21237555 -0.07744892 0.010966863 -0.084161304 0.13638999 0.07548993 -0.060458247 0.04682535
-0.204539 -0.13158089 0.012402258 -0.22631516 -0.02346665 -0.26591375 -0.2316946 0.1365576

model.rnn.weight_ih_l0 f4 [160, 37]
00000000: fc58 62bc 47b5 22bd 09b1 693e 158a 0b3e
00000010: b617 ee3a b009 5a3e 2c24 973d b787 553d
00000020: 9850 663e 6a1f fd3d 6e5d 0c3e 4568 653e
00000030: 482d 78bd 0b6e 603e 4ec2 853c 54a2 5b3d
00000040: 7756 09bd 9962 573c 76aa 103e 2ef6 90bd
00000050: 53d7 053e 2e57 bb3d 4ebd 4d3e cb36 0a3e
00000060: b52f 083e 2d4b 79bd 1606 153e 18dc 8ebd
00000070: 7288 b23d ed7b f3bd 7726 7d3d 24f7 11bd
00000080: 84fd 653e 4866 863d 561b 0ebe 7578 96bd
00000090: e483 003e 9265 f63d fb89 783d 2741 f2bd
000000a0: 5d19 f0bd 5d3c df3d 1e49 dcbd 86ac 5b3b
000000b0: f9b5 04bd 0237 d139 85a8 393d c6b2 85bd
000000c0: b175 0dbe 2593 093d eb2c 153d d567 0e3e
000000d0: d0c2 f53c 521c 163b 2da3 ef3d 1157 983d
000000e0: 66b9 e03d 3089 b6bb ea9c 763e f5b0 02bc
000000f0: 76b8 0e3e 3ff2 56bd 86c8 ad3d 9e4c cd3d
00000100: 5cd0 15bd e6ef f7bd 3d11 bdbd e926 07be
00000110: 3d3e 17bd 9a93 203e e9bf 14be c10a edbe
00000120: 7818 43bf 690f a83d f5ee f73d b074 093e
00000130: 8130 103e 00fd 443c 277a ccbd fa9b a6ba
00000140: 653b 903b a565 373e 3abe 1d3b 3141 03be
00000150: f84f ddbd 333e 213e 73ab 383e 8c34 063e
00000160: 0621 e83d efe7 d93d c9f3 f03d 5c5c 03bd
00000170: e381 a7bd 669c 5c3d 61cd 933c 6781 8b3d
00000180: 27e1 063e f520 35be 49c9 43be e2aa f6bd
00000190: c965 1abe e888 77be 0c9e 5bbd 1d2e 3cbd
000001a0: 42d6 d4bd 8be8 05b9 c2a7 85bc de97 1f3e
000001b0: 0cf7 6d3f c93e 2c3e 001d 5f3d 24bc 6e3c
000001c0: 4c2a 8a3d b025 ff3d 447a b23c ab5e 553e
000001d0: b236 143e 620f c13d ba80 4e3d db70 a73d
000001e0: 129d 25bd d7d1 77bd c3f0 5b3d b43c f7bd
000001f0: 7ad9 69bd 3f47 8d3d d35b 1a3e 3560 a43d
00000200: 779e eebd 157e 80bd fa50 02be 2d58 273e
00000210: 3dbb 31be 4e60 25bd 115a 1abe c87e 163c
00000220: f3de 3aba 9ada cc3c 86ea a33c af87 42be
00000230: c834 06be d088 65bd fc4b 88bb 842b 023e
00000240: edb4 d43e 49f2 febd 3811 d8be 3f10 2d3e
00000250: 7b1e e63d 2bea f83d 3eda 78bd 2682 88bd
00000260: 59eb 6cbd cc97 9ebd 2ce1 8c3d 5325 29bd
00000270: 0cf0 54bd d42c 93bd 9fe0 e0bc ee82 10bd
00000280: f7b9 cc3d 3328 b73d d99e 543e 2f18 493e
00000290: 90f6 403d 0978 203e 0eeb f93d db37 243e
000002a0: 1d9b 73bb c0ce 383e 6054 203e ea1d 983d
000002b0: 2227 ca3b 67e3 08be 5f4c c23d 8ef3 b33d
000002c0: 77e6 e4bd 853a 1d3e 0fdf f5bd e1ea 023d
000002d0: 148a f43d e162 d9bd 4eb9 34be 651b b63d
000002e0: 7a1c 553e 0321 7b3d 199d 4d3e d71f 103e
000002f0: e77c c63d 1440 56bd 9498 093e 8a22 d43d
00000300: 7cfd 64bd c404 073e 920d 373e e9ba 6dbc
00000310: e329 443e 6d0f 58bd 383c 7bbd 703d d2bc
00000320: e7bc 293d 127a b7bd eafb 9cbd 5d05 5b3e
00000330: c61c 303e d716 043e 04f3 493e a0df 9e3c
00000340: 499f 333e fc00 023e dddd bbbd 88b7 cf3d
00000350: 50e0 0c3e c2bb 95bd b019 953d 9145 9a3d
00000360: 482c 4ebc 308c b83d be20 02bd f2dd 1ebd
00000370: 13a5 25be 3a61 d53d 4187 69bd 3d17 1cbd
00000380: 7840 553c 2e83 91bd 0a1c cb3c 1a1d 7a3d
00000390: a5a8 8abd 5843 4dbc fac4 203c 3749 783c
000003a0: d782 2dbc 6d7e 793c a91d 0abd 86ee 273e
000003b0: 7ae2 803d 0ed2 273e 159c 74bd f79c 413e
000003c0: 1358 293e dd1e dbbc 4597 f03d a1cf 59bd
000003d0: 01ba 13bd 507a 3d3d 99ca a6bd 315a d2bd
000003e0: 4c74 f63d 6c29 323e fc0e cabc ee5f 373c
000003f0: 4ef2 86bd 8e9d 1cbd 855e dc3d 24dd cdbd
-0.013815161 -0.03972366 0.2282144 0.13626893 0.0018165025 0.21292758 0.07379946 0.05213138
0.22491682 0.123595074 0.13707516 0.22403057 -0.06059006 0.21916978 0.016328003 0.053621605
-0.033529725 0.013146066 0.14127526 -0.07078205 0.13070421 0.091474876 0.20091745 0.13497464
0.13299449 -0.06086271 0.14553103 -0.06975573 0.08717431 -0.11888871 0.06180426 -0.035636082
0.2245999 0.06562477 -0.13877615 -0.07347194 0.12550312 0.12031092 0.060678463 -0.11828833
-0.11723588 0.10900185 -0.107561335 0.003351958 -0.032400105 0.0003990457 0.04532673 -0.06528239
-0.13814427 0.033587594 0.03641979 0.13906796 0.03000012 0.0022905064 0.11701045 0.074384816
0.10972862 -0.0055705532 0.24083295 -0.00797676 0.13937554 -0.052477118 0.084855124 0.10024379
-0.03657566 -0.12106304 -0.092318036 -0.13198437 -0.03692459 0.15681306 -0.14526333 -0.46297267
-0.7620921 0.08206064 0.12106124 0.13423419 0.14081003 0.0120232105 -0.09984236 -0.001271128
0.0044016116 0.17909868 0.0024069683 -0.12817837 -0.108062685 0.15746383 0.18034153 0.13105983
0.11334424 0.10639941 0.11765248 -0.032070503 -0.08179071 0.05386009 0.018042268 0.06811791
0.13171826 -0.17688353 -0.19119753 -0.12044312 -0.1507789 -0.2417332 -0.053617522 -0.045942415
-0.10392429 -0.00012770497 -0.016315345 0.15585276 0.9295509 0.16820826 0.054471016 0.014571223
0.06746349 0.1245836 0.021786816 0.20836894 0.1447399 0.09426762 0.050415732 0.08175822
-0.040432997 -0.060502853 0.053696405 -0.12072125 -0.057092167 0.06898355 0.1507409 0.080261625
-0.116513185 -0.06274048 -0.12726203 0.1634223 -0.17356582 -0.040375046 -0.1507342 0.0091855
-0.0007128559 0.025006581 0.02000929 -0.18997072 -0.13106072 -0.056038678 -0.0041594487 0.12711912
0.41544285 -0.12448556 -0.42200637 0.16900729 0.112362824 0.12154039 -0.060755007 -0.06665449
-0.057841633 -0.07743797 0.068788856 -0.04129536 -0.05198674 -0.07186285 -0.027450858 -0.035281114
0.099964075 0.08943214 0.2076372 0.19638132 0.04711014 0.1567079 0.12203036 0.16036932
-0.0037171312 0.18047619 0.15657187 0.07427581 0.006169216 -0.13367997 0.09487223 0.08786689
-0.1117677 0.15354355 -0.12005436 0.03196228 0.11940399 -0.10614563 -0.17648813 0.08891944
0.20811644 0.06131078 0.20079459 0.14074646 0.09691792 -0.052307203 0.1343711 0.1035815
-0.055905804 0.13185412 0.1787627 -0.014509895 0.19156604 -0.052749086 -0.061336726 -0.025664061
0.041439917 -0.0895883 -0.07665236 0.21388765 0.17198476 0.12899338 0.1972161 0.019393742
0.17541231 0.12695688 -0.091731764 0.10142428 0.13757443 -0.073112026 0.0728029 0.075328
-0.0125838 0.09011114 -0.031769507 -0.038785882 -0.16176252 0.10418935 -0.057013754 -0.0381081
0.013015859 -0.07105099 0.024793644 0.06106291 -0.06770448 -0.012528263 0.009812588 0.0151541745
-0.010590277 0.015227896 -0.033719692 0.16399583 0.06293197 0.16388723 -0.059719164 0.18907534
0.16537504 -0.026748115 0.117476024 -0.053176526 -0.03606606 0.046259224 -0.08144111 -0.10271109
0.120339006 0.17398614 -0.024665348 0.011192305 -0.06589185 -0.038236193 0.10760216 -0.10051945

model.rnn.weight_hh_l0 f4 [160, 40]
00000000: fa15 dd3d e46a 53bd 2e51 13be 34fc a43d
00000010: 8aba eebd 707b 7dbc 9136 113e 1e48 e83c
00000020: 20bc 2b3d bbb4 823c 9df3 1ebd 40ca 063e
00000030: f8a9 e3bd 11b1 a9bd 7633 cabd 5e1b 58bd
00000040: 89a3 25bd c46f 11bc 0fd2 c93c 13ed b3bc
00000050: 9549 913d 1647 2bbd cb4a b8bb 86a4 cdbd
00000060: a604 cb3d d13b 183d 41fc 6dbd e940 ebbc
00000070: bfea 273e 6085 013d 334e 493e 3f9b b3bd
00000080: 2860 e6bd 2298 fdbc 8d98 623d d972 cc3d
00000090: a9ba e1bd f7ca eb3d 08e4 e3bd 32cf bcbd
000000a0: 0bcc c03d 8dd7 00be 0336 4fbe 8487 c43b
000000b0: 8abb 4a3d f958 953d 1339 df3b 96d9 9bbd
000000c0: c36b a83e 8d4b ed3e e623 02be d2d3 b1bd
000000d0: 636e 893d 0a11 cbbd 9b64 83bd 744e debb
000000e0: 0230 0fbe 9a1e 31be 5a63 c73d 010d da3c
000000f0: 60cb 643e a253 a33d 6973 29be 301d e73a
00000100: aad9 0d3e b13b 80bc 76e5 063d 5292 893c
00000110: 7feb 2f3e 843d e43d a174 d43c e261 7bbd
00000120: b32c cf3d 409c 023e bc2a b03c 6d29 78be
00000130: 10bd 2dbe 0cf4 11bb 8a24 f3bd 460c acbd
00000140: eb09 10be 6730 e3bd a048 4e3e cca0 a23d
00000150: 4a81 073e 9dfb 9ebd 9026 0cbd c8eb c7bd
00000160: bbdd 53bd c3a8 19be 8daa f4bc 6c7c 063d
00000170: cbdf dabc 8f95 f1bc 0e84 83bd b40c 00bd
00000180: 5523 01be c95e d5bd a0f3 c7bd 2e27 e33d
00000190: ebe0 3e3e 53a0 55bd 04f9 13be 26a6 a03d
000001a0: f1be 3a3d 12d8 1fbe 7b14 66bd 25e4 223e
000001b0: 91c2 1abe a501 0abe eafc 863e bf5a 3d3e
000001c0: 55a8 a3bd 1b53 0f3e bb0b b83d 1c58 b1bd
000001d0: bec8 50bd 9418 06be 702b 65bc c970 7ebd
000001e0: 029c 9bbb 3972 083e cc15 36be 1c12 9a3c
000001f0: 1f8e c23d b983 cd3d c372 ea3d 2d91 c0bd
00000200: c15d c6bd fb4c 8f3e f38c 29bc 8963 7e3c
00000210: e315 06be 0a43 c0bd 14e9 07bd ff7f b7bd
00000220: 99d5 bcbd f965 233c 6385 bebd a8fc 0ebe
00000230: a5c1 f93d eb4f d43d bf42 2bbe f917 1cbe
00000240: 98ed e93b 011c febd 372a cd3d ac33 b83e
00000250: 4301 4e3c 8228 9dbd d168 3ebd 0104 e4bc
00000260: 345b 943d 887d ce3d b119 d6bd 2c42 8dbe
00000270: 2f4d 243a a3ba 9f3c 5fb6 873d 9dc3 8fbd
00000280: 8c1f 233e ee51 e93c e05f a9bd be1c 00bd
00000290: 115c 373d e634 0ebd afc1 a7bd 80d1 2c3e
000002a0: 7034 5a3d da28 85bd 8695 14bd d4d1 8cbd
000002b0: cff9 64be 3963 423e fd14 e03b 3445 80bd
000002c0: b3c3 913d 4b3c 163e 141f d9bc 2cc3 23be
000002d0: 1df4 d83c 8893 08be 4e67 b53d 5789 05bd
000002e0: e44e f73c 4f1e a7bb 4546 ecbd c8e7 3abd
000002f0: ed67 3b3e ea9f d93c cacb 063e 1660 89be
00000300: dc6c 693c f54d 263e a157 01be 75a4 d73d
00000310: 5406 2f3e d94b b2bc bce7 07be e476 243e
00000320: d758 81bd ba51 4e3e bab6 54be c862 dfbd
00000330: 89f6 a5bb 51ff 09be 10c8 643e 2ec9 403e
00000340: b821 5abe 0d7a d2bc 00d3 2fbe 0370 37bd
00000350: 5118 43be 53ce 3c3d 9316 ed3d ec7b f9bc
00000360: 487e c2bd 76b5 c5bd c123 343e e2f4 c1bb
00000370: bd33 27be 86e0 f4bd d8dd 293e 9770 b9bd
00000380: 368a 27bc 974a 253e f51f e8bd 4847 133e
00000390: ae4d 00bd acfd 023e 3dbb c5b9 82ac 203d
000003a0: 2882 1b3b 22a6 a93c 269e 77bd c65a ca3d
000003b0: 0b29 d13d 7315 67bd 6c60 b33d 1151 203e
000003c0: a021 303e 8473 473e 392e ebbd 2dec 95bc
000003d0: c989 a23d 15ab 0fbe 178b 483e 6a8a 223e
000003e0: f5cb 953d de3a 703d 5b40 37be 6f8c 63bd
000003f0: d591 4a3d 4776 383e 2aa9 7b3d 5463 36bd
0.10795207 -0.05161561 -0.14386436 0.080559164 -0.11656673 -0.015471324 0.14180972 0.0283547
0.041927457 0.01595532 -0.038806546 0.1316309 -0.11116403 -0.08285726 -0.09873097 -0.052760474
-0.040439162 -0.008876745 0.024636297 -0.021963632 0.07094113 -0.04181584 -0.0056241504 -0.10041146
0.09912996 0.03716642 -0.058101896 -0.028717475 0.16398142 0.031621337 0.19658737 -0.08769845
-0.11248809 -0.030956332 0.055321265 0.09982843 -0.11021931 0.11513322 -0.11127478 -0.09219207
0.09413918 -0.12582226 -0.20235448 0.0059976 0.049495257 0.07292361 0.0068122237 -0.076098606
0.32894716 0.46346703 -0.12709007 -0.0868298 0.06710508 -0.09915359 -0.06415673 -0.0067842547
-0.13983157 -0.1729683 0.09735747 0.026617529 0.22343206 0.07974936 -0.16547932 0.00176326
0.13852564 -0.015653463 0.032933675 0.016793404 0.17179678 0.11144546 0.02593452 -0.061372645
0.101159476 0.12754917 0.021504752 -0.24234553 -0.16966653 -0.0022270707 -0.11872204 -0.084007785
-0.14066283 -0.110932164 0.20144892 0.07940826 0.13232914 -0.07762835 -0.034216464 -0.097617686
-0.05172513 -0.15005784 -0.029866481 0.0328335 -0.02671804 -0.02949026 -0.06421672 -0.031262115
-0.12611134 -0.104184695 -0.09763265 0.11091457 0.18640487 -0.05215485 -0.1445046 0.0784419
0.045592252 -0.15609768 -0.056171875 0.15907343 -0.15113284 -0.1347719 0.26364833 0.18491648
-0.07991091 0.13996546 0.089866124 -0.08659384 -0.050972693 -0.13095313 -0.013987407 -0.06211928
-0.004748822 0.13324822 -0.17781752 0.018807463 0.09499764 0.1003489 0.1144767 -0.0940269
-0.09685851 0.2798842 -0.010348546 0.015526661 -0.13094287 -0.09387787 -0.033181265 -0.0895996
-0.09220428 0.009973043 -0.09302785 -0.13963568 0.12195138 0.10366806 -0.1672468 -0.1524352
0.007138919 -0.12407685 0.100178175 0.35976923 0.012573543 -0.07673742 -0.04648668 -0.02783394
0.07243958 0.10082537 -0.10454119 -0.27589548 0.0006267605 0.019498175 0.066265814 -0.07019732
0.15930003 0.02848145 -0.0827024 -0.03127741 0.044765536 -0.034718417 -0.08191239 0.16876793
0.053272665 -0.065019324 -0.03627541 -0.06875959 -0.2236092 0.18983163 0.0068384395 -0.062631994
0.07117405 0.14671437 -0.026504077 -0.15992421 0.02648359 -0.13337529 0.088575944 -0.03260168
0.030188985 -0.0051000486 -0.1153684 -0.0456312 0.18301363 0.02656551 0.13163677 -0.2683112
0.0142471455 0.16240676 -0.12631084 0.105294146 0.17092258 -0.021764683 -0.13271993 0.16060978
-0.06315773 0.20148364 -0.2077283 -0.10907513 -0.0050647897 -0.13476302 0.22341943 0.18826744
-0.21301925 -0.025692964 -0.17170334 -0.044784557 -0.19052245 0.046095204 0.11576571 -0.030454598
-0.094967425 -0.096537516 0.17591764 -0.005919085 -0.1632833 -0.11956887 0.16588533 -0.09054678
-0.010225823 0.16141735 -0.1133422 0.1438266 -0.03132408 0.1279208 -0.00037714271 0.039227016
0.0023728702 0.020709101 -0.060453556 0.09880595 0.102129065 -0.05641694 0.087586254 0.15655924
0.17200327 0.1947766 -0.11483426 -0.018301094 0.07936437 -0.14030106 0.19584309 0.15873113
0.07314292 0.05864989 -0.17895643 -0.05555385 0.049455483 0.18013869 0.061440624 -0.04452832

model.rnn.bias_ih_l0 f4 [160]
00000000: aed6 1f3d fac0 cd3d 9494 f9bd 20d6 a9bd
00000010: 88a8 5b3e 1c56 9c3c d290 aebc ccc9 ea3c
00000020: 9226 f9bd 4a38 713d cea9 1f3e d955 c9bd
00000030: 9b16 873d 3aba cbbd 0df6 d43d 6cf7 7d3d
00000040: e2e9 db3d 738e 3abe 83ea 05be 1781 943d
00000050: 6881 99bd 45ec 923d 9ab9 543e 0e3d d03c
00000060: e99d b0bc 654b 873d 13cb 4d3d 55a4 0d3c
00000070: d527 56bc 4230 80bd 3909 093e 11b0 cb3d
00000080: 9b53 873d 4aec 9c3d 1300 22bd 243c 06be
00000090: a399 65bd a799 13bd a00d d9bd 3e4f 543e
000000a0: 89bb 49bc 66f4 94bd 7d01 9fbc 22ce ecb9
000000b0: 4d34 473e ac4c 383e 14b6 5f3d 5f12 5d3c
000000c0: 6043 3137 3d9d bdbd 5349 e73d a4b8 193e
000000d0: 860f ccbc 4ff1 2d3e 35d6 01bd a713 a33d
000000e0: 7d63 2b3d f31e 88bd 7017 a13b 72a3 0f3e
000000f0: 602f 2bbd 26ae 4f3e b157 413e d40a 88bd
00000100: 11aa cb3d af5b 093e 511e be3d 9ee8 93bd
00000110: 8d7d 033d 220d 1d3e 9823 94bb 474e 8b3c
00000120: 78ba bcbd 2af3 7a3c e503 b83d 33b1 bf3d
00000130: bb70 4dbd 5f6c b33d 3014 133e 210a dabd
00000140: 9067 3f3e 915c cf3d 2565 09be 902f 9c3c
00000150: 1c38 3a3e 8716 09be 66db 063e 3d3e b23d
00000160: 91af a83c b5a7 9c3d 63ef e9bd e883 0dbe
00000170: c6ef 0cbe 8f20 d93c b02f 1ebe 8afc 553d
00000180: 9309 01be 3d4d 863d e773 c2bc 14a9 56be
00000190: 0284 083d 4bbc 4aba f047 6fbd 9e8b 203e
000001a0: 7066 86bd 2bc2 d13c 7958 f23c c146 0bbe
000001b0: 6ccd 003e e773 06be 7405 f5bb 1b4f 0fbe
000001c0: 20f4 4dbd 0024 09be 0038 14be 901d c2bc
000001d0: 78b7 643d 6337 59bd 1586 93bd 7e5b d43c
000001e0: dc97 b2bd 575e 89bd 6593 d93d 3f46 913d
000001f0: e15f 173e 8f84 263e c9bd bd3c b0bd cb3d
00000200: 5e91 bd3d b8f5 c2bd c56a 65bc 41df 1fbd
00000210: f957 483e e408 db3d 5807 9d3c 7652 1f3e
00000220: 879d c0bd c3ec f7bd 35b0 7d3c 8a4f 5e3e
00000230: 7f8d 203d ce55 3d3e 00c9 f8bd 571e e8bc
00000240: 1b9a 2f3e 3d00 a13d 0ebd 87bd c076 ecbb
00000250: e999 c03d 877e c63d b125 153e 972f ca3d
00000260: 406b 533e 074d cb3c 6561 7e3e 3248 cdbd
00000270: 92dc 5f3d 5474 8cbc 46c5 89bd 9bd9 3d3e
0.039023094 0.10046573 -0.12186542 -0.08292794 0.21451008 0.019084029 -0.02130929 0.028660677
-0.1216556 0.058891572 0.15592119 -0.09830827 0.065961085 -0.09947629 0.10398493 0.062003538
0.10737969 -0.18218403 -0.1307774 0.072511844 -0.074953854 0.07173971 0.20773926 0.025419738
-0.021559672 0.06606177 0.050242495 0.008645137 -0.01307102 -0.062592044 0.13382424 0.099456914
0.06607743 0.07662256 -0.039550852 -0.1310888 -0.056054723 -0.036035206 -0.10598302 0.20733353
-0.012312778 -0.07273178 -0.01940989 -0.0004516701 0.19453545 0.17997998 0.054617003 0.01349315
1.0565709e-05 -0.092585064 0.11293282 0.15011841 -0.024909746 0.16986583 -0.031698424 0.07962733
0.041842926 -0.06646528 0.004916124 0.14027193 -0.041793227 0.20281276 0.18881108 -0.0664269
0.09944547 0.13413881 0.09283126 -0.072221026 0.032102156 0.15337041 -0.0045208447 0.017005099
-0.092152536 0.015316764 0.08985118 0.0935997 -0.050156336 0.087609045 0.1436317 -0.10646463
0.1869185 0.101250775 -0.1341749 0.019065648 0.18185467 -0.133875 0.13169631 0.08703277
0.02059153 0.07649175 -0.114226125 -0.1381985 -0.13763341 0.026504783 -0.15447879 0.052242793
-0.12601309 0.06557701 -0.023736907 -0.20962936 0.033329017 -0.00077337463 -0.058418214 0.1567826
-0.06562507 0.025605282 0.029583203 -0.13601209 0.12578362 -0.1313015 -0.0074774567 -0.1399502
-0.050281644 -0.13392639 -0.14474487 -0.023695737 0.055839032 -0.053031337 -0.072033085 0.025922533
-0.08720371 -0.06707447 0.106238164 0.070934765 0.14782669 0.16261505 0.023161786 0.099482894
0.09256242 -0.095195234 -0.014002507 -0.03903127 0.19564809 0.10695055 0.01916854 0.155588
-0.09405046 -0.121057056 0.015483906 0.21710029 0.03919744 0.18489763 -0.12147713 -0.02833478
0.1714863 0.078613736 -0.06627856 -0.0072163045 0.09404356 0.09692102 0.1456516 0.09872358
0.20646381 0.024817003 0.2484184 -0.10023536 0.05465371 -0.017145313 -0.0672708 0.18540041

model.rnn.bias_hh_l0 f4 [160]
00000000: cc8c 72bd 7c2b 103d f5b2 f2bd 1b5b 82bd
00000010: 8763 813c 6071 54bd baf0 a03c c0ef 2e3d
00000020: d6c2 2bbe 0f58 f93d 4b85 943d 6f16 c9bc
00000030: 1e98 373d bf78 b3bc b8d2 13be b78c ccbd
00000040: 37bd 07be 4f23 9b3d cdd2 2f3e 34c8 d33d
00000050: c92b 303e 0c57 5fbc e940 db3d cf77 ffbd
00000060: 0102 c53d 95ec c2bd 05e6 d0bd 66b6 16be
00000070: abf1 06bd 4df1 d8bd a690 033e ffab d0bc
00000080: f998 363e 7feb 853d 1b06 fe3c 50cd febd
00000090: 3580 573e 6c98 07bd 1c43 93bd bb6f 56bd
000000a0: 843d eabd 5072 233d 7e9b c5bd ac14 bc3d
000000b0: b148 03bd 34a9 2d3e caff 9cbd 7488 88bb
000000c0: 4ec0 dd3c 5ab2 8ebd 067a 72bc 56c9 8c3d
000000d0: 09c1 cebd 9cdb 103e 7109 6a3b 595d e43d
000000e0: ad87 06be 0379 5e3d 7723 513c dfa7 fd3d
000000f0: 6cba 243e 0d4a 413d a5c2 2cbd 8117 c03d
00000100: 742f 3bbd 78ff a63d f1de 3c3e bae9 b3bd
00000110: 8f8e ad3d 5cf9 503d a23d f13c f1fa 503d
00000120: 9eee 29bd 398d d73d 47c9 0e3e fb58 fabd
00000130: b0f5 873d 1aa1 c93d c3d8 4e3e c433 653d
00000140: f1e9 543d d134 273e cccf e03d fbe2 40bd
00000150: 3458 e73c d061 4fbd aedf 413e fd21 8c3c
00000160: 013a b7bc 2b5b bfbd 4642 49bd 6c0b 1abe
00000170: 53d5 5cbd 3a03 d8bd 8ccb 883d 03ba d93d
00000180: 9464 bcbd f46d 12be a782 65bd 9591 703b
00000190: 8fba 25be ef4a 473d 58b2 a0bd b969 05bd
000001a0: 146e 153c c735 ed3d 9f6e e13d d9bf df3d
000001b0: 8e7f 3bbd a04c ea3d e683 123d 1ba4 02bd
000001c0: 147b d1bd ddeb 03be 1b83 45be 80c3 7dbc
000001d0: 757d ec3c 5f37 603d 5533 38be a580 ed3d
000001e0: bdfd 3b3d fc5c 8ebd aba4 013e 40aa abbd
000001f0: 5b20 cb3d aa87 2b3e 1076 033e 88cc ef3d
00000200: 92e2 283e 0077 283e a004 14be 6939 b13a
00000210: d599 2d3d ec19 503c 767a b2bd 5891 6bbd
00000220: 004b b83d fc81 02be d669 463d 9226 25bc
00000230: 9307 1ebd ce2a 8ebd bc64 adbc 61a1 1fbd
00000240: aa5d 393d da4a 26bc b908 ff3c 2dfe 0a3e
00000250: f182 5e3d 5688 753d 618d e4bd 23d0 d33d
00000260: 4e4b 073e 3f84 0d3e 5618 fb3d 64cb 363e
00000270: 28c9 87bd 94ac 453e 6e70 233e 7777 0f3d
-0.059216306 0.03519772 -0.118505396 -0.06365033 0.015794529 -0.051865935 0.019646037 0.042709112
-0.16773543 0.12174999 0.07251986 -0.02454683 0.044822805 -0.021908162 -0.14435852 -0.09987777
-0.13255773 0.07575094 0.17170258 0.1034092 0.17204203 -0.013631593 0.1070574 -0.124740236
0.09619523 -0.09517781 -0.10200123 -0.14718017 -0.032945316 -0.105928995 0.12848148 -0.02547264
0.17831792 0.06539058 0.03100877 -0.12441504 0.21045001 -0.033104345 -0.071905345 -0.05235265
-0.114375144 0.03990394 -0.096487984 0.0918363 -0.032051746 0.16959077 -0.076659754 -0.004166657
0.027069237 -0.069676116 -0.0147996005 0.06874339 -0.10095412 0.14146274 0.0035711194 0.11150617
-0.13137694 0.054314625 0.012764803 0.123855345 0.1608674 0.04718976 -0.042177815 0.09379483
-0.04569955 0.081541955 0.1844442 -0.08784814 0.084744565 0.051019058 0.029448334 0.051020566
-0.04148733 0.10524983 0.13943969 -0.12224003 0.06638658 0.09845181 0.20199876 0.05595757
0.051980916 0.16328742 0.10977134 -0.047091465 0.0282403 -0.05063039 0.18932983 0.01710605
-0.022366526 -0.09343561 -0.04913547 -0.1504342 -0.05391438 -0.105474904 0.066794485 0.10631182
-0.09198871 -0.14299756 -0.056032803 0.0036707867 -0.16184448 0.048655447 -0.07846516 -0.032571528
0.009120483 0.11582523 0.110074274 0.10925264 -0.045775943 0.11440396 0.03577032 -0.031894784
-0.102285534 -0.12882943 -0.19288294 -0.015488505 0.028868416 0.054740306 -0.17988332 0.115968026
0.04589628 -0.06951329 0.12660472 -0.08382082 0.09918281 0.1675097 0.12838006 0.11708933
0.1649268 0.16451645 -0.1445489 0.0013521138 0.042383034 0.012701493 -0.08714764 -0.057511657
0.0899868 -0.12744898 0.048440777 -0.010079997 -0.038581442 -0.06941758 -0.021166198 -0.038972262
0.04525534 -0.010149682 0.031132089 0.13573523 0.054324094 0.059944473 -0.111597784 0.10342433
0.1321232 0.13819979 0.12260501 0.17851025 -0.066301644 0.19304115 0.15960857 0.03502604

model.rnn.weight_ih_l1 f4 [160, 40]
00000000: d250 afbd 3e05 f3bd 1968 d6bd aaf2 973d
00000010: 1b0f 31be cf0a cabd a09d 203d 6678 163d
00000020: 8561 043e b723 2bbc 2eef 873a f8c8 0a3e
00000030: 1971 04be 5862 95bd 0b65 8abd a5ed 1cbd
00000040: 2124 34bd 28d8 d03c c93c bc39 268e bcbb
00000050: 2fc1 fc3d 4f55 ae3d 1a01 a13d 5fe1 01be
00000060: 11bc f63d cda4 123e 1bbe 93bd f622 253c
00000070: cf1b 23be 6d08 25be b7a2 e6bd 4df9 69bd
00000080: 5bfa d3bd bb37 0ebd acd0 b6bd d8c9 cbbd
00000090: 45f2 16be 512e d1bb 45aa ab3d 2661 21be
000000a0: 5d01 2b3d 127f d93c 9169 a73d a139 603d
000000b0: 1be4 fabd d876 093a 00e8 d13c e492 02be
000000c0: cfb7 a8bc 1d6c ebbc 18f5 cc3d 6159 d0bc
000000d0: e1b8 aebd ad34 afbb 7209 bbbd 8cc1 9cbd
000000e0: 4426 fe3a 2846 7b3c 65f4 eebc 98cf bfbc
000000f0: b389 123d baf1 e6bd c1fd 13bc 1a7d f4bc
00000100: 499f 07bd 380b 1a3e ca76 00be 1642 7f3e
00000110: ad50 39bd 9da6 213e b370 77bd b6fa 023e
00000120: c588 bbbb c47c b7bc 3522 61bc 1a07 a63d
00000130: 7487 273e a89f a23d b109 eabd 84ab a53d
00000140: 47ba e43d 4273 f6bd 078b f7bd 93ee e1bd
00000150: 5eb3 33bd 51f6 153d 4ec2 edbc b11f 853d
00000160: 209f 76be 644e 3c3e f1e5 2cb9 0fe5 d0bd
00000170: b92c f03d ccfb 233e bbe1 f6bd 1933 313b
00000180: 3c1d db3d 13bb 8c3c d093 7abd d582 afbd
00000190: 2730 8b3d a360 0cbe 2f58 a2bd 10db 803d
000001a0: e111 10bd 2f1e c9bd c670 7f3d ef82 113e
000001b0: eb47 0d3e 959f 0ebd fa9b 95bc 7047 383d
000001c0: 7d0e 95bb 6e8b f1bb 9246 6e3b d29f cf3d
000001d0: e293 4b3d ee18 113e 4918 663d f7ba 84bd
000001e0: afcb 26bd 24c7 5d3c f359 9e3c 6108 80bd
000001f0: 08d4 93bd 9ca2 fcbc b307 033e 933e 29bc
00000200: f456 8dbd 25fc 22bc 0f4c ea3d 9b26 a63d
00000210: 5ad3 953c b70b cb3d 6878 2dbe 7883 c0bd
00000220: b1f0 aebd f28c 623c 4926 b23c 778e 093c
00000230: 41aa 20be 1397 b83c acda 053e 3c23 2c3e
00000240: de11 eb3d 6605 2e3e a195 8f3d 8ea2 0a3e
00000250: d363 e7bd b6a5 3abd 8d5e e3bd c390 babd
00000260: 37dc f53d 3375 2abb f604 2bbe f537 debd
00000270: 7873 0b3e 979e 0e3e 8cf5 fcbd bff3 203b
00000280: b23a 26bc c717 153d 1d5b 0c3d 1b9b ba3d
00000290: 189d debc a52f c1bd cb04 8cbd 8c0c 383c
000002a0: c709 823e 68f5 4ebd 3e50 353d 8d81 043d
000002b0: cc89 32bd af94 92bd dc36 4fbd 6113 cb3d
000002c0: dc61 183e 9041 dbbd 3b6d 3f3d 8afa 26bd
000002d0: a2c4 a93c 01d4 cd3d 304b f9bd ec06 9a3d
000002e0: a042 b03d 5420 19be cba5 de3c 3817 8ebe
000002f0: 18eb ec3d 4938 1ebe 9bac 283c 1a81 f53c
00000300: 3cbb 923d c759 ee3d 5c23 cc3c 4d31 de3d
00000310: c26c f33d 9d52 d33d dfdb 313d 9dd8 01be
00000320: 6edc d1bd 083b af3d db56 ff3d 89b1 17be
00000330: cc50 5a3d 5657 0fbd be59 1abe 18c7 e43d
00000340: a8c1 61bd 3a66 fa3d d1ce 73bc 576d be3d
00000350: f59d 61bd b0ab 183d 9595 143e 66ef f8ba
00000360: cdc3 8a3d 1b4f 12be 52a8 e4bd 4159 2c3e
00000370: 4865 7b3d e1bb d8bc 9754 efbd 5387 0b3d
00000380: fc33 9d3d ab9d a4bd 7326 ccbd 5c15 013e
00000390: 1e65 1f3d f36b f13d c30b 163e 0065 973d
000003a0: baf6 913d f1c5 00bd fbb1 8c3d b601 bd3d
000003b0: 77bf cdbd 97d2 13be 6c73 ff3d 96b8 cb3d
000003c0: eaa8 0d3e 7bea b43d 5c35 a53d e1d7 0bbe
000003d0: 97cf 073d e863 9dbd a798 fdbd b2b2 133e
000003e0: 967a 06bc 1451 e73d 5f3f 213d e511 4c3d
000003f0: 31a9 da3d ee3a 6fbd 5eb7 ff3d 1638 6a3d
-0.08560337 -0.11866234 -0.10469074 0.07419331 -0.17290919 -0.09865343 0.039212823 0.036735915
0.12927826 -0.010445527 0.0010370964 0.13553226 -0.12933768 -0.07294148 -0.06757554 -0.038312573
-0.043979768 0.025493696 0.00035903443 -0.00575425 0.12341534 0.08512365 0.07861538 -0.12683628
0.120475896 0.14320679 -0.07213994 0.010079136 -0.15928577 -0.16116495 -0.11261504 -0.057122517
-0.10350486 -0.034721117 -0.0892652 -0.09950608 -0.14740856 -0.006383695 0.08382086 -0.15759715
0.041749347 0.02654985 0.08174432 0.05474246 -0.12250539 0.00052438444 0.025623322 -0.12751347
-0.02059546 -0.028738076 0.100076854 -0.025433244 -0.085313566 -0.0053468556 -0.09132661 -0.07654104
0.0019390066 0.015336551 -0.02916927 -0.023414418 0.03577585 -0.112765744 -0.009032668 -0.02984481
-0.03311089 0.15043342 -0.12545314 0.24927554 -0.045242954 0.15786214 -0.060410213 0.12790951
-0.0057230913 -0.02239836 -0.013741066 0.08106823 0.16360265 0.07940608 -0.1142763 0.08089355
0.11168342 -0.120337024 -0.12087064 -0.110318325 -0.04387223 0.03661186 -0.029023316 0.06500185
-0.24084139 0.18389279 -0.00016488858 -0.101999395 0.1172728 0.16014022 -0.120547734 0.0027038513
0.106989354 0.017179048 -0.06117612 -0.08569876 0.06796294 -0.13708739 -0.07926976 0.06291783
-0.0351733 -0.0982021 0.06236341 0.14210103 0.13796966 -0.034820158 -0.018262852 0.044990003
-0.0045488463 -0.0073713576 0.003635798 0.10137905 0.04970158 0.14169666 0.056175504 -0.06480973
-0.04072159 0.013536248 0.01933 -0.06251598 -0.07218176 -0.030839257 0.12795906 -0.01032986
-0.069013506 -0.009947811 0.11440288 0.08112832 0.018289257 0.09914344 -0.16940463 -0.09400076
-0.08542002 0.013827549 0.021746771 0.008395783 -0.15689947 0.022532975 0.13071698 0.16810316
0.11478017 0.16994247 0.07010961 0.13538572 -0.11298337 -0.04556819 -0.111020185 -0.09109642
0.12004893 -0.0026009798 -0.16701111 -0.10850517 0.13618267 0.13927685 -0.12351522 0.0024559346
-0.01014583 0.03639963 0.03426658 0.09111615 -0.027174518 -0.094329156 -0.06836852 0.01123346
0.25398085 -0.050527006 0.044265978 0.03235011 -0.043588445 -0.071572654 -0.050589427 0.099158056
0.1488108 -0.107058644 0.04673503 -0.040766276 0.020723645 0.10050202 -0.12172544 0.075208515
0.08606458 -0.14953738 0.027178666 -0.2775209 0.11568278 -0.15451159 0.010295059 0.029968787
0.071646184 0.116382174 0.024919204 0.10849247 0.11885978 0.103184916 0.043422576 -0.12680288
-0.10247122 0.08556181 0.12467738 -0.14813818 0.05329971 -0.0349954 -0.15073296 0.111707866
-0.055116326 0.122265294 -0.014880852 0.09298199 -0.05508228 0.03727311 0.14510186 -0.0018992245
0.06775627 -0.14287989 -0.11164917 0.16830923 0.061375886 -0.026456775 -0.11686056 0.034064602
0.07675931 -0.08037885 -0.09968271 0.12605804 0.038914792 0.11788168 0.14652924 0.07392311
0.071271375 -0.03143877 0.068698846 0.09228842 -0.10046285 -0.14435802 0.12473187 0.09947316
0.13833967 0.08833786 0.08066818 -0.1365657 0.033156957 -0.07685071 -0.12382632 0.14423636
-0.008207938 0.11294761 0.039367076 0.049821753 0.10676802 -0.05840581 0.124861464 0.057182394

model.rnn.weight_hh_l1 f4 [160, 40]
00000000: e582 17bd 210d f3bd 9eba 003e 0ff7 963d
00000010: b1e3 1cbd cc7e 61be 3fa6 2dbc 034a 803d
00000020: ad8b 933d 540c 1e3d 36f3 013c e591 b83d
00000030: 02ba e5bc 2e3f 043d 1fef fabd 1ceb cfbd
00000040: afbc 023e 2c99 4abd 9bfd 11be 3f85 0b3c
00000050: c5e2 c13d 4dac 7a3d 82b1 733d b2ef e83d
00000060: fcb6 293e cb4a 2e3c 6a55 053d 0522 46be
00000070: d29b a2bd 59bd 9fbc cc93 fb3d ef11 cabd
00000080: 70e4 d7bd aa21 1cbd e1f9 143e 00ef c2bc
00000090: 9b8a 553c 2cdb 8d3d 98c1 1dbe 31af b23d
000000a0: 01f3 41be 4758 553d 8e62 76bd 9c60 13be
000000b0: 2cf8 a1bd 0393 eb3d f5c1 50bc 45c8 b3bd
000000c0: 1d87 fe3d cdaa 293e 5397 9a3c 110d 093d
000000d0: 6393 4a3d c899 83bd b3f3 d2bd cb25 3cbd
000000e0: 0f0d 81bd e24f 733c 39dd 34bd 6290 dc3d
000000f0: 7cd6 583d d2b7 95bd 2338 533c cf39 143e
00000100: 5712 123d f73b 9fbd f0fe bd3d fa4e 98bd
00000110: ebc6 a2bd 2376 d1bc 863f 70bd 7f36 12be
00000120: 1148 203e a138 35bd 27f3 d7bc e54b eb3d
00000130: 395e 023c 3126 7dbd 15b2 3cbd ab3a d83d
00000140: 4461 01be 4e08 8b3d b822 bf3c f095 093e
00000150: 59cd d2bd 4298 683d 7fc5 e1bd 9af0 19bd
00000160: 45a8 60bc 0690 97bc bcde 64bd cc8d 6abd
00000170: f4ae 8d3d 4a54 16bd ecae 47bd 6a30 043e
00000180: 06f9 1cbe 5ca6 c83d 40da 1cbe 6d58 303b
00000190: 3c93 383b 2de7 d7bc 6105 da3c f277 613c
000001a0: 3871 f13d 187b a73d 7b34 0c3e 098b c53d
000001b0: 3589 e6bd 7ada fabd 397d 6cbd 2ab7 56bd
000001c0: d458 1a3d 39f3 c13d 7177 16be 3e3f 98bd
000001d0: be66 13be ef6f 8a3c 5446 b93d dd58 313d
000001e0: 2c64 b1bd e7f1 1fbe f8f8 edbc 878d 293d
000001f0: d5fb 8cbd ed88 d53d 50e7 cb3d 18b5 a2bc
00000200: 60e2 a2ba f458 a53d 0ea5 9f3d 102b e83c
00000210: 7f75 61bc 5848 26be ed6a d5bd ce06 003d
00000220: ea96 10be f320 43bb 2d07 303e a36f 9abb
00000230: f9be 453c 9a1a afbd 2eba f13c 9c98 c0bb
00000240: d2eb ab3c 8c9d 80bd 16a9 0e3e 1898 3f3c
00000250: eeae b43d c538 03be 8195 023e b50d 8a3d
00000260: 2790 003c 8fc4 b13d 09ad 00bd 4c3b 8cbc
00000270: eab8 6abd df4a bc3d a70f 6b3c 065d aa3c
00000280: 2b97 963d dd1c 7c3d 0ce9 163e be17 1bbe
00000290: 0d33 433d 632c b53a 3fff 58bd 5e02 333d
000002a0: 8169 083e 0da8 a63c 1763 123e 203a b7bd
000002b0: 46f2 a4bd 6d0e b83d d071 983d 8021 5c3d
000002c0: a281 fdbd 8a8f 7b3d ac5e c33b 8387 d0bc
000002d0: 3dec ad3d d528 dcbd 2fe7 29be b942 19be
000002e0: 821c fbbd 99c7 b33b 1bc9 3d3c 9cac d63d
000002f0: 6b2d 13bd 3860 1dbd 5b99 dd3d c12c 0dbe
00000300: 762b 11be 6f55 013e b8fc 4cbc d3d8 a83d
00000310: ba88 063e 038c f6bc a1d0 ff3c d2ba c53d
00000320: bc50 dd3d d9cf b93d e4f3 a43b 06b0 4c3d
00000330: d49f fabd 67b4 0e3e 0f4b 683d 0921 b5bd
00000340: 71f3 333c 9161 083e b9ef afbd dacf ab3d
00000350: 1d23 0cbe 1899 f83d 19fd ac3c 1325 0fbe
00000360: 93a9 ef3d b4aa fd3b 5dfa 2cbd 8c21 dbbc
00000370: 46e5 d63c f56e b23d b1c7 0bbe b038 803d
00000380: 9815 183d ce8f 5ebd 2929 e83d 6c18 1ebc
00000390: be5b d9bd 73ac db3d f733 acbd 7cd6 f63d
000003a0: 2b5f 8e3c 6d98 623d a4c8 23be 55e1 16be
000003b0: 9160 b1bc e86f 10be 001d 9d3d e58d e43d
000003c0: fca2 23bd e3fe 113e 4eea 06be ee32 e2bd
000003d0: cffc 253e 6d10 e13d 7ef4 463b f99c 113e
000003e0: 0ba3 a53d 8f86 523a e02a 83bd ceb2 9e3d
000003f0: 5186 033d 393e b43d 60ce d83d 462b 52bc
-0.036990065 -0.118677385 0.12571189 0.073713414 -0.03830308 -0.22021025 -0.010598718 0.062641166
0.072043754 0.038585976 0.007931521 0.09012202 -0.028042797 0.032286815 -0.1225264 -0.101522654
0.1276729 -0.049462482 -0.14256899 0.008515655 0.09467081 0.061199475 0.059495457 0.11373843
0.16573709 0.010637949 0.03255216 -0.19348915 -0.079398766 -0.019499468 0.122840494 -0.09866702
-0.10541618 -0.038118042 0.14548446 -0.023795605 0.013033534 0.06926569 -0.15405881 0.08724821
-0.18940355 0.05208614 -0.060152583 -0.14392322 -0.07908663 0.1150265 -0.012741555 -0.08778433
0.124281146 0.16569062 0.018870985 0.033459727 0.049456965 -0.06425816 -0.10300388 -0.04593448
-0.06301319 0.0148505885 -0.044156287 0.10769726 0.052938923 -0.073104516 0.012891802 0.14475177
0.03566202 -0.07775109 0.09277141 -0.074369386 -0.07948097 -0.025569027 -0.05865433 -0.14278601
0.15652491 -0.04424346 -0.026361061 0.11489085 0.007957035 -0.061804 -0.04606827 0.10558065
-0.1263476 0.06788693 0.023331985 0.13436103 -0.10293073 0.05678583 -0.110239975 -0.03758297
-0.013711994 -0.018501293 -0.05587648 -0.057264134 0.06918135 -0.036701478 -0.048750803 0.12909093
-0.1532937 0.097973555 -0.15317631 0.0026908175 0.002816393 -0.02635535 0.026613893 0.013761507
0.11789173 0.08177775 0.13691895 0.096456595 -0.11256639 -0.12248702 -0.05773661 -0.052420773
0.03768237 0.09470219 -0.14694001 -0.074339375 -0.14394662 0.016899077 0.09046617 0.043297637
-0.086616844 -0.15619622 -0.029049382 0.041394737 -0.06883971 0.10426507 0.09956229 -0.019861743
-0.0012427084 0.08073607 0.077951536 0.028340846 -0.013760923 -0.16238534 -0.10420785 0.03125649
-0.14120069 -0.0029774278 0.17190237 -0.004713015 0.012069457 -0.08549996 0.029507723 -0.0058775675
0.020986471 -0.0628005 0.13931689 0.011693977 0.08822428 -0.12814625 0.12752344 0.06740896
0.007846869 0.08680069 -0.03141502 -0.017118119 -0.057305254 0.09193968 0.0143469935 0.02079631
0.07353052 0.061550964 0.14737338 -0.15145776 0.047656108 0.0013822432 -0.052977797 0.04370343
0.13321497 0.020343805 0.14295612 -0.08946633 -0.080540225 0.089871265 0.07443583 0.053742886
-0.12378241 0.061416186 0.0059622135 -0.025455242 0.084923245 -0.107499756 -0.16592096 -0.14966859
-0.12261297 0.0054864404 0.011583592 0.104821414 -0.035931986 -0.03842184 0.10820266 -0.13786604
-0.14176735 0.12630247 -0.012511425 0.08244481 0.13138095 -0.03009606 0.031227412 0.09654774
0.108064145 0.09072847 0.005033957 0.049972557 -0.12237516 0.13936006 0.056712206 -0.088441916
0.010983334 0.13318469 -0.08590645 0.08389254 -0.1368527 0.12138575 0.02111678 -0.13978986
0.117022656 0.0077412967 -0.042230953 -0.026749395 0.026232373 0.087125696 -0.13650395 0.06260812
0.03712997 -0.05433636 0.11335976 -0.009649377 -0.106132016 0.107262515 -0.08408349 0.120526284
0.017379364 0.055321146 -0.15994507 -0.14734395 -0.021652492 -0.14105189 0.07671547 0.11159877
-0.039950356 0.14257388 -0.13175318 -0.1104487 0.1620972 0.10989461 0.003035813 0.14220037
0.080877386 0.0008030915 -0.06404662 0.07748948 0.032110516 0.088009305 0.10586238 -0.0128277

model.rnn.bias_ih_l1 f4 [160]
00000000: a8b8 d8bb f1b6 383e 1437 e2bc 2307 0ebb
00000010: 9057 763d 71f5 babd 3f05 d33d ec39 e3bd
00000020: 9a8d 2fbe 8f99 213e e685 4f3e c287 d3bc
00000030: 7196 e3bd f5a9 02bd 34ad 8bbd 7d2b e53d
00000040: eba5 abbd de00 b8bd 1ec0 bc3d cd18 3b3c
00000050: 406b 4c3c ad6c 123e 0a9e b7bd 106e f33d
00000060: 4cd5 0c3e 273d b33d eb87 38be 95b4 65bc
00000070: a3e9 4a3d 1c29 42bd dc50 56bc 66b5 2b3d
00000080: 2d44 02bc 8fe6 223e fb3e bdbd e595 e73c
00000090: eb6b 183e 3566 123e a42b 5e3a ed9b a1bd
000000a0: f7f9 8b3d 6044 053d 4a24 ecbd b81f adbb
000000b0: 6604 27be 2e0f adbd 6673 613c 5e59 1f3d
000000c0: f1be 183e edcc 46bd 8c7a 283e be44 803c
000000d0: 8a93 963c 7ef6 103b 4d74 c1bc 3015 60bd
000000e0: 9a6c 64bc ee74 1c3e 0743 20be bfed 2a3d
000000f0: 324a c1bd 5a19 fb3c 132b 453d 4cc1 743d
00000100: bbf1 79bd 0c76 273e 17c5 22be 88a8 703d
00000110: 8503 acbd c1c3 1b3e f45e 013e a3bb 5bbc
00000120: cc6a cdbd 0414 ff3d 997d d0bc 54a1 023d
00000130: 4781 02be e1df d8bd 6d33 1c3d 5056 093e
00000140: 8a1c 853d 9e48 00be 6ee0 97bd 2f23 da3c
00000150: ac30 fa3d 4ba8 c0bd 06dc 9abd 23ea 323e
00000160: 5b77 163e a355 8e3c 6153 a33d 686d 33bd
00000170: ea9a 933d 0269 443c 15aa 01be ca6d 21bd
00000180: d2ec 3bbe 28d7 27be 5796 aabd 4f70 bbbd
00000190: e5aa 9f3c bf99 0dbd 1223 bcbd 38de 873d
000001a0: 509c e5bd a7bf 223d c7a8 31be b17e caba
000001b0: 1fd2 bb3d 3e69 ad3d 76df 1f3e 789a 1b3e
000001c0: 9595 203e 0f49 c93d 1c0d a03d 9d28 58bd
000001d0: 8473 e0bd 18de 413d 1d7d debd 1691 18bd
000001e0: 1e3a c13d 0d28 f93d a1ea ab3d 556c a63c
000001f0: 2aea e03d 3319 39be c171 913b fa94 a63d
00000200: ebe8 f13c 380c 843d 8afc e53d 1838 5cbd
00000210: f299 e43d 2423 b7bd 40d7 593c 253b f83d
00000220: 9a3e fe3d 7ddb cb3d e21e f4bc d5fd 803d
00000230: 49c7 fa3d 1795 613c 2bd5 39bd 6e8c 583b
00000240: d8d8 623c cb31 ef3d d747 39be c8c4 b53d
00000250: 7a80 6ebd 527a 223e 8cd8 ab3d 944a e4bc
00000260: b014 1d3d 84a7 463e 451a c43d d48d e73d
00000270: 25c2 c13d b581 173e 89b5 a83d 05eb bb3d
-0.0066138096 0.18038537 -0.027614154 -0.0021671734 0.0601421 -0.091288455 0.10303735 -0.11095032
-0.1714386 0.15781234 0.20265922 -0.02582157 -0.11112679 -0.031900365 -0.06820145 0.11189935
-0.08381256 -0.089845404 0.09216331 0.011419487 0.012476742 0.14299269 -0.089656904 0.11886227
0.13753241 0.08751898 -0.18020599 -0.014020105 0.04953922 -0.047402486 -0.013080802 0.041921042
-0.007950825 0.15908264 -0.09240528 0.028269717 0.14884917 0.14296801 0.0008475131 -0.078910686
0.068347864 0.03253591 -0.11530359 -0.005283322 -0.16310272 -0.08450161 0.013760423 0.038903587
0.14916588 -0.048535276 0.16452998 0.015657779 0.018380899 0.0022119577 -0.023615027 -0.054707706
-0.013941908 0.1527898 -0.15650569 0.04173064 -0.0943798 0.030651737 0.048136782 0.059754655
-0.061021548 0.16353625 -0.15895496 0.058754474 -0.08399109 0.15211393 0.12633878 -0.013411435
-0.100301355 0.124549896 -0.025450515 0.031892136 -0.12744628 -0.105895765 0.03813498 0.13411832
0.06499584 -0.12527701 -0.074158534 0.026628105 0.12216315 -0.09407099 -0.075614974 0.17472129
0.14693968 0.01737482 0.07974888 -0.04380551 0.07207282 0.011987926 -0.12662537 -0.039411344
-0.18352059 -0.1639067 -0.08329456 -0.091522805 0.019490669 -0.03457045 -0.09186377 0.06634182
-0.11211455 0.039733555 -0.1734954 -0.0015449134 0.09170937 0.08467339 0.15612587 0.15195644
0.15682061 0.09828388 0.078150004 -0.052773107 -0.10959533 0.047330946 -0.10863707 -0.03724774
0.09434913 0.12165842 0.08394361 0.020315329 0.10982163 -0.18076019 0.0044386094 0.08133884
0.02953001 0.06447643 0.11229809 -0.053764433 0.11162175 -0.089422494 0.0132959485 0.12120656
0.12414284 0.099539734 -0.029799882 0.062984146 0.12245042 0.013768456 -0.04536931 0.0033042687
0.013845645 0.11679419 -0.18093811 0.08875424 -0.058227994 0.15866974 0.083909124 -0.027867593
0.038349807 0.1939984 0.09575323 0.113063484 0.09460858 0.14795573 0.0823775 0.09175686

model.rnn.bias_hh_l1 f4 [160]
00000000: 0582 09bd 9253 8e3c 2676 7f3d 7cf8 43bd
00000010: 85d3 053e 74c8 053e 5164 ba3d 6b1e ccbd
00000020: afea 993d 0fd8 d6bd 6a38 4e3e b79b 653d
00000030: c167 433e ebdf 063e 2e26 3dbd e89a 1a3e
00000040: 6af2 293e 2738 763d c560 8eba c75c b8bb
00000050: b041 de3c fc36 c7bd b4b5 02be fb3f b33d
00000060: a836 013e 410d e93c 156d b9bd 8d39 7ebc
00000070: 3bb9 243c 54ed 1a3e 851e 613d 260b 103e
00000080: 38fe ec3d c7fd 363e 5c6c f33d 02cf a53c
00000090: 1710 e2bd c987 e3bd 79da 263e e6c6 923d
000000a0: 4499 59bd b53b fcbc 65cb e3bc 4020 99bd
000000b0: ef5d c4bc c15a f93d e13d f6bc 56c9 2e3e
000000c0: 5233 943d fd54 0b3e 6cc3 babd 7269 813d
000000d0: 6bad 90bd e0ac 43bd a854 f13d f7d0 fbbd
000000e0: 33bf aebd 8867 ad3d b69f 443d c802 133d
000000f0: dc1e 893d 8898 483e c055 483e dff8 253e
00000100: 5303 a23c a84d 643d 76f4 cbbd c9ca 13be
00000110: e970 003e 9d4e 293e dccc 623d 4237 25be
00000120: f154 923d 123c 483e ec34 f23d b11f 46bd
00000130: c517 4a3d 2845 e03d 5094 7b3d dd9d 46bd
00000140: 90a9 2dbe 76fd 78bb c470 043e e68f 8abd
00000150: ab5f 863d d8f3 8cbd 4623 163e c355 423c
00000160: ee73 30bd d8bf 8c3d d364 763d 9550 a6bd
00000170: 7f5a af3d 3c37 12bd 2270 34bd 8ed6 c7bd
00000180: 6c06 30bd 555f 22be 8074 e23d 5e47 27bd
00000190: 2d76 e0bd 07f5 d53d 38b4 cf3d 361b 243e
000001a0: 3d5f 12be fe28 a2bd 07a9 943d 2858 973d
000001b0: 65d2 f33d 6af6 ef3d 7cf2 083e a886 993c
000001c0: be1e f73d 4f76 6d3d ec42 d03d 9a48 bd3d
000001d0: cc53 9ebd b12b f53d d6b3 bebc 89c0 1dbd
000001e0: c80f 68bd c917 043e 4b37 9cbd 82f6 713d
000001f0: d431 de3c 62f7 abbc ebdb 043e 6e98 e1bd
00000200: 07e1 2abc 4cd5 8cbd 7db0 983d 66ec 543e
00000210: c47f e23d 8e7b f7bd 0654 8cbd 332a 3ebc
00000220: b47a d53d 5a15 543e 235b 093e a1f0 febb
00000230: ddad 103d 84c4 9e3d 16dc cb3d 81e3 443e
00000240: 8a5d a93d cb3d e13c 05ba 31be e2cb 2abe
00000250: b093 82bd e405 19be 4a54 7c3d ca67 1cbe
00000260: 40e5 f83d 1b70 3dbd d6cf 19be b7ef 1f3e
00000270: c7f8 d03d abeb 8a3c 4ba0 0a3d 5c66 633e
-0.033571262 0.017373834 0.062368535 -0.047844395 0.1306897 0.13064748 0.09101165 -0.09966739
0.075154655 -0.10490429 0.20138708 0.056056704 0.19082548 0.13171355 -0.04617899 0.15098155
0.1659638 0.060112145 -0.001086258 -0.0056262943 0.027130932 -0.09727284 -0.12764627 0.08752438
0.12618506 0.028448703 -0.09054009 -0.015516651 0.010053928 0.15129596 0.054960746 0.14066753
0.11571926 0.17870246 0.11885902 0.02024031 -0.11038225 -0.11109883 0.16294278 0.07166843
-0.05312468 -0.03079019 -0.027806947 -0.07476854 -0.023970572 0.12175513 -0.030058803 0.17068991
0.07236351 0.13606639 -0.09119305 0.0631894 -0.07064327 -0.04777229 0.11783725 -0.12295716
-0.08532562 0.08467013 0.048003875 0.035891324 0.06695339 0.19589436 0.19563961 0.16208218
0.019776976 0.05573812 -0.099587366 -0.14432825 0.12543072 0.16533895 0.05537115 -0.1613436
0.071451075 0.19554165 0.118265 -0.048370067 0.049339075 0.109506905 0.06142074 -0.048490394
-0.16959214 -0.0037992871 0.12933642 -0.06765728 0.06561216 -0.06882447 0.14661893 0.0118612675
-0.04307931 0.06872529 0.060154747 -0.081208386 0.08562183 -0.035697207 -0.04405225 -0.0975772
-0.042974874 -0.15856679 0.11057377 -0.040839545 -0.1096004 0.10447126 0.10141796 0.16026005
-0.14294143 -0.07917975 0.07258802 0.07389861 0.11905364 0.11716922 0.1337375 0.018740967
0.120664105 0.057974156 0.10169014 0.09242363 -0.07730827 0.11971224 -0.023279112 -0.038513694
-0.056655675 0.12899698 -0.07627734 0.05907298 0.02712337 -0.020991985 0.12974517 -0.11015402
-0.010429627 -0.06876621 0.074555375 0.20793304 0.110595256 -0.12084113 -0.06851964 -0.011606741
0.104237944 0.2071127 0.13413672 -0.00778015 0.03532206 0.07752326 0.099540874 0.19227411
0.08269794 0.027495285 -0.17356117 -0.16679338 -0.063758254 -0.14943653 0.06160382 -0.15273967
0.12153101 -0.04624949 -0.1502069 0.15618788 0.102037005 0.016958078 0.033844274 0.22207016
